online_adapt_sim/learned_models/meta_mlpt_h2_bl20/model_param.pth (torch, 3639 bytes, 4 tensors)

mlp_encoder.model.0.weight f4 [32, 9]
000000 d1 cd 70 38 b4 eb dc 38 18 54 27 b9 8a ca 1e 36
       5.741214e-05 0.000105343206 -0.00015957688 2.3661728e-06
000010 1b c2 24 39 ee da 0c 39 95 9b f6 38 4d cc ce 36
       0.00015712569 0.00013432998 0.000117591735 6.163062e-06
000020 b8 ba e2 b7 8a ac c5 38 12 24 e3 38 52 4f b6 37
       -2.7028247e-05 9.42583e-05 0.00010830922 2.1733027e-05
000030 96 5c 71 38 af 88 c1 b8 82 a9 3b b9 6f 45 a1 b9
       5.7545105e-05 -9.2284165e-05 -0.00017896856 -0.00030760045
000040 0e 55 c0 b7 ba 4b 65 b9 3c 99 26 b9 27 98 33 b9
       -2.292779e-05 -0.00021867352 -0.00015888078 -0.00017127451
000050 41 a3 c1 37 ce cc 60 b8 48 0c c6 39 cb fa a9 b8
       2.3083414e-05 -5.35965e-05 0.00037774653 -8.105262e-05
000060 ca b6 98 38 23 96 17 b9 5b a2 8b 37 ae e3 81 38
       7.281972e-05 -0.00014456412 1.6645694e-05 6.193608e-05
000070 62 05 8a 39 63 7e d5 b8 d4 0a 31 38 72 fd 3b b6
       0.00026325422 -0.00010180173 4.2210173e-05 -2.8012696e-06
000080 74 b0 10 38 e1 5f 2b 38 c3 24 44 b8 7f 1a e1 b7
       3.449661e-05 4.085887e-05 -4.676428e-05 -2.6834428e-05
000090 25 92 74 b9 5d f9 77 3a b8 5d 4e ba 2a c8 0d 39
       -0.00023324096 0.000945946 -0.00078722415 0.00013521375
0000a0 13 96 17 39 ee 74 5c 37 2d 90 55 39 6e bd 7e 3e
       0.00014456389 1.3140247e-05 0.00020366973 0.24876949
0000b0 6c e8 23 ba 18 af aa b8 1e c5 8b 38 4a 25 67 37
       -0.000625259 -8.1388454e-05 6.6647524e-05 1.3777355e-05
0000c0 47 85 b5 b7 7f 69 48 b7 1a 69 ea 38 b0 12 b9 37
       -2.1638944e-05 -1.1945492e-05 0.00011177566 2.206242e-05
0000d0 38 6c 14 39 16 4b 68 39 57 d1 06 bb e1 f0 8f 3a
       0.00014154695 0.00022153216 -0.0020571554 0.0010981822
0000e0 8f 98 82 3a 99 dd 5a b9 56 45 c1 39 9e ce f4 b5
       0.0009963679 -0.00020872652 0.00036863488 -1.823955e-06
0000f0 30 ff 69 b9 2a ee 9f 3e fb 88 f9 37 98 5b 88 be
       -0.00022315676 0.31236392 2.97469e-05 -0.2663238
000100 ac fb e4 39 35 e2 8c b9 04 35 b3 be 6f 14 83 b8
       0.0004367506 -0.00026871418 -0.35001385 -6.250373e-05
000110 b1 19 af b8 c7 a1 b6 be 97 6d b4 b9 34 75 2b b9
       -8.349436e-05 -0.356703 -0.00034413926 -0.00016351492
000120 34 45 82 b9 46 4d 99 b9 3b 2a 87 38 a6 8b 16 39
       -0.00024847093 -0.00029240007 6.445168e-05 0.00014357138
000130 b6 8a 58 b9 de d5 8c 38 ab d7 a7 b8 e4 57 e8 37
       -0.00020651039 6.715556e-05 -8.003352e-05 2.7697482e-05
000140 5d fd b2 b8 79 bd 11 b8 31 33 cf 3a db 7c 8e 38
       -8.534894e-05 -3.4747154e-05 0.0015808103 6.794344e-05
000150 42 e2 25 3a 56 f2 bb 3d 45 a7 8c 39 7e 79 e6 39
       0.00063279655 0.09177081 0.00026827506 0.00043959537
000160 cd 4e e0 3d fc f3 98 ba 75 4d 7a 38 d4 c8 d4 38
       0.1095253 -0.0011669393 5.9676782e-05 0.00010146355
000170 51 a6 98 b8 69 58 b8 b7 9f a0 9d 38 57 6b 66 b9
       -7.278904e-05 -2.1975678e-05 7.5162614e-05 -0.00021974496
000180 0d 58 86 39 b2 15 3e b9 59 fa 50 b6 b9 8a cb 39
       0.00025624075 -0.00018127894 -3.1140137e-06 0.00038822534
000190 36 a3 97 b5 bd 86 43 b8 79 f8 5c b8 10 c2 97 b7
       -1.1297877e-06 -4.6617108e-05 -5.2683496e-05 -1.809097e-05
0001a0 2a ef 98 b8 4a 3a be 38 42 47 36 b7 87 b3 91 b8
       -7.2924726e-05 9.070763e-05 -1.0864636e-05 -6.9475784e-05
0001b0 a1 c8 c9 b6 cb a7 ce b8 95 31 25 38 17 85 4d 38
       -6.013623e-06 -9.854099e-05 3.9385242e-05 4.899976e-05
0001c0 25 ce d4 38 0d 28 84 38 e4 3d 1e b9 3e a0 0f 37
       0.00010147345 6.3017105e-05 -0.0001509111 8.5607735e-06
0001d0 e5 52 70 b7 fd 51 85 38 47 3f a2 b8 ee 5d 88 38
       -1.4324415e-05 6.357206e-05 -7.736548e-05 6.502481e-05
0001e0 f0 cd 20 37 ba d5 5b 39 aa d6 9d b8 e8 b3 5f 38
       9.584692e-06 0.00020965087 -7.526328e-05 5.3334894e-05
0001f0 f8 7d fc b5 85 de f5 38 d0 36 c2 37 6a 05 89 36
       -1.8812125e-06 0.00011723958 2.3152126e-05 4.0835484e-06
000200 e4 d9 45 b8 f0 ac 3f 39 d6 26 84 39 24 82 27 38
       -4.7171387e-05 0.00018279604 0.00025205937 3.9937106e-05
000210 fa 52 63 38 ff 6b 03 38 15 df 61 39 fd 09 d7 38
       5.4198295e-05 3.1333413e-05 0.00021540777 0.00010253859
000220 d0 e6 1a 39 aa 99 30 b8 fe d3 f7 38 26 e2 a9 38
       0.00014772569 -4.210478e-05 0.000118173644 8.1006714e-05
000230 37 bd ed 36 68 7d ad b8 a5 c5 a2 b9 89 f6 98 b6
       7.085178e-06 -8.2726416e-05 -0.00031046305 -4.5586535e-06
000240 00 0c 72 b7 a4 98 be 39 c7 57 b7 b9 a6 65 23 38
       -1.4427118e-05 0.0003635335 -0.0003496988 3.8956896e-05
000250 04 76 64 b8 a3 4c 80 38 fb b0 29 b8 67 b1 ae b8
       -5.4469347e-05 6.11779e-05 -4.0457566e-05 -8.33001e-05
000260 ee a7 19 37 b5 04 34 39 ad 03 8e 39 35 96 95 b8
       9.15861e-06 0.00017167891 0.0002708709 -7.132852e-05
000270 95 c6 2b 39 fb 8d 76 39 f5 64 c9 38 5f 28 41 b9
       0.00016381808 0.0002351328 9.6032316e-05 -0.00018420954
000280 40 04 3d b8 9e b6 62 39 d8 6a e8 38 5a 11 1c b7
       -4.506507e-05 0.0002162107 0.00011082523 -9.302365e-06
000290 25 6d 8c 37 de e0 9e b8 64 3b a1 b8 20 e1 65 b9
       1.6740125e-05 -7.575912e-05 -7.6881406e-05 -0.00021923007
0002a0 07 d6 b5 38 10 17 98 39 89 e9 62 39 0d 7b 0d be
       8.670618e-05 0.00029008882 0.00021640038 -0.13816471
0002b0 db 1c eb b8 c5 3b 95 b9 b0 82 59 bc da 89 99 39
       -0.00011211048 -0.00028464026 -0.013275787 0.00029285141
0002c0 55 e5 01 b9 15 2b 0c bc 0c e9 a7 b8 55 b3 b8 b6
       -0.00012387832 -0.008555193 -8.006589e-05 -5.5045043e-06
0002d0 72 ef 0c 3a b6 18 30 3e e6 a5 cb 3d 4c 27 27 3a
       0.00053762563 0.17196926 0.09943752 0.00063764
0002e0 60 4c 88 3e ee 1d c5 3d 94 3e ed 3c df 77 0b 3e
       0.2662077 0.09624849 0.028960504 0.13619946
0002f0 3e ae a1 3d eb ee 13 39 a5 5f 51 b9 ef b1 18 39
       0.07894562 0.00014108016 -0.00019967424 0.00014562135
000300 26 44 ca b8 c2 40 29 39 97 ea 31 38 c6 62 62 b8
       -9.644804e-05 0.0001614122 4.2418567e-05 -5.397459e-05
000310 82 b5 05 37 98 7f a9 39 b0 49 18 b9 be ac 00 b9
       7.969678e-06 0.00032329257 -0.000145233 -0.00012271383
000320 a6 a5 87 37 7b d9 80 b7 2f f7 0c 39 73 73 9c 37
       1.617039e-05 -1.5360061e-05 0.00013443523 1.865041e-05
000330 52 fa 8b b8 df bb bd b9 20 03 3d 39 31 a9 a8 37
       -6.674662e-05 -0.00036188864 0.00018025609 2.0105947e-05
000340 f1 f1 e1 39 78 88 cd b8 0e 08 ad b7 43 ce 89 39
       0.00043095605 -9.800581e-05 -2.0626958e-05 0.00026284353
000350 8b 3c 56 b8 14 70 b0 b8 0e 5d a8 b7 1a d8 a4 b8
       -5.107796e-05 -8.41321e-05 -2.0070493e-05 -7.8603814e-05
000360 db 30 27 b9 18 cd 9e 39 ae 98 8d b8 ee 31 ef 38
       -0.00015944561 0.00030288915 -6.751843e-05 0.00011405708
000370 68 e3 14 b9 e5 d7 4b 39 85 f3 bc b8 4d 93 c3 b7
       -0.00014199095 0.00019440016 -9.0098976e-05 -2.3314404e-05
000380 16 fb 99 38 49 e0 1a b9 88 9d b5 b7 af 15 01 39
       7.342377e-05 -0.00014770137 -2.1650238e-05 0.00012310476
000390 40 6f b2 b8 fb ab f4 37 2d 84 d7 38 9e 42 80 38
       -8.508423e-05 2.9167151e-05 0.000102766186 6.115924e-05
0003a0 8e 5a 9b 38 b5 67 af 38 1e 70 40 b8 87 ec 29 39
       7.407843e-05 8.363967e-05 -4.5880784e-05 0.00016205209
0003b0 1a 63 0d b9 47 1a 3b b6 47 3c 0b b9 41 94 d2 b8
       -0.00013483726 -2.7880467e-06 -0.00013278528 -0.00010041195
0003c0 dd 3a c9 38 70 89 ca 38 d4 ab 09 b9 42 a4 19 39
       9.595391e-05 9.65771e-05 -0.00013129349 0.00014652408
0003d0 e9 64 e0 38 7b 2f 82 37 f0 72 25 b9 fe 87 b7 b8
       0.00010699948 1.5519317e-05 -0.00015778444 -8.7514505e-05
0003e0 c3 ea 43 38 08 12 7a 38 ca 6f 53 b6 d7 18 0a b9
       4.671026e-05 5.9621438e-05 -3.150652e-06 -0.00013169959
0003f0 4a 4e bb b8 0d 91 25 b9 fb 29 a1 b9 40 f1 ac b8
       -8.931437e-05 -0.00015789662 -0.0003073959 -8.2465354e-05

mlp_encoder.model.0.bias f4 [32]
000000 a1 e9 a9 b8 ef 07 69 39 ff 09 b9 b8 53 e0 86 b8
       -8.102065e-05 0.00022223567 -8.823349e-05 -6.4314016e-05
000010 d4 e8 93 3e 5a 13 47 39 a0 8d 20 b9 52 31 1e 39
       0.2888857 0.00018985328 -0.00015311548 0.00015086427
000020 7e 5b 0b 37 22 32 85 3e 4d db 79 b8 d5 95 4b 39
       8.306348e-06 0.2601481 -5.9570466e-05 0.00019415405
000030 96 e7 29 39 61 26 8f b8 98 29 c7 36 be 6d ea 37
       0.00016203368 -6.82592e-05 5.9355043e-06 2.7946076e-05
000040 81 7d 89 37 3a cc d0 38 d2 c5 a9 b8 50 26 d5 39
       1.6390115e-05 9.956253e-05 -8.095395e-05 0.0004065507
000050 01 c4 81 b8 3e c3 9e 3c 4c 0c d0 bd 20 ac 0b 3e
       -6.187708e-05 0.019380208 -0.101585954 0.13639879
000060 ff 99 23 b9 ea ad 98 b8 ab e2 47 38 2c a2 38 39
       -0.0001560226 -7.280319e-05 4.76564e-05 0.00017608021
000070 3f 60 bf b8 7c e3 13 b8 eb 15 9a b8 c9 65 6b 38
       -9.125517e-05 -3.5259392e-05 -7.347375e-05 5.612316e-05

mlp_encoder.model.3.weight f4 [3, 32]
000000 05 8d e0 b8 e3 a7 11 36 bb f3 8c 38 63 f1 83 38
       -0.00010707419 2.1704407e-06 6.7211186e-05 6.2915286e-05
000010 32 a4 5d b9 60 8a 45 b8 da 5f b8 be 19 39 a8 38
       -0.0002113737 -4.7097332e-05 -0.3601063 8.0214995e-05
000020 d8 24 81 b8 92 ab e3 b6 5b 98 59 38 ac b0 06 b8
       -6.158062e-05 -6.7851006e-06 5.1878724e-05 -3.2112628e-05
000030 ef 82 52 b8 38 8a c6 36 e6 9f 0a b8 76 66 88 b8
       -5.0189843e-05 5.9169506e-06 -3.305068e-05 -6.50407e-05
000040 0c c9 f9 37 56 ac b7 b6 4f 36 1a 39 79 da b3 b7
       2.9776733e-05 -5.4738875e-06 0.00014706816 -2.1440197e-05
000050 b0 01 43 bf f8 ec 8e 38 65 f9 16 b9 56 aa 62 ba
       -0.7617445 6.8152265e-05 -0.00014398021 -0.0008646598
000060 c3 e0 a9 b8 68 9d 9e 37 7f c2 74 bd 2e aa 0b b8
       -8.100413e-05 1.8908366e-05 -0.0597558 -3.3298675e-05
000070 10 41 25 3e 4f 45 ea 38 a5 43 5d 39 10 68 f5 38
       0.161381 0.00011170899 0.00021101402 0.000117018935
000080 5b 7c a6 37 2d a7 65 b7 0e 8b 56 37 7f bb 12 38
       1.984665e-05 -1.3688387e-05 1.278777e-05 3.4983732e-05
000090 17 d7 cc be 2f 0d d2 38 29 c6 d3 bd 48 cc 7e be
       -0.4000785 0.00010016036 -0.103405304 -0.24882615
0000a0 94 60 48 b8 b3 45 d4 be 3a bf 8c b6 e1 b9 67 35
       -4.777366e-05 -0.41459426 -4.194587e-06 8.6324695e-07
0000b0 52 38 cb b7 53 c7 a0 b7 b5 cb 39 38 ed e1 c5 38
       -2.4225712e-05 -1.9166304e-05 4.4297154e-05 9.435774e-05
0000c0 3d dc 87 38 48 3b dd 37 22 de 13 b8 e5 ff c1 37
       6.478324e-05 2.6372858e-05 -3.525441e-05 2.3126553e-05
0000d0 c0 4a ed bd 90 cc 57 bd 31 26 31 3e 87 ee 8d bd
       -0.11586523 -0.05268532 0.17299725 -0.06930261
0000e0 34 d1 50 b7 75 20 89 37 f2 3b 46 37 59 4b a3 b7
       -1.2446475e-05 1.6346787e-05 1.1815677e-05 -1.94662e-05
0000f0 05 30 2c 3e 7a 16 3e 38 0d fa 5d 37 10 f9 db b8
       0.16815193 4.5320463e-05 1.3230846e-05 -0.00010489125
000100 91 b5 fe 37 90 9d 54 37 6a 8f 0f 38 33 9a a2 b7
       3.0363708e-05 1.267287e-05 3.422742e-05 -1.938371e-05
000110 41 d4 53 38 3c 11 3b b8 8f 05 3b b8 34 c0 57 3f
       5.0503997e-05 -4.4600325e-05 -4.458945e-05 0.84277654
000120 9d 13 f7 36 7e a6 36 b9 43 38 d3 38 37 f8 e5 b7
       7.363457e-06 -0.00017418896 0.000100717436 -2.7414511e-05
000130 82 68 d4 38 67 9d b5 b8 96 34 e0 b9 9c 8c 9b 36
       0.00010128414 -8.660071e-05 -0.0004276379 4.635729e-06
000140 5f 73 27 38 bb a0 36 b7 5a 66 a9 37 ce b5 b1 3e
       3.992335e-05 -1.0885468e-05 2.0194031e-05 0.34709018
000150 a2 9f b5 be 7e 30 8a b8 db db 1e 38 0d 4a 14 b9
       -0.35473353 -6.589385e-05 3.7874892e-05 -0.00014141966
000160 02 2b ca 37 98 26 f7 38 6b 2c 3b 36 5a 3c ed 38
       2.4100304e-05 0.000117850665 2.7891026e-06 0.00011312282
000170 f5 0f 23 38 57 42 aa b8 31 2d f5 b8 43 28 b7 b8
       3.887709e-05 -8.1185884e-05 -0.00011690928 -8.733619e-05

mlp_encoder.model.3.bias f4 [3]
000000 66 b0 8f 3e fc da 72 be 3e 33 c5 bd
       0.2806427 -0.23716348 -0.09628914
