online_adapt_sim/learned_models/meta_mlpt_h5_bl15/model_param.pth (torch, 4791 bytes, 4 tensors)

mlp_encoder.model.0.weight f4 [32, 18]
-0.10709782 -1.1557715e-05 -8.229906e-06 -0.073061846 0.005005157 0.14407712 -0.07219098 -4.0322743e-06
-0.020843212 -0.011243376 -7.60868e-05 -0.10476297 -0.09896704 0.0005482536 -1.8919685e-05 -0.07125459
0.00019130253 0.09018377 -2.3874829e-05 0.02820445 7.643146e-06 -0.19824673 4.1322016e-07 -1.0575151e-05
-0.0067748716 2.5675236e-05 -0.094144695 -0.017534368 3.4336193e-05 0.060920265 -0.034047008 7.992176e-05
0.044284422 -0.24162334 0.00026947414 0.089591935 1.935169e-05 0.00013852525 -0.014382003 3.813116e-05
2.7120414e-05 -0.000107351596 -2.3344704e-05 -0.00037483693 5.8316644e-05 8.930746e-05 -0.00018711295 -9.5368974e-05
0.0001273905 0.0001639783 -2.3116403e-05 8.310005e-05 -3.568619e-05 5.830871e-06 9.569316e-05 4.6283298e-05
-0.06796778 2.7993333e-06 -3.4822306e-06 -0.11995479 -0.00013085823 2.0003718e-06 -0.056992777 -9.901303e-06
0.00010971633 -0.05125649 7.05764e-05 -8.708893e-05 2.6405462e-05 -0.00013598698 2.0976178e-05 -3.2039996e-05
0.00014043269 -0.00059859944 -5.082614e-05 -7.899466e-05 -0.00011743861 6.112167e-05 -0.00010527548 -0.0011600263
-4.555607e-05 -3.746288e-05 -0.0007685287 -2.9138455e-05 -7.9155194e-05 -0.00064469496 -3.4215645e-05 1.0807084e-06
-5.1256677e-05 -0.0001909005 0.0067440267 0.00017367126 -3.4681536e-05 0.060462497 0.00017713758 -0.088917814
0.1477179 5.9417867e-05 2.7676957e-05 0.21867427 -2.464819e-05 3.065082e-05 0.17082661 -0.0002060412
0.069940716 0.17474109 -0.00027787525 -4.9602622e-06 -0.0005444566 0.0001084623 -9.306413e-05 4.915433e-06
0.00032978648 -0.00024287282 -0.000308695 0.020669714 -0.00010255768 -0.00019440851 0.22127706 -0.08210006
2.4101798e-06 0.26258585 -4.3153133e-05 -0.00030731017 0.31505856 -0.047306996 -5.587764e-06 2.9166942e-05
4.7136724e-05 -0.00021149204 -0.00031810498 -1.0290802e-05 1.4838281e-05 -3.6410187e-05 -7.3531e-05 3.000266e-05
0.0001831927 6.0902574e-05 -0.00010972762 0.00042527387 -9.759543e-05 -0.18531989 -6.910392e-05 -2.5541898e-05
-7.134352e-05 0.00016859762 -0.032472193 -0.00026904707 8.370844e-05 0.061301887 -4.3026634e-05 4.6624977e-05
-8.235027e-06 -0.0002131263 0.00032925972 2.8289693e-07 -0.00020500335 0.0057691648 2.2888444e-06 -0.00013290426
0.06446098 0.025984181 -9.805813e-05 -0.039312534 -0.16836658 3.8467468e-05 -2.1148413e-05 0.17562771
-0.11608354 2.9414892e-07 0.16054149 -8.0076046e-05 5.6885125e-05 -2.0451784e-05 -0.071672566 0.00020062398
-0.1745699 -0.08545485 0.000245531 0.13771954 -2.6158757e-05 0.022225983 -0.055635568 7.788457e-07
-2.3915214e-05 5.1957936e-06 0.00011743053 5.4124554e-05 -2.212773e-06 4.0694235e-06 0.0001535109 -0.055978727
-3.298293e-05 0.00030773212 0.17794009 1.0612024e-05 -1.5833748e-05 3.107115e-06 3.874575e-05 -3.57962e-05
-0.16343835 -0.019472457 -7.82683e-06 5.5385694e-06 2.3776212e-05 -2.4186188e-06 0.030472033 6.105637e-05
3.3787033e-05 -1.0049328e-05 -2.674852e-05 0.00022987476 -0.07726923 2.3409688e-05 -6.033972e-05 0.08794298
0.00014346644 -0.11198786 2.0029478e-05 0.00013692304 -0.0021497621 0.048665583 0.00010274955 4.6108667e-06
0.062848836 6.011733e-05 -1.1812528e-05 1.9766532e-05 3.8858067e-05 -1.5347958e-05 1.8023822e-05 8.785046e-05
9.685504e-05 1.0745128e-05 3.9495957e-05 -0.09529234 0.026377479 0.04532709 -6.985591e-05 4.375078e-06
0.09873763 -8.092497e-05 1.2192827e-06 0.08299901 -3.8067963e-05 0.05341569 9.083811e-05 -9.319828e-05
-1.0848093e-05 3.4767865e-05 5.9804115e-05 -0.08097407 -3.7159323e-05 3.8248047e-05 -2.3566545e-05 -1.3505498e-06
00000000: 1a56 dbbd 02e8 41b7 2d13 0ab7 73a1 95bd
00000010: 4d02 a43b f488 133e ddd8 93bd f94c 87b6
00000020: 62bf aabc 2336 38bc ca90 9fb8 f88d d6bd
00000030: 3baf cabd adb8 0f3a b7b5 9eb7 eded 91bd
00000040: 6298 4839 45b2 b83d ce46 c8b7 050d e73c
00000050: 103b 0037 3101 4bbe 8cd8 dd34 ed6b 31b7
00000060: beff ddbb 2661 d737 efce c0bd 3ca4 8fbc
00000070: 3504 1038 8787 793d e074 0bbd ab9b a738
00000080: 9563 353d 1c6c 77be 3548 8d39 fa7b b73d
00000090: 7055 a237 1741 1139 7ea2 6bbc 05ef 1f38
000000a0: a580 e337 f321 e1b8 5fd4 c3b7 c385 c4b9
000000b0: 0599 7438 944a bb38 c033 44b9 d400 c8b8
000000c0: 2194 0539 97f1 2b39 19ea c1b7 0046 ae38
000000d0: c1ad 15b8 cda6 c336 e0ae c838 5020 4238
000000e0: b132 8bbd 2edc 3b36 44b0 69b6 dbaa f5bd
000000f0: fd36 09b9 203e 0636 4271 69bd c61d 26b7
00000100: 8217 e638 53f2 51bd 6b02 9438 83a3 b6b8
00000110: 4c81 dd37 ba97 0eb9 00f6 af37 af62 06b8
00000120: 1d41 1339 54eb 1cba 272e 55b8 efa9 a5b8
00000130: 6049 f6b8 722e 8038 58c7 dcb8 060c 98ba
00000140: 7513 3fb8 7621 1db8 1777 49ba 5b6e f4b7
00000150: 1f00 a6b8 bf00 29ba c582 0fb8 dc0c 9135
00000160: 70fc 56b8 762c 48b9 fffc dc3b 861b 3639
00000170: 0477 11b8 86a7 773d 02be 3939 8b1a b6bd
00000180: 5c43 173e 7337 7938 d02b e837 26ec 5f3e
00000190: 96c3 ceb7 118f 0038 2ced 2e3e c30c 58b9
000001a0: 143d 8f3d 54ef 323e c9af 91b9 5470 a6b6
000001b0: ddb9 0eba 4176 e338 6d2b c3b8 3fef a436
000001c0: 31e7 ac39 adab 7eb9 57d8 a1b9 8853 a93c
000001d0: 3c14 d7b8 23da 4bb9 7496 623e 1424 a8bd
000001e0: 93be 2136 a771 863e 53ff 34b8 791e a1b9
000001f0: 5b4f a13e fbc4 41bd 877e bbb6 88ab f437
00000200: acb4 4538 f6c3 5db9 54c7 a6b9 a8a6 2cb7
00000210: eef1 7837 24b7 18b8 a834 9ab8 39ae fb37
00000220: 6a17 4039 a471 7f38 911d e6b8 4bf7 de39
00000230: 26ac ccb8 7fc4 3dbe e2eb 90b8 cf42 d6b7
00000240: 439e 95b8 94c9 3039 9001 05bd e30e 8db9
00000250: a08c af38 b017 7b3d 7f77 34b8 308f 4338
00000260: 2c29 0ab7 a87a 5fb9 7ea0 ac39 0fe1 9734
00000270: 2bf6 56b9 430b bd3b 0c9a 1936 375c 0bb9
00000280: 1e04 843d c7dc d43c 8fa4 cdb8 2e06 21bd
00000290: 4a68 2cbe 2158 2138 df67 b1b7 c0d7 333e
000002a0: 35bd edbd 85eb 9d34 fd64 243e 80ee a7b8
000002b0: f097 6e38 df8f abb7 11c9 92bd 975e 5239
000002c0: 74c2 32be f402 afbd 9dba 8039 5a06 0d3e
000002d0: 816f dbb7 4413 b63c 1fe2 63bd de11 5135
000002e0: 889d c8b7 8757 ae36 0945 f638 cc03 6338
000002f0: 277f 14b6 158c 8836 c5f7 2039 f349 65bd
00000300: 2757 0ab8 1b57 a139 ed35 363e 4c0a 3237
00000310: b7d2 84b7 d483 5036 ef82 2238 e123 16b8
00000320: 625c 27be b484 9fbc fb4f 03b7 f3d7 b936
00000330: 0773 c737 8e4f 22b6 7ca0 f93c 640b 8038
00000340: 8db6 0d38 8999 28b7 0262 e0b7 890a 7139
00000350: 543f 9ebd ec5f c437 4815 7db8 731b b43d
00000360: 7b6f 1639 e459 e5bd fa04 a837 0093 0f39
00000370: 06e3 0cbb 9055 473d 3f7b d738 0bb7 9a36
00000380: e4b6 803d 7e26 7c38 6c2e 46b7 4ed0 a537
00000390: 88fb 2238 7dbf 80b7 dd31 9737 5b3c b838
000003a0: a71e cb38 f945 3437 76a8 2538 a128 c3bd
000003b0: 9515 d83c e6a8 393d 9b7f 92b8 a2cd 9236
000003c0: f436 ca3d 43b6 a9b8 3ca6 a335 63fb a93d
000003d0: 2aab 1fb8 69ca 5a3d 5780 be38 7273 c3b8
000003e0: 3400 36b7 b6d3 1138 2ed6 7a38 bcd5 a5bd
000003f0: 85db 1bb8 876c 2038 c5b0 c5b7 8a44 b5b5

mlp_encoder.model.0.bias f4 [32]
-0.033453155 0.22329547 -2.7106618e-05 1.6060902e-06 -0.000119521435 -0.0046168664 -6.316719e-05 1.8405133e-05
-4.0081857e-05 -0.064057216 0.05477974 -1.1998166e-05 0.09378188 -0.20037176 -0.18552218 -0.1387378
0.22125539 2.0876328e-07 -0.2339735 2.4983578e-05 -1.1130939e-05 3.162202e-05 -0.05156631 4.327748e-05
-0.11657413 -6.3523024e-05 0.19262995 0.0023084667 -0.15729803 4.9717768e-05 0.14066379 3.1796695e-05
00000000: 2d06 09bd 91a7 643e 0563 e3b7 d790 d735
00000010: 95a7 fab8 1549 97bb a078 84b8 b964 9a37
00000020: 911d 28b8 6e30 83bd b860 603d bb4b 49b7
00000030: b710 c03d 412e 4dbe 87f9 3dbe 4811 0ebe
00000040: c690 623e 6a28 6034 c096 6fbe d393 d137
00000050: 05bf 3ab7 e3a1 0438 3237 53bd d784 3538
00000060: 6bbe eebd aa37 85b8 c940 453e a549 173b
00000070: bc12 21be 0c88 5038 2b0a 103e 715d 0538

mlp_encoder.model.3.weight f4 [3, 32]
-0.038751278 -0.18879287 0.0785099 -0.07102113 0.124060236 0.038755678 -0.25205705 -0.0038157473
-0.13934167 -2.2779797e-05 2.7448984e-06 0.029431581 2.210201e-06 0.12213376 0.0701292 0.17959687
-0.030955354 -0.13277291 0.060327798 0.07684712 0.084583126 -0.047776245 0.100364864 3.816648e-06
0.108462475 -3.0283036e-05 -0.09487789 -0.18680477 0.11961561 2.3084394e-05 -0.1777568 0.020015864
0.24707013 0.17451625 -0.020669948 -0.030264033 0.15145358 -0.25699887 5.00811e-05 0.16257398
0.05839164 0.17004785 0.0010125709 -7.780958e-06 -0.051752158 -0.04164088 0.10560104 2.1156545e-06
-6.021327e-06 -2.4174173e-05 4.1175463e-05 0.12034169 -1.3104303e-05 -0.15427433 -0.06408065 -0.026353374
-9.102604e-06 -4.011476e-05 -0.05535615 -0.112541236 -0.016649751 -0.040042225 -0.1211928 0.059279814
-0.07974918 0.09539892 -0.0043068263 0.08599007 0.12084963 -0.08146916 -0.38913795 1.7577817e-05
-0.08273496 3.846886e-06 0.00015210857 -3.122064e-05 0.13688876 -0.09697042 -0.07390943 -5.485748e-06
0.18885754 2.7455573e-05 -0.2429885 -0.02228606 0.10888766 -0.05804469 -3.7049835e-05 -0.073885575
-3.4487457e-05 2.0126767e-05 0.08167288 -0.13377829 -0.09514703 -3.0824493e-05 -2.3260345e-06 -0.07072925
00000000: a9b9 1ebd eb52 41be ccc9 a03d 8773 91bd
00000010: 4b13 fe3d 46be 1e3d 9f0d 81be 9e11 7abb
00000020: 95af 0ebe 3e17 bfb7 ff34 3836 801a f13c
00000030: f752 1436 4421 fa3d e69f 8f3d 3ee8 373e
00000040: 1596 fdbc 9ff5 07be 481a 773d 0662 9d3d
00000050: eb39 ad3d 06b1 43bd 188c cd3d c210 8036
00000060: 9321 de3d 5308 feb7 574f c2bd c049 3fbe
00000070: 07f9 f43d 5ca5 c137 e105 36be 4ff8 a33c
00000080: f4ff 7c3e 63b4 323e 0654 a9bc 47ec f7bc
00000090: a616 1b3e 5b95 83be 2c0e 5238 cb79 263e
000000a0: 132c 6f3d 0621 2e3e 3eb8 843a f68a 02b7
000000b0: 12fa 53bd a18f 2abd 5c45 d83d abfa 0d36
000000c0: ce0a cab6 a4c9 cab7 d1b3 2c38 b475 f63d
000000d0: 8eda 5bb7 17fa 1dbe b73c 83bd 08e3 d7bc
000000e0: 63b7 18b7 e540 28b8 21bd 62bd 057c e6bd
000000f0: 0f65 88bc 5103 24bd ee33 f8bd 64cf 723d
00000100: 8a53 a3bd 8260 c33d 4720 8dbb 901b b03d
00000110: 0380 f73d 4ed9 a6bd 173d c7be 1374 9337
00000120: f270 a9bd 8014 8136 557f 1f39 e8f2 02b8
00000130: 912c 0c3e 6d98 c6bd d45d 97bd 3712 b8b6
00000140: df63 413e 6550 e637 fad1 78be 4191 b6bc
00000150: 7e00 df3d 45c0 6dbd f565 1bb8 5251 97bd
00000160: a0a6 10b8 e7d5 a837 1c44 a73d 2dfd 08be
00000170: 72dc c2bd 8c49 01b8 f818 1cb6 7fda 90bd

mlp_encoder.model.3.bias f4 [3]
-0.055766303 -0.12252443 0.21003082
00000000: 356b 64bd 17ee fabd 5212 573e
