online_adapt_sim/learned_models/meta_mlpt_h2_bl10/model_param.pth (torch, 3639 bytes, 4 tensors)

mlp_encoder.model.0.weight f4 [32, 9]
0	0xbe117f0c	-0.14208621
1	0xb8d813fe	-0.000103034065
2	0xb8d43379	-0.00010118535
3	0xbd9d1af9	-0.0767116
4	0xb68804bb	-4.0536665e-06
5	0x38fb07c1	0.00011970057
6	0xbe1a7e81	-0.1508732
7	0xb8d2742a	-0.000100352176
8	0x3a925ce7	0.0011166603
9	0x384f51a2	4.9428672e-05
10	0x37c5ed8c	2.3594846e-05
11	0xb8c6aab4	-9.473172e-05
12	0x38d1b38e	9.999341e-05
13	0xb7c26cfa	-2.3177348e-05
14	0x37a68f31	1.985542e-05
15	0xb89db196	-7.519421e-05
16	0xb86ee207	-5.6954126e-05
17	0xb8c2223e	-9.257019e-05
18	0xb850d181	-4.978618e-05
19	0xb85898d9	-5.1640764e-05
20	0x3921c3ca	0.00015427094
21	0x383e157b	4.5319535e-05
22	0xb60460b8	-1.972583e-06
23	0xb9392ed5	-0.00017660421
24	0xb72f48ed	-1.0447792e-05
25	0xb98af759	-0.000265057
26	0x388150cf	6.166251e-05
27	0x38013403	3.0804436e-05
28	0x384070e8	4.588152e-05
29	0x36752113	3.6527097e-06
30	0x36be3b82	5.669369e-06
31	0x39258853	0.00015786411
32	0xb83b21e3	-4.4615834e-05
33	0x36f03fa0	7.1599643e-06
34	0xb996e74a	-0.00028782553
35	0xb8cbc3ea	-9.716286e-05
36	0x378666c4	1.6021899e-05
37	0x38b32b66	8.543469e-05
38	0xb8e03c4b	-0.00010692383
39	0xb969ee10	-0.00022309297
40	0x390f2f50	0.00013655168
41	0xb965c60d	-0.00021912922
42	0x391357b4	0.00014051684
43	0x398e722e	0.0002716942
44	0x37ac958b	2.0573634e-05
45	0x38fdc06c	0.000120998215
46	0xb88a83a5	-6.6048735e-05
47	0xb91145df	-0.00013854307
48	0xb9305944	-0.00016817922
49	0x36eb3594	7.009783e-06
50	0x3852f18f	5.029287e-05
51	0x368950c0	4.0923187e-06
52	0x37579006	1.2848532e-05
53	0xb9430db0	-0.00018601748
54	0x37cf3595	2.4701274e-05
55	0x38b1d663	8.47995e-05
56	0x391bd486	0.00014861123
57	0x38c1a05a	9.232825e-05
58	0x38191a83	3.6502734e-05
59	0xb837d616	-4.3829983e-05
60	0x38247cce	3.921688e-05
61	0xb82d7a37	-4.1360236e-05
62	0xb88b9a82	-6.656816e-05
63	0x388492dd	6.321606e-05
64	0x3945f325	0.00018877962
65	0x38afeb87	8.388521e-05
66	0xb927ff24	-0.00016021408
67	0xb863aaa1	-5.4279928e-05
68	0x381970de	3.658316e-05
69	0xb80e306b	-3.390053e-05
70	0xb790bc0a	-1.72537e-05
71	0xb8934aa9	-7.023413e-05
72	0xb865d64f	-5.4797445e-05
73	0x38c1ef60	9.247544e-05
74	0xb83e299f	-4.5338293e-05
75	0xb35da3f2	-5.160468e-08
76	0xb8b9b9b1	-8.856075e-05
77	0x390610e0	0.00012785522
78	0x3978dc6e	0.0002373324
79	0xb8588f60	-5.163194e-05
80	0x39433ccb	0.00018619296
81	0x372b8ab8	1.0224692e-05
82	0xb6938305	-4.396194e-06
83	0x399372c9	0.00028123547
84	0x38fe8580	0.0001213653
85	0xb69f324f	-4.744426e-06
86	0xb885eab6	-6.3856525e-05
87	0xb7f6c91f	-2.941914e-05
88	0xb88861da	-6.5032116e-05
89	0x38e309a0	0.00010825996
90	0x38b10ebc	8.442762e-05
91	0x3985e9c7	0.00025541915
92	0x38e6ea07	0.000110108456
93	0xb80b07c9	-3.3147433e-05
94	0x3921e36f	0.00015438882
95	0xb976f6ad	-0.00023552282
96	0x3843bc11	4.6666773e-05
97	0x39ed18de	0.0004522269
98	0x36e8f928	6.9431444e-06
99	0x3919c666	0.00014665126
100	0x3685b297	3.9844995e-06
101	0x391a3adb	0.0001470851
102	0x390b2c76	0.00013272636
103	0x38a0d912	7.669827e-05
104	0xb88d0f6a	-6.726275e-05
105	0x382671e0	3.968354e-05
106	0xb8bc2728	-8.971832e-05
107	0x361fd6ea	2.3817943e-06
108	0xb785cd9c	-1.595058e-05
109	0x38aa38d7	8.116819e-05
110	0xb716d0bb	-8.989296e-06
111	0xb922cfdb	-0.00015526956
112	0x386db8fa	5.6677476e-05
113	0xb9ea3d05	-0.0004467742
114	0xb92e32a8	-0.00016612804
115	0xb9322d71	-0.00016992331
116	0xb89b3c90	-7.4022566e-05
117	0x38a1b2e8	7.710402e-05
118	0x37049c5c	7.904218e-06
119	0xb8195dae	-3.656529e-05
120	0x392822fb	0.0001603476
121	0xb7cb7193	-2.4252373e-05
122	0xb7caab78	-2.4160123e-05
123	0x37527998	1.2545286e-05
124	0xb96749eb	-0.00022057413
125	0x37851d93	1.5868607e-05
126	0x3930f591	0.00016876149
127	0x37803657	1.5284093e-05
128	0xb79a94ba	-1.8427487e-05
129	0xb88a1238	-6.583746e-05
130	0xb8e1567f	-0.00010744947
131	0x390fd828	0.00013718067
132	0x385fb663	5.3337204e-05
133	0x37e7c092	2.7627018e-05
134	0x391a72e8	0.0001472939
135	0xbee9431e	-0.4555902
136	0x374d4fed	1.2237561e-05
137	0xb8327580	-4.2547937e-05
138	0xbe4b64b9	-0.19862641
139	0xb7aa9881	-2.0336594e-05
140	0x3a19006c	0.00058365497
141	0xbe98b197	-0.2982299
142	0x390f32c0	0.00013656449
143	0x3a3b2ba2	0.00071399857
144	0xb947f46f	-0.00019069178
145	0xb82c64ea	-4.110198e-05
146	0x390ae99d	0.00013247733
147	0xb87b9eff	-5.999114e-05
148	0xb8019a73	-3.089984e-05
149	0x38992d00	7.3039904e-05
150	0xb8a06e13	-7.6498975e-05
151	0x3892e867	7.005111e-05
152	0x38af4c55	8.358868e-05
153	0x3919990f	0.00014648236
154	0xb8369e8c	-4.353984e-05
155	0x3913f67d	0.00014110836
156	0x3798cf39	1.8216308e-05
157	0xb8fff576	-0.00012205068
158	0x39db90a4	0.000418787
159	0xb920ed75	-0.00015347249
160	0x3925ba05	0.00015804924
161	0x384d4866	4.8943235e-05
162	0x38a2680c	7.744142e-05
163	0xb9069507	-0.00012834753
164	0xb927eb4c	-0.00016014016
165	0x38ec381b	0.000112638074
166	0x3901f1d1	0.00012392482
167	0xb849aec4	-4.8084898e-05
168	0xb8a30515	-7.773392e-05
169	0xb8b845ce	-8.786806e-05
170	0x38ed5793	0.000113173526
171	0xb79c4266	-1.8627568e-05
172	0x375838c3	1.2887819e-05
173	0x38417649	4.6124947e-05
174	0xb88e6a48	-6.790884e-05
175	0xb8e4f988	-0.00010918366
176	0x39369290	0.00017411471
177	0xb95c3617	-0.00021000985
178	0x397578b6	0.00023409989
179	0x38971941	7.204945e-05
180	0xba4af7eb	-0.0007742631
181	0x3eb15b87	0.34640142
182	0xb9b7deac	-0.00035070383
183	0xb92b2e53	-0.00016325088
184	0x3eb7402b	0.35791144
185	0xb9888684	-0.00026040163
186	0xb4b09e7e	-3.2897873e-07
187	0x3cbecff4	0.02329252
188	0x38cf1b4f	9.875616e-05
189	0x38c0cb85	9.193182e-05
190	0xb9062058	-0.00012791285
191	0xb929e37f	-0.00016201845
192	0x36c67d90	5.9154772e-06
193	0xb8f614f3	-0.00011734096
194	0xb91102e2	-0.00013829352
195	0xb8205101	-3.8222413e-05
196	0x38a4012b	7.820347e-05
197	0xb7ea0128	-2.7895512e-05
198	0xb8aac11f	-8.142203e-05
199	0xb93596ee	-0.00017317731
200	0x382e120f	4.150165e-05
201	0x38480a5e	4.769337e-05
202	0x390ff464	0.00013728585
203	0x3876b6cd	5.8821217e-05
204	0xb8dfddad	-0.00010674759
205	0x38bc384b	8.975024e-05
206	0x385f8010	5.328661e-05
207	0x38ff9bd7	0.00012188375
208	0x3926f215	0.00015921176
209	0xb8127e66	-3.492683e-05
210	0x392c5193	0.00016433587
211	0xb992e545	-0.0002801811
212	0xb755c88c	-1.2742483e-05
213	0xb9393c2d	-0.00017665392
214	0xb987ddd5	-0.00025914484
215	0xb93f8a33	-0.00018266663
216	0xb8ebf956	-0.00011252116
217	0xb80453df	-3.1549363e-05
218	0x39a17e5d	0.0003080246
219	0xb84ae0c9	-4.83699e-05
220	0xb8ca0210	-9.632495e-05
221	0xb931e043	-0.0001696358
222	0x36e021b9	6.679646e-06
223	0xb8fd776c	-0.00012086224
224	0xb9227016	-0.00015491279
225	0x3911d810	0.00013908767
226	0xb91c9814	-0.00014933973
227	0xb8760f89	-5.866544e-05
228	0x39b09b88	0.00033685216
229	0xb8aaa932	-8.137747e-05
230	0xb94a0ebd	-0.00019269712
231	0x390e6e30	0.00013583223
232	0x39074a4f	0.00012902285
233	0xb895cb9d	-7.1427996e-05
234	0x38bf1189	9.110856e-05
235	0xb909087a	-0.00013068496
236	0x390aac96	0.00013224999
237	0x3846d9bc	4.740966e-05
238	0xb8329935	-4.2581192e-05
239	0xb8cebd1e	-9.858071e-05
240	0xb907203b	-0.0001288661
241	0xb915103e	-0.00014215798
242	0xb6ee864c	-7.108587e-06
243	0xb8b30615	-8.536518e-05
244	0x38d56109	0.00010174706
245	0xb3e0014d	-1.04310494e-07
246	0x38102387	3.4365363e-05
247	0x37d00ddb	2.4801984e-05
248	0xb87c841f	-6.020453e-05
249	0xb8088092	-3.2544667e-05
250	0xb75c2b1a	-1.3123057e-05
251	0xb7130219	-8.762371e-06
252	0xb9620933	-0.00021556467
253	0x384ad856	4.836203e-05
254	0xb873a5c9	-5.8090114e-05
255	0x38ed0529	0.00011302002

mlp_encoder.model.0.bias f4 [32]
0	0xbeef3b7c	-0.4672507
1	0xb8dc1a64	-0.00010495333
2	0xb89e75db	-7.5559794e-05
3	0xb7c4e5c4	-2.3472014e-05
4	0xb81ebfe4	-3.7848848e-05
5	0xb7f098bd	-2.8681354e-05
6	0x378ec307	1.7018536e-05
7	0xb830ec54	-4.2181768e-05
8	0x3907d47e	0.00012953763
9	0xb6c6d989	-5.9261843e-06
10	0xb85a09a2	-5.198422e-05
11	0xb98d2701	-0.00026922676
12	0xb8cedb6a	-9.8637145e-05
13	0x380552a5	3.178664e-05
14	0x3759bb1e	1.29777745e-05
15	0x39a452a0	0.00031342078
16	0xb72c36b7	-1.0264738e-05
17	0x38b27a3e	8.510471e-05
18	0xb86a1b2e	-5.581526e-05
19	0xb63148df	-2.6417472e-06
20	0x39861dd5	0.00025580698
21	0x3911a9d0	0.00013891538
22	0xb8817bd1	-6.174262e-05
23	0xb813a947	-3.5205183e-05
24	0x389cac56	7.47076e-05
25	0x39a0e932	0.00030691322
26	0xb927c8e4	-0.00016001199
27	0x394d3faf	0.00019574047
28	0xb842a767	-4.640911e-05
29	0x389b097c	7.3927426e-05
30	0x37c08fd8	2.2955166e-05
31	0x3831a338	4.2352098e-05

mlp_encoder.model.3.weight f4 [3, 32]
0	0xb884dc9a	-6.335341e-05
1	0xb7087a7a	-8.134748e-06
2	0x38b6d225	8.717579e-05
3	0x38a1c449	7.713639e-05
4	0x36dec292	6.6387665e-06
5	0xb8130776	-3.505448e-05
6	0x37f97eb7	2.974212e-05
7	0xb74954a4	-1.20002405e-05
8	0xb8436b36	-4.659147e-05
9	0x37cc27fe	2.4337318e-05
10	0xb8297b7e	-4.040775e-05
11	0x37f26710	2.889664e-05
12	0x372052e5	9.556044e-06
13	0x372705e7	9.95535e-06
14	0xb80230ea	-3.103997e-05
15	0xb9942fa8	-0.00028264266
16	0xb7b48cc4	-2.1523221e-05
17	0x392af084	0.00016302062
18	0xb4ac5924	-3.2102355e-07
19	0x37dc0c0d	2.6231655e-05
20	0xbf91c699	-1.1388732
21	0x37f99bf6	2.9755738e-05
22	0x3828b670	4.022423e-05
23	0x384e564a	4.919459e-05
24	0xb8829c0d	-6.22795e-05
25	0x37e19279	2.6890297e-05
26	0xb8687d4e	-5.542981e-05
27	0xb82e7701	-4.1595664e-05
28	0x383eeb18	4.5518478e-05
29	0xb6420b02	-2.891466e-06
30	0xb7bf6a17	-2.2818376e-05
31	0xb87a6533	-5.9698894e-05
32	0xbf609125	-0.8772147
33	0xb7b8dfa8	-2.2038657e-05
34	0xb89d1e2e	-7.491965e-05
35	0xb93aee1e	-0.00017827048
36	0x37a961fd	2.0192e-05
37	0xb9373663	-0.000174725
38	0x38533425	5.0354884e-05
39	0x38898181	6.556791e-05
40	0xb82af125	-4.075574e-05
41	0xb8946ef6	-7.077858e-05
42	0x380a6cd9	3.3003136e-05
43	0xb862faa4	-5.4116026e-05
44	0x3942efe2	0.00018590645
45	0xb7b9ad54	-2.213443e-05
46	0xb8fea721	-0.00012142794
47	0xbce67f18	-0.028136775
48	0x39322479	0.0001698899
49	0xb5e19efe	-1.6810079e-06
50	0x378e843e	1.69893e-05
51	0x38991ead	7.301322e-05
52	0x390ff4f5	0.00013728796
53	0x37d536c3	2.5417079e-05
54	0x3776aba4	1.4702706e-05
55	0xb826a07e	-3.9726954e-05
56	0x37f4b330	2.9170507e-05
57	0xb8e02596	-0.00010688153
58	0xb8959363	-7.1323266e-05
59	0xb8c4d802	-9.386243e-05
60	0xb8a7b3ea	-7.996692e-05
61	0xb907da11	-0.0001295584
62	0xb8fbf9b3	-0.00012015123
63	0x384d7e36	4.899335e-05
64	0xb88be884	-6.671346e-05
65	0xb993dace	-0.00028201047
66	0xb852dcc9	-5.0273524e-05
67	0x38ee9606	0.000113766684
68	0xb582d093	-9.746458e-07
69	0x37a89d88	2.0100517e-05
70	0x38cbbc5d	9.71488e-05
71	0x37dc7fa6	2.6285485e-05
72	0x38271760	3.9837672e-05
73	0xb838536b	-4.3946708e-05
74	0x3832242d	4.24722e-05
75	0xb5a989da	-1.2631601e-06
76	0x3987b2ca	0.00025882415
77	0xb8f30aea	-0.00011589176
78	0x38af4784	8.357971e-05
79	0xbf82f547	-1.0231103
80	0x3628ac96	2.513441e-06
81	0xb8c651be	-9.4566014e-05
82	0xb7cecc1b	-2.4652158e-05
83	0xb6555d25	-3.179369e-06
84	0xb9186e79	-0.00014537004
85	0xb67a469e	-3.7294008e-06
86	0xb8eae4e8	-0.000112006266
87	0x376b9535	1.40418315e-05
88	0x3782cb86	1.559198e-05
89	0x37c11652	2.3017787e-05
90	0xb8803aee	-6.114492e-05
91	0xb6c608a4	-5.9018657e-06
92	0xb49aca26	-2.8831818e-07
93	0x3951f611	0.0002002346
94	0xb84c9138	-4.8772636e-05
95	0x39647c3c	0.00021790055

mlp_encoder.model.3.bias f4 [3]
0	0xb7484a7c	-1.1938271e-05
1	0x3ee5f69c	0.4491471
2	0xbe27641a	-0.1634678
