online_adapt_sim/learned_models/meta_mlpt_h3_bl15/model_param.pth (torch, 4023 bytes, 4 tensors)

mlp_encoder.model.0.weight f4 [32, 12]
3.8663118e-05 -0.0005169718 7.877288e-05 -4.974975e-05 1.1865539e-05 2.7181766e-05 -5.916994e-05 -0.00036809634
-0.0003395921 -0.00029902876 -5.8026635e-05 0.0001017783 0.0003450717 -2.1722035e-05 -0.075217746 -0.000118830416
-7.6057666e-05 -0.08009476 1.6167027e-05 0.18425058 -0.00085881026 -1.4238185e-05 0.30789167 -0.0007660233
-0.0002457186 0.00023154437 -1.6513528e-05 -0.000101981364 -0.00032506822 5.457769e-05 -0.0002646804 5.7816324e-05
-5.9146023e-05 -0.00017635182 0.00012877242 -3.573013e-05 -0.00022249756 -3.8578746e-05 -0.00024478522 -0.0004306543
0.00050855573 -0.00021970045 -5.202636e-05 0.00047932944 1.392427e-05 6.533298e-05 3.1487074e-05 9.8514676e-05
-1.8489221e-05 -0.00029954294 7.828544e-05 4.1699313e-05 -0.00026292758 -2.7619337e-05 8.191023e-05 -0.00010218674
3.7845475e-05 7.207379e-05 -3.7070466e-05 -8.759435e-05 -0.00038155873 -0.0143448785 9.350219e-05 -1.8286264e-05
-0.00021565858 3.4030614e-05 -0.0002970126 -6.441354e-05 0.024598265 1.8121108e-06 0.00019425178 0.00024316223
-3.5771907e-05 -0.00016758339 -6.1114064e-05 -4.7680234e-07 -0.00022418879 0.00035339943 3.3147855e-05 -0.00015820423
0.00015542962 1.0326757e-05 2.5295069e-05 0.00019913046 5.9036032e-05 5.6268353e-05 -0.00018562847 -0.00011250202
5.259334e-07 -0.00011120703 9.735263e-05 9.253279e-05 3.8228376e-05 -3.889068e-05 -0.00021849714 -0.00011938792
-6.720776e-05 0.00015011377 -0.00013646351 -0.00018090478 -5.7241406e-05 1.0190654e-05 -0.00021234788 -4.966383e-05
3.108138e-05 -0.00010969333 0.00013647717 0.0001379978 -1.851279e-05 -0.000121926765 1.423106e-05 0.00026599647
3.903794e-05 -0.00012513451 0.00012921894 0.0001034543 -0.00022908197 -5.139296e-05 1.2253196e-05 0.00016259082
-0.00024242456 -0.00013316642 -0.00033358668 5.0689578e-05 -0.00016606503 0.00012829137 -4.007617e-05 -1.7229775e-06
1.6819582e-05 -0.00028388266 2.7444143e-05 0.0002239954 0.00012132261 -1.9136643e-05 3.314097e-05 0.00025707742
1.2060864e-05 -1.8231601e-06 1.841689e-05 -7.106111e-05 1.1955681e-06 -0.00016969089 -2.9618515e-05 8.8336936e-05
-5.9674203e-06 -7.902944e-06 4.6938672e-05 0.000107656575 -2.9561608e-05 -1.1279951e-05 0.00012628906 2.2537119e-05
-3.384233e-05 -0.00026116663 0.000101252845 -8.120421e-05 -6.789043e-05 -4.942255e-07 0.00022403745 -8.9505134e-05
0.0003518279 2.8730277e-05 -0.00014740601 -4.750777e-05 7.3284405e-06 -0.0001030923 -0.00020408964 9.826839e-05
6.782738e-05 -5.1799212e-05 0.00028592435 -7.916447e-05 -0.0001005956 4.6352783e-05 3.609479e-05 0.00017112837
0.0002776542 -3.573314e-05 0.00012958798 0.0001353872 -7.0603965e-05 0.00032755983 0.00025012254 1.5219514e-05
9.859529e-05 0.00018599081 0.0002437754 -8.5600615e-05 -0.00018574833 0.00012003049 0.00011135631 0.00010656867
8.4350155e-05 -2.4407078e-07 6.942257e-05 -0.00026623267 -0.0001101268 -5.828684e-06 0.00012334443 -0.00019594828
-1.25758e-05 6.630776e-05 4.4641358e-05 0.0001324311 0.00010821659 7.469447e-05 -0.00022171404 -0.00017834187
-0.00016048536 -8.0318714e-05 -0.00017523672 0.00018094227 0.00012112465 -0.0001472442 -8.165836e-05 -6.410525e-05
-1.655128e-05 -4.34479e-05 -0.00022388819 8.569365e-06 2.6705495e-05 -0.00019039144 -0.00014409386 0.00012885155
1.7400698e-05 0.00023043937 -0.00024163518 8.9377325e-05 0.00032909316 0.030770104 0.24613333 -4.2673877e-05
0.0011556724 0.11968761 0.00069861 0.011032756 0.29399118 0.0006993179 0.40311322 0.08208344
-0.00012502668 -8.1880426e-05 -4.712184e-06 -4.369129e-05 0.00024547084 -8.112879e-05 0.00014877498 -2.1270112e-06
-1.5525065e-05 3.0962852e-05 -6.124861e-05 -0.00012190993 -0.0001263601 3.496557e-05 -5.5266224e-05 4.627311e-05
00000000: 352a 2238 6485 07ba de32 a538 63aa 50b8
00000010: 1a12 4737 6604 e437 3d2d 78b8 0efd c0b9
00000020: 480b b2b9 f6c6 9cb9 a061 73b8 cf71 d538
00000030: bdea b439 b737 b6b7 c30b 9abd 9834 f9b8
00000040: 2681 9fb8 b908 a4bd 6d9e 8737 2fac 3c3e
00000050: c821 61ba 8ae0 6eb7 faa3 9d3e f4ce 48ba
00000060: cbd3 80b9 b8ca 7239 8886 8ab7 d4de d5b8
00000070: eb6d aab9 59ea 6438 cdc4 8ab9 ce7f 7238
00000080: 8f13 78b8 15eb 38b9 1507 0739 efdc 15b8
00000090: 3c4e 69b9 9dcf 21b8 8456 80b9 71c9 e1b9
000000a0: 9950 053a 645f 66b9 e136 5ab8 824e fb39
000000b0: 499c 6937 6003 8938 fd10 0438 aa99 ce38
000000c0: 4d19 9bb7 f90b 9db9 2d2d a438 4ce6 2e38
000000d0: 8bd9 89b9 13b0 e7b7 38c7 ab38 174d d6b8
000000e0: 45bc 1e38 5226 9738 1c7c 1bb8 dcb2 b7b8
000000f0: f20b c8b9 c806 6bbc 9b16 c438 7465 99b7
00000100: 6922 62b9 18bc 0e38 5bb8 9bb9 c215 87b8
00000110: 4d82 c93c a737 f335 11b0 4b39 5df9 7e39
00000120: cb09 16b8 53b9 2fb9 5d2a 80b8 37fb ffb4
00000130: 3814 6bb9 7848 b939 3d08 0b38 a0e3 25b9
00000140: d2fa 2239 1541 2d37 bf30 d437 adcd 5039
00000150: 759d 7738 af01 6c38 43a5 42b9 10ef ebb8
00000160: de2d 0d35 d237 e9b8 cc29 cc38 2a0e c238
00000170: 6857 2038 8d1e 23b8 611c 65b9 e75f fab8
00000180: e4f1 8cb8 dc67 1d39 a517 0fb9 42b1 3db9
00000190: 7e16 70b8 87f8 2a37 b3a9 5eb9 224e 50b8
000001a0: 615d 0238 280b e6b8 501b 0f39 81b3 1039
000001b0: ea4b 9bb7 efb2 ffb8 f0c1 6e37 7175 8b39
000001c0: abbc 2338 8a36 03b9 f27e 0739 9bf5 d838
000001d0: b935 70b9 c58e 57b8 1393 4d37 247d 2a39
000001e0: 5933 7eb9 97a2 0bb9 3fe5 aeb9 859b 5438
000001f0: be21 2eb9 f485 0639 7617 28b8 0e41 e7b5
00000200: c717 8d37 16d6 94b9 d937 e637 4fe0 6a39
00000210: 956e fe38 a187 a0b7 d800 0b38 59c8 8639
00000220: 0459 4a37 4eb3 f4b5 f87d 9a37 a506 95b8
00000230: 6877 a035 0def 31b9 4775 f8b7 8841 b938
00000240: c03b c8b6 e396 04b7 04e0 4438 afc5 e138
00000250: 12fb f7b7 053f 3db7 766c 0439 180e bd37
00000260: edf1 0db8 31ed 88b9 b557 d438 2e4c aab8
00000270: 6660 8eb8 ebaa 04b5 98eb 6a39 b4b4 bbb8
00000280: 8b75 b839 cd01 f137 0091 1ab9 1443 47b8
00000290: d3e6 f536 4233 d8b8 e500 56b9 7115 ce38
000002a0: 8c3e 8e38 fb42 59b8 1ee8 9539 1a05 a6b8
000002b0: daf6 d2b8 ec6a 4238 7c64 1738 ec70 3339
000002c0: 1e92 9139 2be0 15b8 02e2 0739 baf6 0d39
000002d0: 3711 94b8 56bc ab39 e122 8339 5157 7f37
000002e0: f1c4 ce38 8706 4339 f69d 7f39 7b84 b3b8
000002f0: 70c5 42b9 e1b8 fb38 f787 e938 9e7d df38
00000300: 25e5 b038 d508 83b4 f596 9138 2595 8bb9
00000310: e0f3 e6b8 0494 c3b6 0556 0139 7777 4db9
00000320: a6fc 52b7 b50e 8b38 4b3d 3b38 34dd 0a39
00000330: 57f2 e238 4aa5 9c38 e97b 68b9 4801 3bb9
00000340: f647 28b9 c870 a8b8 c0bf 37b9 52bb 3d39
00000350: 4d04 fe38 9065 1ab9 0040 abb8 3e70 86b8
00000360: 9ad7 8ab7 d43b 36b8 87c3 6ab9 24c5 0f37
00000370: 9d05 e037 d0a3 47b9 e717 17b9 531c 0739
00000380: b7f7 9137 19a2 7139 735f 7db9 1670 bb38
00000390: 238a ac39 9611 fc3c 600a 7c3e bafc 32b8
000003a0: ee79 973a c71e f53d ec22 373a bcc2 343c
000003b0: 0386 963e 6e52 373a db64 ce3e 5d1b a83d
000003c0: 9819 03b9 38b7 abb8 5a1d 9eb6 2a41 37b8
000003d0: 8ab2 8039 b023 aab8 7b00 1c39 c6bd 0eb6
000003e0: d33b 82b7 1cde 0138 9972 80b8 e5a9 ffb8
000003f0: 887f 04b9 ffa7 1238 a8cd 67b8 6015 4238

mlp_encoder.model.0.bias f4 [32]
-0.052863423 -0.0005922582 -2.9630984e-05 8.729451e-06 5.641534e-05 -0.17854926 -3.6051933e-05 0.00014343843
-5.688292e-05 9.7353804e-05 0.00012468697 -0.00014212109 -4.0799856e-05 -1.5502734e-05 -3.4039436e-05 2.0546732e-07
-0.00016676214 0.0001933933 -0.00016839356 0.05769358 -0.000121930556 -1.9388339e-05 0.00018331266 3.137782e-05
9.8481134e-05 -3.949485e-05 -1.0709863e-05 0.0001400092 -0.09364291 -4.887691e-05 4.710393e-05 3.752976e-05
00000000: 5187 58bd c641 1bba 0e90 f8b7 b574 1237
00000010: 839f 6c38 9ed5 36be 7836 17b8 f667 1639
00000020: 9295 6eb8 6d2a cc38 67be 0239 5706 15b9
00000030: 8320 2bb8 de0b 82b7 91c5 0eb8 6d9e 5c34
00000040: dfdc 2eb9 9ec9 4a39 cd92 30b9 1a50 6c3d
00000050: f8b4 ffb8 24a4 a2b7 9e37 4039 ad9b 0338
00000060: a887 ce38 46a7 25b8 83ae 33b7 6fcf 1239
00000070: dbc7 bfbd 2f01 4db8 7691 4538 4669 1d38

mlp_encoder.model.3.weight f4 [3, 32]
-0.11181545 0.1724389 -5.6892814e-06 -9.286637e-05 -2.6638438e-05 -0.35756543 8.7373875e-05 -3.3411623e-05
-7.561674e-05 6.0935134e-05 0.00011586423 2.9931309e-05 -1.7792936e-05 3.1131077e-07 1.5098801e-05 -3.3667078e-07
-9.409067e-05 -3.084374e-05 9.001439e-06 -0.00011368376 -5.2069314e-05 -6.8637826e-05 0.00024643447 -9.413024e-06
-0.13374825 -2.2762939e-05 -0.00011639837 -0.00013373184 -0.73587096 2.17547e-05 1.5029566e-05 -2.560689e-05
5.9623773e-05 2.8115599e-05 8.937085e-05 -1.5792622e-05 -0.00025004442 0.00013555598 8.9560344e-05 -1.5406284e-05
0.00014220522 -0.00012387715 4.8279093e-05 0.00011606912 0.00012979051 -1.3683959e-05 -0.0002007571 7.517578e-05
3.0082676e-05 0.06103496 6.039044e-05 -1.3401964 0.00010061418 4.8282847e-05 0.00045626817 0.00017232074
1.8815319e-05 -2.9237895e-05 5.1722377e-06 -0.00010583298 -0.0005011907 -0.00013272912 -9.588671e-05 7.227497e-06
-7.279005e-05 -0.73943293 -4.408522e-05 -0.18719052 -0.00019965362 -2.1093321e-05 -5.632882e-05 -6.558466e-05
4.189896e-05 -3.633291e-05 -3.6330126e-05 9.803773e-05 -2.4797002e-06 -7.286859e-05 1.749152e-05 1.7799392e-05
-5.0038092e-05 -0.00023134015 -6.3410145e-05 -0.0001857099 -0.00012143119 -4.751656e-05 0.18988262 -3.801294e-05
-1.2933883e-06 -7.5235264e-05 1.285549e-06 -0.00025178413 0.47281772 -7.2352384e-05 -0.0001569437 -2.362045e-05
00000000: 80ff e4bd d393 303e 8ee6 beb6 41c1 c2b8
00000010: 9c75 dfb7 d112 b7be 7e3c b738 7523 0cb8
00000020: 6e94 9eb8 9a94 7f38 23fc f238 ff14 fb37
00000030: 0a42 95b7 3a22 a734 db50 7d37 aebf b4b4
00000040: 8b52 c5b8 375e 01b8 e304 1737 8169 eeb8
00000050: 0065 5ab8 a7f1 8fb8 e033 8139 a1ec 1db7
00000060: 4df5 08be 0af3 beb7 e61a f4b8 5e3a 0cb9
00000070: 0a62 3cbf dd7d b637 7f27 7c37 61ce d6b7
00000080: 8a14 7a38 cad9 eb37 9c6c bb38 667a 84b7
00000090: 6518 83b9 0824 0e39 58d2 bb38 be3c 81b7
000000a0: ec1c 1539 05e5 01b9 487f 4a38 226a f338
000000b0: 6018 0839 2894 65b7 5382 52b9 b1a7 9d38
000000c0: 0e5a fc37 cbff 793d be4b 7d38 8e8b abbf
000000d0: d400 d338 5083 4a38 4737 ef39 ffb0 3439
000000e0: 97d5 9d37 e743 f5b7 2f8d ad36 a6f2 ddb8
000000f0: 5762 03ba 342d 0bb9 c916 c9b8 ba83 f236
00000100: dca6 98b8 7a4b 3dbf 25e8 38b8 dfae 3fbe
00000110: 1c5a 51b9 90f1 b0b7 9c42 6cb8 7f8a 89b8
00000120: aabc 2f38 2a64 18b8 2d61 18b8 9b99 cd38
00000130: ed68 26b6 07d1 98b8 c1ba 9237 e74f 9537
00000140: fedf 51b8 e693 72b9 10fb 84b8 1fbb 42b9
00000150: e0a8 feb8 854c 47b8 9770 423e 1570 1fb8
00000160: 7c98 adb5 a0c7 9db8 218b ac35 e501 84b9
00000170: 2a15 f23e e4bb 97b8 4191 24b9 8824 c6b7

mlp_encoder.model.3.bias f4 [3]
0.32936525 2.8156765e-05 0.47338033
00000000: 90a2 a83e 3132 ec37 e85e f23e
