online_adapt_sim/learned_models/meta_mlpt_h1_bl10/model_param.pth (torch, 3255 bytes, 4 tensors)

mlp_encoder.model.0.weight f4 [32, 6]
000000 2b fa 73 b8 3e 87 35 b8 e5 73 12 b8 85 12 0d b9
       -5.81687e-05 -4.3279717e-05 -3.4917048e-05 -0.00013453707
000010 d3 67 28 b8 78 b1 86 39 74 5b f4 37 e2 69 2a b9
       -4.0151015e-05 0.00025690696 2.9129653e-05 -0.00016251908
000020 ad 24 a0 b8 5c 9c 18 b9 2f 47 9d b9 75 ea 9c b5
       -7.636226e-05 -0.00014554098 -0.0002999841 -1.1691142e-06
000030 08 13 1c 35 85 dd 4a 39 6f ea 8b b7 d6 73 db b8
       5.814222e-07 0.00019346744 -1.6679258e-05 -0.0001046431
000040 26 94 6a 39 d4 c6 bd 38 a6 99 a6 b8 9f cb 16 39
       0.00022371169 9.049257e-05 -7.944116e-05 0.0001438097
000050 e4 62 47 b9 d2 4a f1 b6 51 4e 12 b9 b2 53 3f b8
       -0.00019014959 -7.19107e-06 -0.0001395282 -4.5615896e-05
000060 3a 60 61 b7 3e 48 3a 35 91 73 8c 38 c3 6f 07 b9
       -1.343345e-05 6.9395526e-07 6.697246e-05 -0.00012916238
000070 15 b5 68 b9 9f cb 03 39 71 43 4a 39 3f 66 6c b9
       -0.00022192702 0.00012568988 0.00019289345 -0.00022544804
000080 9c 75 a4 b8 68 03 c6 37 d0 7b 8d b8 8f 80 3b b8
       -7.842036e-05 2.3605025e-05 -6.746466e-05 -4.4704004e-05
000090 6e 23 dc 37 6a bc e5 b6 7a 26 28 b9 64 ab 28 b9
       2.6242542e-05 -6.846666e-06 -0.00016036062 -0.00016085576
0000a0 26 2e 13 39 17 59 be 38 fa f9 93 b7 83 6b 77 38
       0.00014036204 9.0765e-05 -1.764017e-05 5.8989517e-05
0000b0 e6 00 26 b9 bb 65 46 b9 b0 41 15 b9 fc 60 0c 38
       -0.00015831328 -0.00018920649 -0.00014234218 3.3468925e-05
0000c0 a5 77 35 39 25 57 4b 37 62 37 29 38 11 87 4e b6
       0.00017306076 1.2120033e-05 4.034432e-05 -3.077501e-06
0000d0 ca 3a 87 b8 f9 fc dc b8 fa 6e c1 b7 59 3f 11 39
       -6.448252e-05 -0.00010537537 -2.305907e-05 0.00013851876
0000e0 ea 67 0a 38 94 d3 c1 38 f3 17 ac b7 43 4f 0a 39
       3.299854e-05 9.242367e-05 -2.051515e-05 0.00013190233
0000f0 72 ee 0b 39 87 a4 39 39 6d 11 dd 37 7d a9 80 b8
       0.00013344901 0.00017704266 2.6353368e-05 -6.135085e-05
000100 a5 77 e2 38 17 7e 40 b9 04 2b cb b9 98 df 15 3f
       0.00010798805 -0.00018357519 -0.00038751226 0.585443
000110 85 dd 47 b9 89 b6 dc b9 c1 29 ff 3d cd 31 8d b9
       -0.00019060641 -0.0004209767 0.12459136 -0.0002693072
000120 fa e1 29 b8 5b ed b4 b7 18 6d ea 38 a5 6e 9e 37
       -4.0503197e-05 -2.15682e-05 0.0001117831 1.888659e-05
000130 01 c3 70 b8 fe d2 17 b9 99 18 0b 38 6f de a9 b8
       -5.740207e-05 -0.00014479083 3.316309e-05 -8.0999795e-05
000140 eb e3 8a b9 89 c7 35 b9 0f c6 80 b8 93 8d 75 b8
       -0.00026491223 -0.00017335838 -6.140407e-05 -5.8544403e-05
000150 11 bf e3 38 59 63 1d 38 1a e7 cc b6 5d 59 63 b9
       0.000108597924 3.752424e-05 -6.1065775e-06 -0.00021681697
000160 40 aa a5 38 83 f6 00 39 1b 05 03 38 01 f7 bd b8
       7.899525e-05 0.00012298864 3.123759e-05 -9.05823e-05
000170 f6 5e a1 37 f0 04 b1 b8 76 e8 bc 39 2b 46 b3 b6
       1.9236915e-05 -8.4409374e-05 0.0003603135 -5.3427843e-06
000180 95 dc 9f 38 f4 bc 08 b9 bc 6f b0 b8 d0 df bf b7
       7.6227974e-05 -0.00013040361 -8.413146e-05 -2.2873195e-05
000190 f6 00 20 39 d7 ea 85 b6 14 00 1c b9 fb bf 33 b9
       0.00015259147 -3.991048e-06 -0.00014877348 -0.00017142289
0001a0 a8 a0 40 b6 0e 10 3c 37 1d d8 b9 b7 1e ee 7f b9
       -2.8703744e-06 1.1209411e-05 -2.2154354e-05 -0.000244074
0001b0 81 29 2e b9 0e 44 06 39 e8 01 07 36 6f 67 cc 38
       -0.00016609395 0.00012804588 2.0117677e-06 9.746744e-05
0001c0 ac 27 05 39 2d 10 bd 38 76 e1 8d 39 c2 3f 45 39
       0.00012698647 9.015235e-05 0.00027061597 0.00018811136
0001d0 c5 2a 19 38 a3 b3 0e b9 93 d9 b7 b8 43 07 61 b9
       3.6517875e-05 -0.00013609095 -8.766646e-05 -0.00021460377
0001e0 b2 aa c3 37 93 68 73 b9 5c 14 4f b8 b4 b6 42 b9
       2.3325298e-05 -0.00023213243 -4.9371607e-05 -0.00018569344
0001f0 c9 63 a7 39 13 0c 80 38 fb 5b 47 38 90 c3 05 39
       0.00031927068 6.1057646e-05 4.753096e-05 0.00012756721
000200 ee a3 01 b9 16 66 19 b9 a0 67 02 b9 00 9e 67 b8
       -0.00012363467 -0.00014629247 -0.0001243637 -5.522184e-05
000210 c4 1f 93 b9 63 1d a4 be 7c 48 02 3a 5f 04 b8 37
       -0.00028061692 -0.3205367 0.00049699075 2.1936545e-05
000220 0d 95 ec bd e1 bb 03 b9 d9 9f b8 b8 94 87 d5 38
       -0.11551867 -0.00012563124 -8.803578e-05 0.00010181885
000230 0a 34 cd b7 fa 79 24 b6 e2 18 10 39 68 3e 3b b9
       -2.4462137e-05 -2.4508904e-06 0.0001374218 -0.00017856958
000240 64 a8 8a 38 5b 73 c9 38 8d 55 73 38 66 6b 04 b8
       6.611718e-05 9.6059135e-05 5.801539e-05 -3.1571275e-05
000250 bc 75 5c b8 8e 44 1b b9 dd 33 14 3f 0a e7 2e 38
       -5.2561736e-05 -0.0001480749 0.5789164 4.1700005e-05
000260 b9 0c db b9 ad 3f 6f 3e 1b 77 6f 38 98 08 5d b8
       -0.00041780414 0.23364134 5.7092966e-05 -5.269851e-05
000270 f7 b5 ec 38 01 9f 7e 39 2b f1 d8 38 2e f3 10 b9
       0.000112872505 0.00024282561 0.00010344604 -0.00013823502
000280 c2 67 d0 37 19 cb 40 b9 a8 fb 14 39 04 74 cd b7
       2.4843848e-05 -0.00018386207 0.00014208129 -2.4491928e-05
000290 5a 99 a7 38 f9 ca df b8 a1 a1 51 39 90 ef 02 39
       7.9917445e-05 -0.00010671275 0.00019992005 0.0001248701
0002a0 a1 ba c3 36 cf d5 20 39 20 11 68 39 38 12 79 38
       5.8331793e-06 0.00015338439 0.00022131624 5.9383194e-05
0002b0 7d 1f 08 b9 a8 81 4e 38 2e 10 4f b9 ab a4 ae 38
       -0.00012981701 4.923498e-05 -0.00019747086 8.327638e-05
0002c0 3e 35 23 39 08 7e 7b 38 6c 01 da b8 3d 23 ee b8
       0.00015564726 5.996044e-05 -0.00010395315 -0.00011355288
0002d0 66 cf ca b8 73 06 30 37 68 c8 e9 b8 95 fb 3d b9
       -9.6707416e-05 1.0491919e-05 -0.00011147634 -0.00018118166
0002e0 3a fc 79 39 cc e2 21 b9 9d 9d c6 b8 97 17 7d 38
       0.00023840452 -0.00015438645 -9.4707335e-05 6.034187e-05
0002f0 32 a2 08 b9 66 df 27 39 77 96 3f 38 d1 df fc 37
       -0.00013030393 0.00016009583 4.567808e-05 3.0144964e-05

mlp_encoder.model.0.bias f4 [32]
000000 8f 5b 04 b8 72 9f 30 b9 a5 50 79 b7 a4 c6 a4 b7
       -3.1556523e-05 -0.00016844066 -1.4860333e-05 -1.9642823e-05
000010 55 c1 e3 39 5e 7b a5 37 d1 a1 21 39 c9 6f e0 38
       0.00043440858 1.972698e-05 0.00015414438 0.00010701974
000020 05 18 11 35 c8 05 11 39 36 5e 14 b8 a1 3d b2 ba
       5.405166e-07 0.00013830431 -3.537369e-05 -0.0013598689
000030 78 5e 8d 37 58 01 b2 b8 14 f7 8d 39 a4 8e 63 38
       1.68525e-05 -8.487952e-05 0.00027077703 5.4253862e-05
000040 1c 19 46 39 ff dd a3 38 37 5c 8f b8 dc 02 ba 38
       0.00018892105 7.813796e-05 -6.835948e-05 8.869704e-05
000050 b0 70 41 39 15 99 b6 39 0a 19 9a be 59 93 fe b8
       0.00018447894 0.000348278 -0.30097228 -0.000121391095
000060 75 53 bc b9 06 00 21 ba 16 25 14 b9 35 5b 90 38
       -0.00035920335 -0.0006141666 -0.00014128195 6.883444e-05
000070 b7 e5 e2 b3 17 9a 8a b8 de 43 e1 b8 31 f2 fb b8
       -1.056573e-07 -6.609054e-05 -0.00010741477 -0.00012013724

mlp_encoder.model.3.weight f4 [3, 32]
000000 c5 e8 1c 37 2f c8 9b 38 1d 18 85 b8 f0 f5 44 b7
       9.3525205e-06 7.428263e-05 -6.346426e-05 -1.1739772e-05
000010 99 fc b4 38 21 91 7f 38 75 8c bf 37 5a e8 f2 b8
       8.630119e-05 6.09319e-05 2.283438e-05 -0.00011582738
000020 48 8c 37 39 5b a3 2d b8 07 a7 82 b8 01 e3 66 39
       0.00017504499 -4.139855e-05 -6.229994e-05 0.00022019075
000030 d2 b6 17 39 01 58 20 b9 10 9c f1 b8 2b be de 38
       0.00014468588 -0.00015291573 -0.000115208444 0.000106212065
000040 46 db ef 38 da a6 53 38 eb f6 48 39 48 60 90 b8
       0.00011437251 5.0461713e-05 0.0001916547 -6.884389e-05
000050 59 a1 0f 39 f6 4d 9e b9 4c c7 91 b8 b4 2b 87 39
       0.0001369765 -0.00030194194 -6.951261e-05 0.00025781768
000060 ab 19 e8 b8 cf d0 94 bf e9 72 29 39 f1 d3 6f 38
       -0.00011067403 -1.1626223 0.00016159903 5.7179426e-05
000070 a4 6b 5b b7 a0 f4 fd 38 42 3d 14 39 ec 85 f5 b8
       -1.3078479e-05 0.00012109545 0.000141372 -0.00011707455
000080 80 2c b4 38 c4 f0 44 38 e4 d9 8a b9 95 3d 81 b9
       8.5913576e-05 4.6954272e-05 -0.00026483752 -0.0002465068
000090 41 4e 63 b9 c7 e4 99 39 10 62 bc b7 fc df 6b b8
       -0.00021677559 0.00029352886 -2.245701e-05 -5.6236968e-05
0000a0 05 e2 f4 b8 69 e2 c0 38 6a 34 33 39 17 68 97 3f
       -0.00011676926 9.1974456e-05 0.00017090296 1.1828641
0000b0 54 05 48 38 1a 30 0e 39 a6 6c 0e b9 7c d6 74 b9
       4.7688678e-05 0.00013560095 -0.0001358265 -0.00023349555
0000c0 ea 39 76 38 5b d3 f1 38 b2 f8 65 b8 09 ef 3a 39
       5.8704907e-05 0.000115311435 -5.482947e-05 0.0001782739
0000d0 86 0a 8b 36 4e c3 5b b8 e3 ca 7f b9 e6 50 be b8
       4.143748e-06 -5.239556e-05 -0.00024394276 -9.0749745e-05
0000e0 41 34 6d b9 8e 85 cb b8 cf 45 c2 38 74 ef 43 b8
       -0.00022621547 -9.704671e-05 9.263644e-05 -4.671463e-05
0000f0 dd 8b 75 39 40 7b 50 b9 54 e7 f1 b8 1e dc 1d 39
       0.00023417124 -0.0001988234 -0.00011534864 0.00015054687
000100 53 44 22 39 31 b4 27 b6 03 26 89 b8 a6 26 fa 38
       0.00015474977 -2.4989824e-06 -6.539749e-05 0.00011928128
000110 fa 17 17 b9 4d 38 1e 39 32 7d fe 38 84 d2 17 b9
       -0.00014409414 0.00015089028 0.00012134983 -0.00014478905
000120 6c 88 d1 36 c6 af 31 39 d0 11 df 38 0d c2 c5 3a
       6.244567e-06 0.00016945516 0.000106367865 0.0015087739
000130 30 5b b5 38 88 a6 0c 3a 82 40 c0 b9 a9 33 a9 36
       8.6477376e-05 0.0005365391 -0.00036669156 5.0426065e-06
000140 55 57 97 b9 df 93 1d b9 c0 1b 4f b7 2f c7 ad 39
       -0.00028866032 -0.00015027773 -1.23446225e-05 0.00033145535
000150 ac eb 97 b8 e8 53 0b b9 f4 e2 64 bf 39 cc f8 b8
       -7.2441384e-05 -0.0001328733 -0.89408803 -0.00011863601
000160 0f 7a 6c 39 60 69 42 b8 1e 70 05 b8 f3 a6 e5 36
       0.00022552184 -4.6351342e-05 -3.181409e-05 6.8441673e-06
000170 1f e6 14 b8 a6 82 0d b7 01 17 a4 b8 97 1d 8d b8
       -3.5500267e-05 -8.434674e-06 -7.824414e-05 -6.7289155e-05

mlp_encoder.model.3.bias f4 [3]
000000 e0 af 8c 39 d0 0f 28 be b8 d8 24 3f
       0.00026833918 -0.16412282 0.64393187
