online_adapt_sim/learned_models/meta_mlpt_h0_bl5/model_param.pth (torch, 2871 bytes, 4 tensors)

mlp_encoder.model.0.weight f4 [32, 3]
1.0939358e-05 -0.00010900272 -4.718795e-05 -7.053368e-05 3.8811428e-05 -0.00029417235 -0.00019436158 -2.9694402e-06
8.868128e-05 -0.00014934785 0.00021332433 0.00028760056 7.686432e-05 0.00025158757 -0.00011654751 0.00017317856
-0.0002880448 -5.976458e-07 -0.00016722924 2.9994157e-05 -0.00022063326 0.00013947755 0.00020705747 -0.0001172559
-4.4450826e-05 8.5068765e-05 -1.12572225e-05 -3.081882e-05 5.1585877e-05 5.3599724e-06 0.00027380337 2.8198992e-05
-2.8102988e-06 0.00020929928 1.3864705e-05 -0.00017348697 0.00018757454 -0.00014451321 7.521764e-05 5.8676593e-05
8.723541e-06 7.6179836e-06 -0.00018287715 -0.00020557466 0.0002935871 -1.345711e-05 2.821704e-05 -6.884687e-05
8.085259e-05 5.8926562e-05 -0.00010637792 -6.679754e-05 0.000109470886 -7.367479e-05 -5.7656853e-05 0.00010839403
-0.00020487315 5.2416533e-05 4.23657e-05 0.00019622686 -0.00020219911 2.5385669e-05 -0.00014920559 6.6071574e-05
-8.638028e-05 -8.4510735e-05 0.00051157357 0.00038209322 -0.00021366464 7.73409e-06 0.00013051959 -0.00020957265
0.00014125723 8.4468455e-05 0.00023245341 7.582422e-05 -0.00010528248 -0.00010502267 3.899966e-05 6.3493676e-06
0.00014866595 -0.00013171199 -0.00011779174 0.00018239961 1.957216e-05 -0.00020666802 -0.0001584391 0.00011852978
0.00030438614 0.0002273374 -0.00013158548 3.053313e-05 -5.317649e-05 -6.173751e-05 9.018e-05 3.5765872e-05
00000000: 2f88 3737 6498 e4b8 adeb 45b8 7beb 93b8
00000010: 74c9 2238 253b 9ab9 8acd 4bb9 9846 47b6
00000020: 66fa b938 429a 1cb9 d0af 5f39 18c9 9639
00000030: 3832 a138 83e7 8339 f86a f4b8 4497 3539
00000040: b804 97b9 e86d 20b5 425a 2fb9 f69b fb37
00000050: ca59 67b9 b840 1239 911d 5939 48e7 f5b8
00000060: b670 3ab8 f266 b238 67dd 3cb7 7543 01b8
00000070: ea5d 5838 d0d9 b336 448d 8f39 e08c ec37
00000080: 9198 3cb6 5977 5b39 749c 6837 0eea 35b9
00000090: a8af 4439 7888 17b9 2abe 9d38 831b 7638
000000a0: 535b 1237 fb9d ff36 b6c2 3fb9 878f 57b9
000000b0: 98ec 9939 d9c5 61b7 a2b3 ec37 e261 90b8
000000c0: 678f a938 ea27 7738 3617 dfb8 a815 8cb8
000000d0: bc93 e538 da81 9ab8 93d4 71b8 9a51 e338
000000e0: 38d3 56b9 d3d9 5b38 d3b1 3138 3fc2 4d39
000000f0: 6905 54b9 4ff3 d437 1274 1cb9 e88f 8a38
00000100: 0f27 b5b8 5b3b b1b8 1f1b 063a af53 c839
00000110: 2a0b 60b9 aac1 0137 16dc 0839 bbc0 5bb9
00000120: 731e 1439 a824 b138 bdbe 7339 d103 9f38
00000130: 1acb dcb8 9e3f dcb8 9193 2338 a70c d536
00000140: 36e3 1b39 2b1c 0ab9 f506 f7b8 8642 3f39
00000150: e52e a437 06b5 58b9 ac22 26b9 3193 f838
00000160: 0496 9f39 6b61 6e39 35fa 09b9 b310 0038
00000170: d209 5fb8 1379 81b8 051f bd38 5003 1638

mlp_encoder.model.0.bias f4 [32]
-2.4578483e-05 -3.228861e-05 6.558399e-05 5.9889735e-05 5.7874735e-05 -0.00026414156 -0.00028603015 -0.00027886787
-2.9066916e-05 -1.6420772e-05 0.00010005326 8.770945e-05 0.00018512082 2.3360915e-05 0.000253402 8.07986e-05
-0.00012860139 0.00012866406 9.35436e-05 -0.00036931995 -0.00010156697 -4.348368e-05 0.00017828171 6.2092868e-06
-3.8997746e-06 -0.0001542574 -0.000119902565 9.799568e-06 0.00013060961 -0.00020221532 8.689856e-05 0.000136242
00000000: e42d ceb7 a26d 07b8 238a 8938 1d32 7b38
00000010: 86be 7238 7b7c 8ab9 51f6 95b9 0335 92b9
00000020: bad4 f3b7 57bf 89b7 afd3 d138 a7f0 b738
00000030: fe1c 4239 2ff7 c337 0adb 8439 6b72 a938
00000040: 2cd9 06b9 ffe9 0639 d62c c438 49a1 c1b9
00000050: 5a00 d5b8 3f62 36b8 22f1 3a39 5e59 d036
00000060: cfda 82b6 28c0 21b9 3374 fbb8 d368 2437
00000070: 40f4 0839 c309 54b9 4f3d b638 2fdc 0e39

mlp_encoder.model.3.weight f4 [3, 32]
-0.00021869924 3.61258e-05 6.581377e-05 -4.6767393e-05 1.264972e-06 -2.635173e-05 -3.8604972e-05 -4.62207e-05
1.5874053e-05 -0.00012585384 -0.000103341845 -0.00011089345 -3.952142e-06 -6.0517024e-05 1.6227767e-05 7.450012e-05
0.00012019624 1.4803444e-05 6.04289e-06 -9.328022e-05 0.00021910924 6.9023015e-05 6.639016e-06 1.6537964e-05
0.00013078703 0.00013109502 0.00013220924 0.000297163 -6.456659e-06 0.000100199315 3.098725e-05 3.466485e-05
6.6562797e-07 -1.0443882e-05 -0.00015934632 -6.0517566e-05 2.1435335e-06 -0.0001449381 0.00021585407 9.209309e-05
3.098575e-05 0.00023503037 4.8696726e-05 0.00015628371 0.0001349454 -2.8833289e-05 -0.00043509243 -0.0002701181
8.507154e-06 0.0001536781 0.00027266575 0.00011237753 -2.5512323e-05 -6.6524684e-05 -0.0001270725 0.00014794989
5.0516548e-05 0.00032807648 0.000109045934 -0.00012366175 -0.00016362227 -0.00012127193 -0.0001391831 -8.5873566e-05
-1.4966978e-05 0.0002460689 -6.975772e-05 -7.939486e-05 -0.00023267162 -7.789575e-06 -8.21698e-05 4.2038126e-05
4.9845366e-05 0.00013806617 0.00017744389 -0.00018181003 0.00019560393 -5.5427463e-05 -0.00018016677 -1.11554555e-05
5.525845e-05 -0.00018026102 0.00018397546 -0.00028441203 -0.00017449989 -0.00017388281 6.0360744e-05 0.00020678759
-6.0208164e-05 5.6254175e-05 0.0002445021 0.00023376111 0.00020216398 -6.9395804e-07 3.7757964e-06 9.815815e-05
00000000: a152 65b9 c885 1738 8005 8a38 1b28 44b8
00000010: 1bc8 a935 e90d ddb7 c6eb 21b8 19dd 41b8
00000020: 4529 8537 a2f7 03b9 3bb9 d8b8 788f e8b8
00000030: a49c 84b6 a9d3 7db8 dd20 8837 f33c 9c38
00000040: dd11 fc38 4f5c 7837 08c4 ca36 709f c3b8
00000050: b0c0 6539 73c0 9038 b7c4 de36 02bb 8a37
00000060: e023 0939 8d76 0939 a6a1 0a39 8bcc 9b39
00000070: 47a6 d8b6 1922 d238 4ef8 0138 1965 1138
00000080: 9bad 3235 2238 2fb7 3416 27b9 3ed4 7db8
00000090: a0d9 0f36 86fa 17b9 e356 6239 1a22 c138
000000a0: b2f6 0138 7c72 7639 b63f 4c38 17e0 2339
000000b0: 2180 0d39 04df f1b7 1e1d e4b9 a39e 8db9
000000c0: f3b9 0e37 a724 2139 94f4 8e39 3aac eb38
000000d0: 4c03 d6b7 2b83 8bb8 c43e 05b9 ff22 1b39
000000e0: bbe1 5338 ae01 ac39 97af e438 33ab 01b9
000000f0: 0592 2bb9 5f53 feb8 aef1 11b9 0517 b4b8
00000100: ae1a 7bb7 cf02 8139 e44a 92b8 ca80 a6b8
00000110: 50f9 73b9 f8af 02b7 9352 acb8 1852 3038
00000120: 0e11 5138 dbc5 1039 3b10 3a39 42a4 3eb9
00000130: 081b 4d39 c97a 68b8 26eb 3cb9 5128 3bb7
00000140: 4fc5 6738 7304 3db9 89e9 4039 231d 95b9
00000150: f5f9 36b9 5054 36b9 db2b 7d38 1fd5 5839
00000160: 0688 7cb8 76f2 6b38 8430 8039 c51d 7539
00000170: fbfb 5339 6f48 3ab5 b063 7d36 41da cd38

mlp_encoder.model.3.bias f4 [3]
-9.832844e-05 0.71910274 0.00012674199
00000000: ae35 ceb8 1e17 383f 0be6 0439
