online_adapt_sim/learned_models/meta_mlpt_h5_bl10/model_param.pth (torch, 4791 bytes, 4 tensors)

mlp_encoder.model.0.weight f4 [32, 18]
0	0x3905d4e7	0.0001276318
1	0x390b8dc1	0.0001330888
2	0x3883f371	6.291911e-05
3	0x392a5aa6	0.00016246233
4	0xb97a862a	-0.00023891838
5	0xb99d34fa	-0.00029984844
6	0x3941a4f2	0.00018467361
7	0xb9469347	-0.00018937617
8	0xb88c5f52	-6.693475e-05
9	0x38a0eb1f	7.673189e-05
10	0xb7271e2e	-9.961002e-06
11	0xb91ab3d5	-0.00014753577
12	0x369b9627	4.63684e-06
13	0xb89a5009	-7.3582e-05
14	0xb9154865	-0.00014236716
15	0xb98388b0	-0.00025088107
16	0x3946f0b1	0.00018972416
17	0xb9be98a0	-0.00036353339
18	0xbe8289f7	-0.25495884
19	0x391c3332	0.00014896391
20	0xb941c3d9	-0.00018478873
21	0xbcf1f710	-0.029536754
22	0x39ad2d6b	0.0003303097
23	0xb85be66a	-5.242826e-05
24	0xba4cd592	-0.0007813807
25	0x38ff28af	0.000121669254
26	0x37ba1f8e	2.2187622e-05
27	0xb97a6c9c	-0.00023882318
28	0x38eebf9f	0.000113844166
29	0x3a3045e9	0.00067242846
30	0x39176ccf	0.00014441017
31	0xb92f422a	-0.00016713949
32	0x397c1845	0.00024041634
33	0xb91326ef	-0.00014033516
34	0xb99eaf93	-0.0003026692
35	0xb681135e	-3.846754e-06
36	0xb9912926	-0.00027687213
37	0x3924d8c0	0.00015721004
38	0x38a414f2	7.824031e-05
39	0xb8276ca7	-3.9917093e-05
40	0x380fddee	3.4300545e-05
41	0xb93a68ea	-0.00017777426
42	0xb81c5d60	-3.728026e-05
43	0xb9a0eb75	-0.00030693007
44	0xb962c631	-0.00021626872
45	0x391d9363	0.00015027593
46	0x394aaa71	0.00019327716
47	0xb80b1102	-3.3156022e-05
48	0xb92bfe64	-0.00016402599
49	0x391a7092	0.0001472852
50	0xb753f9ad	-1.2634712e-05
51	0xb9aa088a	-0.0003243129
52	0x37b326c6	2.1356518e-05
53	0xb9367f48	-0.00017404289
54	0x3ece04f7	0.40238163
55	0x38a5aaed	7.8996505e-05
56	0xb9f33f07	-0.0004639553
57	0x3e8afd49	0.27146366
58	0xb91182f6	-0.00013877064
59	0xb8e5f430	-0.000109650544
60	0x3d0f9753	0.035056423
61	0x389b81d7	7.4151605e-05
62	0xb8c5dba4	-9.434603e-05
63	0x3aa1f1b4	0.0012355358
64	0x399c480a	0.00029808312
65	0xb9b00c3d	-0.00033578454
66	0x3a24f7cc	0.0006293028
67	0x3900c726	0.0001228122
68	0xba0c60f5	-0.0005355024
69	0x3a5412de	0.00080899696
70	0xb9caf014	-0.00038707315
71	0xb97f26ea	-0.00024333192
72	0xb8fd9688	-0.00012092019
73	0x393b25c3	0.00017847777
74	0xb8bd43ec	-9.024874e-05
75	0x3896ee69	7.196965e-05
76	0xb930637e	-0.00016821732
77	0xb8397329	-4.421469e-05
78	0xb92a196a	-0.00016221931
79	0x388a9084	6.607271e-05
80	0x378c3b96	1.6717047e-05
81	0xb7dd191e	-2.635695e-05
82	0x386cdec6	5.647426e-05
83	0xb9256c30	-0.00015775929
84	0xb78560b3	-1.5899865e-05
85	0x3825a5b2	3.949338e-05
86	0x3980ea2f	0.00024588543
87	0xb8caf4c6	-9.677703e-05
88	0x38bddb62	9.0530855e-05
89	0x370719d5	8.0526415e-06
90	0xb893a864	-7.0408714e-05
91	0x391d5b83	0.00015006778
92	0x391ee973	0.00015155021
93	0x38fcc783	0.00012053458
94	0xb906e6ba	-0.00012865188
95	0x38558074	5.090279e-05
96	0x388f849c	6.843472e-05
97	0xb79b643d	-1.8524117e-05
98	0x397d480d	0.00024154801
99	0x3986c19f	0.0002570273
100	0x393eeaed	0.00018207329
101	0x382af4d7	4.0759183e-05
102	0x38539701	5.0446954e-05
103	0xb8dbbabd	-0.000104775165
104	0xb88c67ac	-6.6950306e-05
105	0xb9484086	-0.00019097523
106	0xb868b011	-5.5477085e-05
107	0xb81ad448	-3.6914164e-05
108	0xb9663592	-0.00021954466
109	0x38e80b02	0.000110646724
110	0xb78f3872	-1.7073213e-05
111	0xb876a3bb	-5.8803456e-05
112	0xb77e523d	-1.5158727e-05
113	0x381a1d5b	3.67438e-05
114	0xb8ce8ee4	-9.849461e-05
115	0xb62fae71	-2.617857e-06
116	0xb8852d4f	-6.3503736e-05
117	0xb88cf591	-6.7214605e-05
118	0x382e67be	4.158145e-05
119	0xb915f7c5	-0.00014302049
120	0x374de9e2	1.2273407e-05
121	0x3966a0c1	0.00021994395
122	0xb9239995	-0.00015602105
123	0xb8c95049	-9.599381e-05
124	0x39303d24	0.00016807445
125	0xb7c58361	-2.3545408e-05
126	0x37bc6f3b	2.2463142e-05
127	0xb902a784	-0.0001246017
128	0x391b6d92	0.0001482277
129	0xb94083ae	-0.00018359601
130	0x390824a7	0.00012983625
131	0xb94cd399	-0.00019533782
132	0xb964532f	-0.00021774763
133	0xb9050c02	-0.00012688342
134	0x392858b4	0.00016054773
135	0xb999bef9	-0.0002932472
136	0x38928176	6.9859365e-05
137	0xb7523703	-1.2529784e-05
138	0x389a70ab	7.364278e-05
139	0xb92b21ac	-0.00016320375
140	0xb995ec3c	-0.00028595503
141	0x3909e31b	0.00013149942
142	0xb9560d00	-0.00020413473
143	0x3941ce2d	0.00018482721
144	0x3988a19b	0.00026060347
145	0x383e2871	4.5337194e-05
146	0x391cdb93	0.00014959117
147	0x3891fca1	6.9611946e-05
148	0xb8cbd322	-9.719121e-05
149	0x3912152f	0.00013931537
150	0x393ce662	0.00018014901
151	0x379b5015	1.8514731e-05
152	0x372ad5aa	1.0182537e-05
153	0x39c8a461	0.00038269444
154	0x3805759d	3.1819207e-05
155	0x3667f03c	3.4561517e-06
156	0x39250516	0.00015737521
157	0x3822e00c	3.883247e-05
158	0x3984581a	0.00025242643
159	0x39102cfb	0.00013749667
160	0xb8f72e4d	-0.00011786502
161	0xb946b50d	-0.00018950198
162	0x3985ed45	0.00025544516
163	0xb82ab032	-4.0695253e-05
164	0x3887c0d6	6.47322e-05
165	0x388da9b1	6.7550114e-05
166	0xb8e87567	-0.0001108449
167	0xb93a3068	-0.00017756375
168	0x385028f0	4.962919e-05
169	0x38b2abe3	8.519718e-05
170	0xb8a78b2a	-7.989102e-05
171	0x38d2d1c2	0.00010052651
172	0x395bfa40	0.00020978693
173	0xb8ef1c8b	-0.000114017246
174	0x3926fb3b	0.00015924584
175	0x39a3f65d	0.00031273338
176	0xb5bb232a	-1.394282e-06
177	0xb8843fb0	-6.306113e-05
178	0x32e556df	2.6698613e-08
179	0x38f613fc	0.000117339165
180	0xb94d2e30	-0.0001956753
181	0x36edcfda	7.0873475e-06
182	0x38092f56	3.270743e-05
183	0x38be194d	9.064619e-05
184	0x36b2f392	5.3331687e-06
185	0xb9ab6526	-0.00032691023
186	0x3915ee82	0.00014298598
187	0x390200dc	0.00012398086
188	0xb6528e5d	-3.1375305e-06
189	0x392b4094	0.00016331888
190	0x36d4bb17	6.3398725e-06
191	0x38580913	5.1506864e-05
192	0xb94d7d18	-0.00019596925
193	0x38d5d0cc	0.00010195523
194	0x38b7ed92	8.770371e-05
195	0xb832721d	-4.2544783e-05
196	0xb9902c58	-0.0002749886
197	0xb9622ced	-0.00021569776
198	0x398bc3c6	0.0002665801
199	0x3917f9b2	0.00014493501
200	0xb86957d6	-5.5633333e-05
201	0x372281a9	9.686141e-06
202	0x3753d6b9	1.2626574e-05
203	0x39262650	0.00015845266
204	0xb88062cf	-6.12192e-05
205	0x3851a5a1	4.9983737e-05
206	0xb8a1506e	-7.6920594e-05
207	0x38a4911a	7.847157e-05
208	0xb969bdb2	-0.00022291279
209	0xb95416b4	-0.00020226353
210	0xb7461cea	-1.1808452e-05
211	0x3906aa67	0.00012842716
212	0x3911fbb6	0.00013922047
213	0xb6640ea9	-3.398318e-06
214	0x38390c5a	4.411894e-05
215	0xb7bccae4	-2.2505825e-05
216	0xb6152f8b	-2.2230404e-06
217	0xb8b62be0	-8.6866086e-05
218	0xb9997867	-0.0002927214
219	0x38b60539	8.679409e-05
220	0xb8f4ea81	-0.000116785064
221	0xb8f1def5	-0.000115333045
222	0xb9912bce	-0.00027689192
223	0xb8f0874c	-0.00011469293
224	0x37d1a87a	2.4993195e-05
225	0x3682f9dc	3.9033894e-06
226	0x389bc67f	7.427949e-05
227	0xb948c2b9	-0.00019146026
228	0xb92033ea	-0.00015278129
229	0xb8b4a4f4	-8.613794e-05
230	0xb9b2af28	-0.00034081307
231	0xb8c4ec08	-9.3899725e-05
232	0xb9bb3b57	-0.0003571163
233	0xb8f3e60c	-0.000116299925
234	0x39708d6e	0.0002294087
235	0x38c69d1e	9.470641e-05
236	0xb85c00af	-5.2452724e-05
237	0x37f0d678	2.87101e-05
238	0x394adbb2	0.00019346064
239	0x38d259b7	0.00010030291
240	0xb89a808a	-7.3672345e-05
241	0x37b2b8d2	2.1305317e-05
242	0x3929fdd7	0.00016211659
243	0xb9690257	-0.00022221483
244	0xb6bca135	-5.6216036e-06
245	0x3918cd69	0.00014572371
246	0x38e71aba	0.000110199166
247	0x38b596c0	8.658832e-05
248	0x3853b3b4	5.047368e-05
249	0xb8934fd8	-7.024378e-05
250	0x3a003880	0.00048912317
251	0xb7d90ba0	-2.587383e-05
252	0x3987630e	0.00025823008
253	0xb916600c	-0.00014340895
254	0x3998663b	0.00029067867
255	0xb8fadc5c	-0.00011961974

mlp_encoder.model.0.bias f4 [32]
0	0x3922e459	0.0001553459
1	0xb88c4ffb	-6.690618e-05
2	0x367fe499	3.8131022e-06
3	0x3898d28c	7.287142e-05
4	0x38203e0b	3.8204755e-05
5	0x38924ec2	6.976492e-05
6	0xb8855332	-6.3574305e-05
7	0xb7fdee54	-3.027093e-05
8	0xb76998aa	-1.3923427e-05
9	0x396844da	0.00022150893
10	0xb847b533	-4.7614052e-05
11	0x391263d8	0.0001396084
12	0x38ad8a42	8.275035e-05
13	0x391dc1d7	0.00015044898
14	0x38f858fc	0.00011842136
15	0x3983e134	0.00025154056
16	0xb89ff86b	-7.627982e-05
17	0x38bba41b	8.947422e-05
18	0xb9e66794	-0.0004394619
19	0xb7066246	-8.0099035e-06
20	0x3945119f	0.00018793948
21	0xba093d02	-0.0005235226
22	0x380400ef	3.1472122e-05
23	0x39758c08	0.00023417186
24	0xb879bb4f	-5.954067e-05
25	0x3900dd3f	0.00012289452
26	0x36293620	2.5214467e-06
27	0xb637ef38	-2.7408369e-06
28	0x3992d0ca	0.0002800285
29	0x39550bee	0.00020317707
30	0xb93a4ef5	-0.00017767756
31	0xb87579d4	-5.8526013e-05

mlp_encoder.model.3.weight f4 [3, 32]
0	0x384c6cf8	4.8738875e-05
1	0xb957f406	-0.00020594904
2	0xb8130bcc	-3.5058518e-05
3	0x39a7fb4f	0.00032039962
4	0x38266795	3.9673952e-05
5	0x3901ee97	0.0001239128
6	0x3962f593	0.00021644523
7	0xb84d8a83	-4.9004808e-05
8	0xb91ab314	-0.00014753296
9	0x39059c26	0.00012742038
10	0xb89dfd25	-7.533495e-05
11	0x38904123	6.878588e-05
12	0xb7087189	-8.132666e-06
13	0x38a77035	7.984081e-05
14	0x3896a524	7.183317e-05
15	0x399afe90	0.00029562833
16	0xb95ffe2a	-0.00021361621
17	0xb93680e2	-0.00017404885
18	0xb8aa2636	-8.113349e-05
19	0xb860fc07	-5.364048e-05
20	0xb8fc7f42	-0.0001204
21	0xbfa67b06	-1.3006294
22	0xb8e4e02e	-0.00010913644
23	0xb6e17ad6	-6.7198225e-06
24	0x3835fdbf	4.3390082e-05
25	0x393761c3	0.00017488659
26	0x393edc35	0.00018201846
27	0xb6b1ad18	-5.295162e-06
28	0xb78b6825	-1.6618587e-05
29	0x388ca268	6.705971e-05
30	0x39735530	0.0002320602
31	0x3914b803	0.0001418293
32	0x38e49540	0.00010899687
33	0x398c1e93	0.0002672566
34	0x38fa1c76	0.0001192623
35	0xb9a6b444	-0.00031796296
36	0x38bbed40	8.961046e-05
37	0x390d3fd9	0.00013470593
38	0x3807387b	3.223911e-05
39	0xb89b257a	-7.3979565e-05
40	0xb8fdf5b4	-0.00012109746
41	0xb96b87a7	-0.00022461881
42	0xb8ad4731	-8.262543e-05
43	0x3890760d	6.888444e-05
44	0xb91fcf59	-0.00015240665
45	0xb9957853	-0.00028509143
46	0x39840e97	0.00025187872
47	0x37c88885	2.390543e-05
48	0x39074730	0.00012901123
49	0x3982c11f	0.0002493942
50	0xb882664e	-6.217939e-05
51	0xb765cc07	-1.36969675e-05
52	0xb9288903	-0.0001607277
53	0x38848e03	6.320702e-05
54	0xb88a7332	-6.6018096e-05
55	0xb59d4dd5	-1.1720064e-06
56	0xb88a04bf	-6.581237e-05
57	0xb8b37487	-8.55709e-05
58	0x398224eb	0.00024823038
59	0x39352f90	0.00017279224
60	0x38f3e498	0.00011629722
61	0xb939f07c	-0.00017732562
62	0xb9016744	-0.00012340868
63	0x3727be78	9.998323e-06
64	0xb969caaf	-0.00022296117
65	0x3eee265f	0.4651365
66	0xb92d4d9b	-0.00016527476
67	0xbf6806ab	-0.90635175
68	0x38eca053	0.0001128322
69	0x388de713	6.766445e-05
70	0x390c45f9	0.00013377507
71	0x398a9b60	0.00026437175
72	0xb7ef8225	-2.8551623e-05
73	0x3913c38b	0.00014091858
74	0xb9304d92	-0.00016813565
75	0xb8e0c8eb	-0.00010718576
76	0x3928c4cc	0.00016095041
77	0x38dd3ea4	0.00010549769
78	0x35ad2ec1	1.2903112e-06
79	0x388e2559	6.778044e-05
80	0x3951d694	0.0002001173
81	0xb7f8487f	-2.9597662e-05
82	0x387b7312	5.995023e-05
83	0x390b686b	0.00013294972
84	0xb8f42598	-0.00011641829
85	0x3997ba8b	0.0002893995
86	0xb978c999	-0.00023726224
87	0xb8face0a	-0.00011959307
88	0x392dd52d	0.0001657798
89	0xb8ab1d51	-8.159376e-05
90	0x381c1bd7	3.7219226e-05
91	0x37803ca7	1.5287033e-05
92	0x393a073d	0.00017741039
93	0xb8c9f582	-9.630156e-05
94	0xb94394e7	-0.0001865212
95	0x3845dcb2	4.7174e-05

mlp_encoder.model.3.bias f4 [3]
0	0x3990aaa0	0.00027592946
1	0xbf877991	-1.0583974
2	0x3965c13e	0.0002191113
