online_adapt_sim/learned_models/meta_mlpt_h3_bl10/model_param.pth (torch, 4023 bytes, 4 tensors)

mlp_encoder.model.0.weight f4 [32, 12]
0	0xba0d9419	-0.00054007914
1	0xb874f976	-5.8406462e-05
2	0xb8afaeb6	-8.377193e-05
3	0x3981a22f	0.00024725634
4	0xb87980bb	-5.9486116e-05
5	0xb8ecf844	-0.000112996
6	0x39d0db34	0.0003983617
7	0x376909a0	1.3890123e-05
8	0xb8bcf8f0	-9.010907e-05
9	0xb917cfda	-0.00014477913
10	0x3818f230	3.646518e-05
11	0x38e59c84	0.00010948724
12	0xb9382f5d	-0.00017565252
13	0x3824e2cc	3.9311868e-05
14	0x39361a97	0.00017366778
15	0xb992fcf7	-0.00028035764
16	0xb79a5132	-1.839604e-05
17	0xb9316eaa	-0.00016921261
18	0x3947573e	0.00019010619
19	0xb801cc38	-3.094619e-05
20	0xb997148e	-0.0002881628
21	0xb9031372	-0.00012500377
22	0x3991e359	0.00027825942
23	0x385257ba	5.0149603e-05
24	0x381d0c55	3.7443202e-05
25	0x37b5ed69	2.1687434e-05
26	0xb8e5b0eb	-0.000109525245
27	0xb7e448d7	-2.7213637e-05
28	0x37b0ab53	2.1060614e-05
29	0x373f4bfc	1.1402179e-05
30	0x39c8857d	0.0003824643
31	0x39be57dc	0.00036305084
32	0xb878861f	-5.9252718e-05
33	0x381a5d89	3.6803573e-05
34	0x39223099	0.00015467628
35	0x36aa0602	5.067094e-06
36	0xb945b2fb	-0.0001885406
37	0xbf070fbd	-0.5275839
38	0x38fe1bc4	0.000121168356
39	0x3a3a8c4a	0.00071162416
40	0xbe66b417	-0.22529636
41	0x38a31df9	7.7780285e-05
42	0x3ceb4a75	0.028722027
43	0xba2fd88a	-0.0006707987
44	0x38da8cee	0.000104213
45	0x3d9b402f	0.075806014
46	0xb9bbcbc4	-0.00035819237
47	0xb8402609	-4.581179e-05
48	0x389ae9db	7.386851e-05
49	0x380489b7	3.159951e-05
50	0xb8d44958	-0.00010122609
51	0x387a6f6e	5.970842e-05
52	0x38510626	4.983521e-05
53	0xb9088961	-0.00013021148
54	0xb903aa61	-0.00012556605
55	0x38b3ebf0	8.579332e-05
56	0xb8c8169b	-9.540954e-05
57	0x38b81576	8.777801e-05
58	0xb899d43d	-7.335141e-05
59	0xb8b040c2	-8.404396e-05
60	0xb96346ad	-0.00021674736
61	0x38c6f7c8	9.4875286e-05
62	0x39955f94	0.00028490706
63	0x3818297b	3.6278256e-05
64	0xb7f18d16	-2.8795137e-05
65	0x38c98464	9.6090866e-05
66	0x39067698	0.00012823415
67	0x39940b45	0.00028237156
68	0x38c77dd7	9.512499e-05
69	0xb91dfae6	-0.00015066154
70	0x38a00e2f	7.6320364e-05
71	0xb9140f95	-0.00014120185
72	0xb91147f6	-0.00013855085
73	0x38a58564	7.892659e-05
74	0xb946a6fa	-0.00018944955
75	0x3934aae6	0.00017229802
76	0x38b96e58	8.8420406e-05
77	0x3918c5cb	0.00014569533
78	0x39091047	0.00013071402
79	0xb7b81cd8	-2.194794e-05
80	0xb81fde07	-3.8115333e-05
81	0x39659a0a	0.00021896526
82	0xb983cd2a	-0.00025139126
83	0x37df8f64	2.6650443e-05
84	0x389a325c	7.3526724e-05
85	0x39c76573	0.00038031823
86	0x3924fc80	0.00015734322
87	0x39812edc	0.0002463971
88	0xb8d2f3ce	-0.000100589925
89	0x38ee0a24	0.00011350613
90	0x39230901	0.00015548246
91	0x396e11af	0.00022704036
92	0x38fcca19	0.0001205394
93	0xb8aa7233	-8.127503e-05
94	0x390803d4	0.00012971397
95	0xb7e9970e	-2.7846105e-05
96	0xb969b6d8	-0.00022288726
97	0xb7f9312d	-2.9706012e-05
98	0x396e3802	0.00022718313
99	0x3909ee42	0.00013154096
100	0x38cac264	9.668319e-05
101	0x38b34a23	8.549194e-05
102	0x388942be	6.545101e-05
103	0xb92828cf	-0.00016036931
104	0x3917bcb3	0.00014470778
105	0x379d8d89	1.8781766e-05
106	0xb93e4c57	-0.00018148251
107	0x38369219	4.3528245e-05
108	0x384bd8ad	4.8600767e-05
109	0xb91cefcb	-0.00014966649
110	0x388b034a	6.628649e-05
111	0x36a27b84	4.8423553e-06
112	0xb6bdd22d	-5.6571066e-06
113	0x378fb164	1.7129532e-05
114	0x3759898d	1.2966234e-05
115	0x36e74e95	6.8934846e-06
116	0xb9438267	-0.00018645228
117	0x3782ee35	1.5608131e-05
118	0xb6adc2a3	-5.1784605e-06
119	0xb8e2bb16	-0.00010811367
120	0x37b4ab19	2.1537346e-05
121	0x3892b81f	6.996118e-05
122	0x38b55e82	8.648356e-05
123	0xb8291cf9	-4.0319723e-05
124	0x398e37e2	0.00027125987
125	0xb858931c	-5.163542e-05
126	0xb8284201	-4.0115792e-05
127	0xb8f75bbc	-0.00011794965
128	0xb89aca7f	-7.38101e-05
129	0x37a34edb	1.9467834e-05
130	0xb8ebceff	-0.00011244229
131	0xb8406838	-4.587343e-05
132	0x393e2bc0	0.0001813611
133	0x3860b3d6	5.3573247e-05
134	0x36d43b32	6.3249836e-06
135	0x38c8b6f1	9.570819e-05
136	0x38ef96a1	0.00011424465
137	0xb7fbe9ed	-3.0030462e-05
138	0x38ab0f67	8.156784e-05
139	0xb8928ca4	-6.988019e-05
140	0xb9174f41	-0.00014430007
141	0x37c6d549	2.3702758e-05
142	0xb6454ec8	-2.9401144e-06
143	0x395dbbd6	0.00021146177
144	0xb93dde02	-0.00018107149
145	0xb8aa8582	-8.1310995e-05
146	0x38ffedde	0.00012203654
147	0xb7ac0c00	-2.0509586e-05
148	0xb9939bb6	-0.0002815404
149	0xb938a1f5	-0.00017607941
150	0x3765ba28	1.36928065e-05
151	0x38bd003b	9.012265e-05
152	0x391c078c	0.00014880131
153	0xb986eec5	-0.0002573637
154	0x39104349	0.00013757976
155	0x36c6ab1d	5.92078e-06
156	0xbefb09d9	-0.4903095
157	0xb9656dde	-0.0002188007
158	0x3a2f1a45	0.00066796347
159	0xbeda003e	-0.4257831
160	0x38eba1e1	0.000112358255
161	0x3abb65a4	0.0014297259
162	0xb94a0400	-0.00019265711
163	0x391b3019	0.0001479987
164	0xb7028b1f	-7.7809955e-06
165	0xbafd5898	-0.0019328771
166	0xb75b43c6	-1.3069197e-05
167	0x3a1ba041	0.00059366605
168	0x390930f6	0.00013083578
169	0x37a00438	1.907545e-05
170	0xb924f3e7	-0.0001573112
171	0xb985a073	-0.0002548728
172	0x386cff85	5.6504756e-05
173	0x37b74d38	2.1851258e-05
174	0x390912fa	0.00013072407
175	0x391ec9ff	0.00015143304
176	0xb8cfa555	-9.901325e-05
177	0xb93cd423	-0.00018008104
178	0x3967cc69	0.00022106025
179	0x37cac4c8	2.417191e-05
180	0xb8af5727	-8.360884e-05
181	0x381d146c	3.7450736e-05
182	0x3923e077	0.00015628511
183	0x37c60bf2	2.3609002e-05
184	0xb9457d2e	-0.00018834017
185	0x390dc771	0.00013521106
186	0x38a39ea8	7.801998e-05
187	0xb92a2c33	-0.00016228929
188	0xb7ff5e49	-3.0442274e-05
189	0xb794f3e7	-1.775655e-05
190	0x37c875d1	2.389672e-05
191	0x378e445d	1.6959553e-05
192	0xb8f1d882	-0.00011532103
193	0xb8c2f137	-9.2955706e-05
194	0xb95945ed	-0.00020720782
195	0x382b7475	4.0878036e-05
196	0x392b98f1	0.00016364806
197	0xb8be8ccc	-9.0861315e-05
198	0x3770602e	1.4327508e-05
199	0xb86160e6	-5.3734424e-05
200	0xb7abddb2	-2.0488023e-05
201	0x3807d276	3.2382515e-05
202	0xb805e5af	-3.192358e-05
203	0x391ee600	0.00015153736
204	0x39395e33	0.00017678067
205	0xb698d6a3	-4.55494e-06
206	0xb87d1c36	-6.0346174e-05
207	0xb891c55a	-6.9508984e-05
208	0xb9305d0f	-0.00016819335
209	0x3984c54b	0.00025323997
210	0x38279e1d	3.9963157e-05
211	0x391dedeb	0.00015061318
212	0xb8ec8e2a	-0.00011279837
213	0x398173b5	0.00024691006
214	0xb6016a57	-1.9284396e-06
215	0x38f72d48	0.00011786312
216	0xb8267e43	-3.9695075e-05
217	0x38072aa3	3.2226217e-05
218	0xb84818f8	-4.770697e-05
219	0x394541c3	0.00018811882
220	0x3487bd64	2.528351e-07
221	0xb84001e6	-4.5778135e-05
222	0x382609e4	3.9586695e-05
223	0xb905cf3b	-0.00012761068
224	0x388f41cd	6.831028e-05
225	0x38792c2e	5.940737e-05
226	0x3875d28c	5.860864e-05
227	0x38390b37	4.411788e-05
228	0xb942061a	-0.00018503555
229	0xb8641f9b	-5.438887e-05
230	0x387aa0a0	5.975424e-05
231	0x391cd330	0.00014955993
232	0xb86a83ea	-5.5912802e-05
233	0xb90a890f	-0.00013211764
234	0x392704f2	0.00015928203
235	0xb9c0e85f	-0.00036794224
236	0x389068fd	6.886011e-05
237	0x3959da59	0.00020776074
238	0xb8831940	-6.25127e-05
239	0x3836949b	4.353058e-05
240	0x399e5f1a	0.00030206965
241	0x390a8ac9	0.00013212407
242	0x389b0d1b	7.393417e-05
243	0x38ffef21	0.00012203889
244	0x35616dfe	8.397909e-07
245	0xb86b5e8b	-5.6116416e-05
246	0x38d0b003	9.9509976e-05
247	0xb869f986	-5.5783916e-05
248	0x389c0f3c	7.441497e-05
249	0x38e0fffc	0.00010728833
250	0x37d90656	2.5871366e-05
251	0x387e85df	6.0682996e-05
252	0x37c7aa7a	2.3802033e-05
253	0x384f922e	4.9488786e-05
254	0x390a350b	0.00013180466
255	0x38a0857c	7.654258e-05

mlp_encoder.model.0.bias f4 [32]
0	0x37c74187	2.3753162e-05
1	0x39a88782	0.00032144418
2	0xb917a7c0	-0.00014462974
3	0x3984d780	0.00025337562
4	0xb875ea1d	-5.8630587e-05
5	0x38f6c928	0.00011767662
6	0x37f3185f	2.8979206e-05
7	0x39435d4d	0.00018631406
8	0x392b3c3a	0.00016330267
9	0x390735ee	0.00012894694
10	0x390b4bca	0.00013284307
11	0xb92eb0ba	-0.00016659769
12	0x39640f3e	0.00021749453
13	0xb9073535	-0.00012894424
14	0xb780414b	-1.5289193e-05
15	0x392b4f14	0.0001633729
16	0x378ea764	1.7005666e-05
17	0xb81344c8	-3.511159e-05
18	0x39f077b3	0.0004586555
19	0xb962415d	-0.00021577389
20	0xb829a7a1	-4.0448856e-05
21	0xb8a697ef	-7.943797e-05
22	0xb7dcf8ea	-2.6341953e-05
23	0x370ffe30	8.582647e-06
24	0x38e7390a	0.00011025563
25	0x38912851	6.921648e-05
26	0x3904d58a	0.0001266805
27	0x3912dfb8	0.00014006987
28	0x38ef9e80	0.00011425931
29	0xb98bbdc8	-0.00026653544
30	0x3907d643	0.00012954422
31	0x375c49b0	1.3130179e-05

mlp_encoder.model.3.weight f4 [3, 32]
0	0xb92b36d8	-0.00016328262
1	0xb7d0add2	-2.4876474e-05
2	0xb911de13	-0.00013911007
3	0xb82a576d	-4.061258e-05
4	0xb998e082	-0.0002915897
5	0xb94f5c4f	-0.00019775446
6	0x38353ffb	4.321335e-05
7	0x38d9a676	0.00010378372
8	0x385a9bff	5.2120533e-05
9	0xb91e6228	-0.0001510462
10	0x38a49129	7.8471676e-05
11	0xb6044d55	-1.9714546e-06
12	0xb9116e5b	-0.00013869388
13	0x3ef8435f	0.484889
14	0x38b1f638	8.4858795e-05
15	0xb9246ec5	-0.00015681524
16	0x38797314	5.94734e-05
17	0x3749942b	1.2015032e-05
18	0xb935b478	-0.00017328735
19	0xb80cb31a	-3.3545402e-05
20	0xb9840bca	-0.00025185785
21	0xb74d6532	-1.2242514e-05
22	0x38d0d635	9.958112e-05
23	0x392f999c	0.00016746524
24	0xb9002be5	-0.00012223383
25	0x38407246	4.5882793e-05
26	0x388d5a1d	6.740189e-05
27	0x390c04ac	0.00013353181
28	0xb8a64b57	-7.92953e-05
29	0x38866013	6.407513e-05
30	0x3935cf93	0.00017338833
31	0xb8cef6ca	-9.8688135e-05
32	0x3ae3fb6b	0.0017393654
33	0xb8c2eedd	-9.2951326e-05
34	0x3371cc75	5.6298138e-08
35	0x38e6924b	0.00010994504
36	0x3884ffbf	6.341887e-05
37	0x3882df32	6.2404564e-05
38	0xb8a9ede1	-8.1028564e-05
39	0x37a13382	1.921668e-05
40	0xb86b5fdb	-5.611764e-05
41	0xb84a23fb	-4.8194062e-05
42	0xb8898123	-6.556723e-05
43	0x3835e250	4.3364533e-05
44	0x3913c0ff	0.00014090909
45	0x3f895a73	1.0730728
46	0x3786948f	1.6043223e-05
47	0x38badbe4	8.910129e-05
48	0x37a2ed40	1.9422383e-05
49	0x37ca825d	2.4140982e-05
50	0x38c33e77	9.3099596e-05
51	0x38bcd3bf	9.003979e-05
52	0x393f47cc	0.00018241926
53	0x386b51dc	5.6104604e-05
54	0xb8836ac4	-6.2664534e-05
55	0x37995a8d	1.8281187e-05
56	0x36fe308e	7.5754424e-06
57	0xb8bbc71b	-8.953941e-05
58	0xb5157624	-5.567874e-07
59	0x383ad152	4.45408e-05
60	0x388e4b68	6.785133e-05
61	0x38c36754	9.317571e-05
62	0xb88df01e	-6.768129e-05
63	0xb9b648a3	-0.00034767864
64	0xb827fa06	-4.0048755e-05
65	0xb90f1b68	-0.00013647752
66	0xb88205e2	-6.199979e-05
67	0x3f8b6824	1.0891156
68	0x39073010	0.00012892508
69	0xb8ccefd2	-9.772148e-05
70	0x388787a7	6.462569e-05
71	0xbde654ce	-0.11246644
72	0x3807abd2	3.234653e-05
73	0x3936ea33	0.00017444119
74	0xb7a0869f	-1.9136174e-05
75	0x388b97ae	6.656289e-05
76	0x38f2f9a0	0.000115859555
77	0xb9ce15be	-0.0003930758
78	0xb8d16a19	-9.985659e-05
79	0x389fea1c	7.625317e-05
80	0x38c1a4ab	9.233629e-05
81	0xb8ddc533	-0.000105748324
82	0xb87309aa	-5.7944715e-05
83	0xb8f90211	-0.0001187363
84	0xb91ef99b	-0.0001516104
85	0x38d95ec3	0.00010365017
86	0xb7c88469	-2.3903516e-05
87	0xb82b873d	-4.0895527e-05
88	0xb73e34b4	-1.1337153e-05
89	0xb6f37a11	-7.2561747e-06
90	0x392a18f5	0.0001622176
91	0x388b7319	6.649475e-05
92	0xb7d1c5a2	-2.5006771e-05
93	0x385676b9	5.1132145e-05
94	0x368cabbc	4.1923176e-06
95	0x36aa41de	5.0740628e-06

mlp_encoder.model.3.bias f4 [3]
0	0xbf538be1	-0.82635313
1	0x3e8fd275	0.28090253
2	0xb87e3ebc	-6.0616745e-05
