online_adapt_sim/learned_models/meta_mlpt_h0_bl10/model_param.pth (torch, 2871 bytes, 4 tensors)

mlp_encoder.model.0.weight f4 [32, 3]
000000 36 46 4f 3f 2e 65 51 ba f2 5f df bc 82 17 17 b5
       0.8096651 -0.0007987794 -0.02726743 -5.628609e-07
000010 eb 22 d2 37 50 6b 9a b6 ab 39 21 b9 c8 ba ba b8
       2.505021e-05 -4.6020505e-06 -0.0001537564 -8.903962e-05
000020 bb b6 bc 37 f7 5a 11 3d fa 9c 29 bf 0c 37 7c b9
       2.2496437e-05 0.03548714 -0.6625515 -0.000240531
000030 c0 0f 35 b9 64 30 8b 39 3a 9a 0f b9 af 3e 0d 39
       -0.00017267372 0.000265482 -0.00013694997 0.0001347016
000040 96 02 99 b8 0e 96 4e b8 30 4e a7 b8 08 db d6 38
       -7.29609e-05 -4.9253977e-05 -7.977744e-05 0.00010245113
000050 3f 7d bd 39 a3 f0 0a b9 71 6e d8 b8 42 9d 0f 39
       0.00036142205 -0.0001325035 -0.00010320254 0.00013696126
000060 3c 0e ea 38 50 bd 5d 37 b6 00 3e b7 ce be 08 38
       0.00011160641 1.3216704e-05 -1.1325048e-05 3.2602627e-05
000070 88 43 7d 38 52 2d 10 39 26 63 93 39 28 d5 d4 35
       6.0382794e-05 0.00013749793 0.00028111896 1.5857267e-06
000080 e7 2d a7 38 78 3c 97 39 bd 48 ea b8 ad 52 87 b8
       7.9717305e-05 0.00028846017 -0.00011171538 -6.452701e-05
000090 c1 a7 f3 b8 13 03 9c 37 69 7c 48 38 08 f7 df 38
       -0.000116183895 1.859808e-05 4.779958e-05 0.00010679482
0000a0 cb 0e 6f b9 b8 3e 11 39 79 96 8a b8 24 e2 08 39
       -0.00022798327 0.00013851642 -6.6083805e-05 0.00013054215
0000b0 86 cd b9 b8 a4 d8 18 b9 2f 0e 52 b8 04 51 0f b9
       -8.859769e-05 -0.00014576555 -5.008111e-05 -0.00013667723
0000c0 2f dc 9f b9 3c 28 9b 38 c2 f1 4b 39 81 ce db b8
       -0.00030490893 7.39847e-05 0.0001944965 -0.00010481198
0000d0 d1 d2 10 38 1c 06 8a 39 c3 51 24 b9 31 2b 5b 39
       3.4528613e-05 0.00026325963 -0.00015670717 0.00020901558
0000e0 89 6b f8 38 51 46 e4 b8 5d 3f d1 b7 ef 89 04 39
       0.000118455915 -0.00010884985 -2.4944247e-05 0.00012639885
0000f0 d8 d8 49 39 6c b1 2c b9 04 6c fb b3 1c e1 81 39
       0.00019249634 -0.00016469293 -1.1707746e-07 0.00024772517
000100 3a bb fd b8 eb 46 cf 39 1a 05 05 39 c0 f6 62 b9
       -0.00012098854 0.00039534955 0.00012685769 -0.00021644961
000110 2e f9 05 b9 2a d7 b2 b8 12 e4 5c b9 38 29 26 39
       -0.00012776695 -8.527779e-05 -0.00021065798 0.00015846349
000120 c0 12 c9 38 78 62 3f 39 1a b2 f7 b7 14 73 57 38
       9.587919e-05 0.00018251862 -2.952763e-05 5.136717e-05
000130 59 14 27 39 7a 2c 95 37 9f 70 79 b9 e7 36 17 b9
       0.00015933941 1.7782895e-05 -0.00023788445 -0.00014420935
000140 22 b4 94 b8 f0 4d b0 b8 f9 63 37 38 09 f2 cf b9
       -7.090742e-05 -8.406851e-05 4.3723707e-05 -0.00039662447
000150 83 73 a3 36 ae 12 f4 37 79 0b 3b b9 73 38 7d b9
       4.871226e-06 2.9095765e-05 -0.00017837984 -0.00024148989
000160 9e f3 47 b8 d7 41 5e 39 79 e6 4d b9 99 06 01 3a
       -4.7672183e-05 0.00021196097 -0.00019636181 0.00049219426
000170 0d 91 b5 38 b3 a5 88 39 43 35 a6 38 81 22 1b 39
       8.6577704e-05 0.00026063397 7.9254176e-05 0.00014794806

mlp_encoder.model.0.bias f4 [32]
000000 23 19 8e ba a4 1c fe 38 11 be 83 b8 f5 22 12 b9
       -0.0010841232 0.000121169986 -6.2819694e-05 -0.00013936668
000010 fc 49 b9 38 f5 b5 93 b9 4f 54 16 b9 ee 63 5d 37
       8.835268e-05 -0.00028173593 -0.00014336522 1.3195893e-05
000020 7c 00 0a b9 0c 37 1c 39 ec 01 02 b9 70 1c 08 b9
       -0.00013160886 0.00014897826 -0.00012398482 -0.00012980564
000030 10 ef 2f b6 1b 1e 03 38 71 1b d0 b8 66 4c 10 39
       -2.6216185e-06 3.126087e-05 -9.923324e-05 0.00013761371
000040 8a f1 f7 36 33 07 1c b8 90 98 13 b9 e9 e4 99 39
       7.3892925e-06 -3.7200003e-05 -0.00014075846 0.00029352985
000050 40 5c 3f 39 e7 d6 0d 39 1b c6 5b b9 e9 7c 8f 38
       0.00018249545 0.00013526865 -0.00020959268 6.842038e-05
000060 1e 64 61 39 1e 87 04 39 9a e6 87 b9 10 b9 11 39
       0.00021494969 0.00012638836 -0.00025921018 0.00013897219
000070 21 3d e1 b9 e6 93 4e b9 17 1f 04 38 cf cd 90 38
       -0.0004296089 -0.00019700787 3.1500207e-05 6.90479e-05

mlp_encoder.model.3.weight f4 [3, 32]
000000 e0 1a d4 b8 fb 52 20 b9 b4 16 e5 38 5e bc 9c b8
       -0.000101139536 -0.00015289702 0.000109238 -7.473746e-05
000010 a3 be 0b b9 98 e5 bb b6 59 b1 37 38 62 e0 df b7
       -0.0001332709 -5.5997625e-06 4.3795768e-05 -2.6688158e-05
000020 2f 1c 86 b9 31 90 70 38 ac 38 ee b9 54 be 13 b8
       -0.0002557947 5.7354748e-05 -0.0004543712 -3.5224788e-05
000030 53 c2 ab 38 02 e4 56 39 0e 28 57 b9 8c f5 16 b8
       8.190111e-05 0.0002049357 -0.0002051892 -3.599147e-05
000040 08 74 f5 b8 d9 0d 06 b9 ea 13 7c b7 fe eb 53 39
       -0.00011704123 -0.00012784394 -1.5025007e-05 0.00020210442
000050 d0 d5 b0 38 95 e0 3c 38 51 d4 75 b8 36 13 15 b9
       8.43216e-05 4.503185e-05 -5.8610287e-05 -0.00014216904
000060 f7 a2 39 39 a3 16 d2 36 e6 1c b2 36 63 56 56 37
       0.00017703684 6.261123e-06 5.3081776e-06 1.27755075e-05
000070 68 f1 2d b9 b0 ab 20 39 c9 7b 50 38 e6 70 94 b8
       -0.00016588497 0.00015322748 4.970635e-05 -7.078219e-05
000080 2a f8 72 b9 f2 f2 b0 38 03 3d 69 39 8e b8 a2 3f
       -0.00023171367 8.437586e-05 0.0002224334 1.2712572
000090 14 f6 8c 37 29 f6 95 37 45 d7 ed b8 7d 13 91 38
       1.680389e-05 1.7876811e-05 -0.00011341138 6.917769e-05
0000a0 98 be bf b7 7c 8a 5c b8 3b 72 1b b9 5a 1a 24 39
       -2.2857726e-05 -5.258106e-05 -0.00014824506 0.00015650076
0000b0 de 1b 8b 39 d7 53 d5 39 1d 46 09 b9 82 d5 98 b7
       0.0002653291 0.0004068899 -0.00013091457 -1.8219234e-05
0000c0 9d 18 01 b9 93 fc 55 39 da b4 34 b9 bd aa a8 b7
       -0.00012311568 0.00020407354 -0.0001723351 -2.0106667e-05
0000d0 9f cb 1b 38 92 e7 f4 b8 e6 24 d1 38 1b 42 91 b8
       3.7144517e-05 -0.0001167796 9.9727695e-05 -6.926452e-05
0000e0 2d f1 1c b9 f6 b0 c1 38 06 d9 74 39 0d af c6 37
       -0.00014967164 9.235919e-05 0.00023350501 2.3684954e-05
0000f0 3e 96 3f 39 31 90 10 38 e8 7c 07 b9 12 c1 40 39
       0.00018271149 3.4466564e-05 -0.00012921134 0.00018382471
000100 75 b1 a1 3f a4 a3 2d 38 2e 91 3e b9 17 09 80 39
       1.263228 4.1398816e-05 -0.00018173896 0.00024420835
000110 ac fc 64 39 fa b3 32 39 b6 49 46 b9 2f 87 f5 b8
       0.00021837902 0.0001704245 -0.00018910211 -0.0001170769
000120 39 58 a0 38 d7 b3 99 37 6a 55 73 37 d9 ce 0a 39
       7.645827e-05 1.8322766e-05 1.4503816e-05 0.00013237762
000130 5b 34 2c 39 b7 b0 c5 b9 7e b8 35 39 18 96 09 39
       0.00016422702 -0.0003770643 0.00017330234 0.00013121252
000140 f9 10 dd 38 16 75 36 39 40 e1 f6 36 96 20 e2 b8
       0.000105412626 0.0001740049 7.357594e-06 -0.000107825894
000150 39 15 22 b9 87 af dd b8 7d 9d ac 38 70 90 8f 37
       -0.0001545743 -0.00010570796 8.2309336e-05 1.7114187e-05
000160 1f 49 33 b9 41 27 21 b8 53 37 22 b9 51 34 8a 38
       -0.0001709801 -3.842195e-05 -0.00015470134 6.5900975e-05
000170 44 62 22 39 51 a0 86 38 b0 5a 28 b9 06 76 f3 b7
       0.0001548613 6.419479e-05 -0.00016055512 -2.9022816e-05

mlp_encoder.model.3.bias f4 [3]
000000 55 98 83 3f a4 c0 ac 39 08 94 db 39
       1.0280863 0.00032949925 0.00041881227
