online_adapt_sim/learned_models/meta_mlpt_h1_bl20/model_param.pth (torch, 3255 bytes, 4 tensors)

mlp_encoder.model.0.weight f4 [32, 6]
00000000: ca40 eeb9 e327 3d3a 06d2 5239 268d 3cb9
00000010: 119a 013e 459c 3539 7080 3d39 95ab 2bb9
00000020: fc05 3ab9 3462 13b9 903a 1038 8e4b b9b8
00000030: 5143 99b8 9723 b838 4296 e2b7 62b1 0239
00000040: 5d13 1738 a91f 8639 37a7 f138 c7bc 12b9
00000050: 30ba 3439 c66a 8339 858e 92b8 1251 a338
00000060: b350 9f39 776a cfbd add1 8dbe 62ad 003d
00000070: cedc 3dbe e674 70bd f3dd 8039 6855 21b9
00000080: fe97 09b8 617d 1839 2bd8 6938 314c 1bb8
00000090: f486 74b9 8142 06b8 cc6b bbb8 f197 a8b8
000000a0: eef3 51b8 dc57 cb37 b2fc 15b8 7960 87b9
000000b0: 1291 1437 010d cc38 1ba6 3139 b6c6 1839
000000c0: 7b1f 9cb8 e7a5 02b8 371a db37 67c2 e1b8
000000d0: 24d0 9239 196f f838 f219 03b9 89c4 f037
000000e0: 8fb5 70b7 e218 c839 76b3 d238 03b7 7838
000000f0: 317a fab7 f32f 34b9 ec8a ceb9 4ea4 8938
00000100: bf5c dd38 2272 3d39 d1b8 df38 4ad4 6739
00000110: 6192 9eb8 84dc 13b9 e925 8138 c910 feb7
00000120: 1636 a738 4408 ce38 18d5 c138 2d72 4439
00000130: c452 69b6 6604 4039 d97a 24b8 45e0 b6b8
00000140: fab3 3fb7 8009 6e39 25e1 27b9 f2e2 9238
00000150: dbd3 14b9 bcdf 8038 e977 34b8 7737 a7b8
00000160: e7b3 21b9 c764 d4b8 fcae b8b6 49aa 82b8
00000170: 0af7 2f39 c048 ecb7 182f 91b8 0148 3239
00000180: 219c eab7 21a2 32b9 3957 ab38 6d89 2db8
00000190: 4f9f 27b8 f237 81b9 d398 f538 cfe9 1239
000001a0: cc34 96b8 51fa 64b9 8683 2339 3ded f038
000001b0: cb83 85b8 3cb2 8239 037c 8c39 4809 0639
000001c0: 4ffa 3139 8e9c 1638 fbce 57b8 eaab df38
000001d0: 9bbe 30b8 4718 b435 b27e 2cba 704f 5f38
000001e0: 3023 0339 eed1 2b39 9cb5 d5b7 e242 4138
000001f0: 46a0 41b5 100a 41b8 964b 8138 05ea 08b9
00000200: e952 5db9 8f04 d138 6477 2fb9 4143 65b8
00000210: af30 2838 48ff 4b38 d18d 6c37 4b06 2c38
00000220: cdf2 0cb9 f84d 8137 f61c 00b9 51a0 1fb9
00000230: 3d75 2db9 5922 ec38 9b33 dfb8 c212 e139
00000240: bcb0 93b8 9daf 74b6 895d 0339 c788 ce38
00000250: 0d71 cf38 2275 e1b8 dc64 ad3b b054 4d3e
00000260: 7281 bd3a e4ed 8236 cda7 bf3e f9f1 b439
00000270: d6c8 9038 3fca 6ab7 32f5 7837 886d b3b7
00000280: 9847 af38 8c62 cd37 5c53 04b9 732e 74b8
00000290: 905b 91b9 fb33 cbb8 37bb 3739 61f9 1638
000002a0: f981 3fb8 eec3 51b6 6c99 c834 8db0 13b9
000002b0: bb0c 5db8 ecc5 aab9 3a7a 9438 8a35 8db8
000002c0: 9c21 7bb9 19db a0b8 c58a 0237 90ec aab6
000002d0: 4630 0138 2302 9b37 6a09 e438 3a58 1d38
000002e0: 3e7d 22b9 786d 01b8 1fa9 a83b df39 0539
000002f0: c036 e7be 3a33 e53c 3a98 c938 da8a 31bf
-0.0004544317 0.00072157214 0.000201054 -0.00017981659 0.12656428 0.0001731972 0.00018072291 -0.0001637175
-0.00017740572 -0.00014055596 3.4386816e-05 -8.8355606e-05 -7.308147e-05 8.780433e-05 -2.7011269e-05 0.00012463846
3.601924e-05 0.0002558206 0.00011522922 -0.0001399397 0.00017235498 0.0002506582 -6.988369e-05 7.787546e-05
0.0003038697 -0.101277284 -0.27699032 0.03141535 -0.18541262 -0.058705233 0.00024579428 -0.00015385973
-3.28049e-05 0.00014542557 5.575285e-05 -3.702584e-05 -0.00023319927 -3.2010026e-05 -8.9369336e-05 -8.0391656e-05
-5.005666e-05 2.4240398e-05 -3.575971e-05 -0.00025821084 8.855264e-06 9.7299e-05 0.00016941915 0.00014569875
-7.444523e-05 -3.1148924e-05 2.6119042e-05 -0.00010765046 0.00028002367 0.00011846255 -0.00012502799 2.8701748e-05
-1.4347387e-05 0.00038165512 0.000100470075 5.929825e-05 -2.9859222e-05 -0.00017184 -0.00039394887 6.563273e-05
0.000105553765 0.00018066962 0.000106678934 0.0002210896 -7.561292e-05 -0.00014101161 6.158261e-05 -3.0286976e-05
7.973255e-05 9.824385e-05 9.242649e-05 0.0001873455 -3.4767882e-06 0.00018312185 -3.9215058e-05 -8.72021e-05
-1.1426391e-05 0.00022700988 -0.00016010234 7.0040944e-05 -0.00014193302 6.1451894e-05 -4.302702e-05 -7.973512e-05
-0.00015421175 -0.00010127719 -5.503998e-06 -6.230601e-05 0.0001678133 -2.816727e-05 -6.922911e-05 0.00017002226
-2.7967677e-05 -0.000170358 8.170162e-05 -4.1374402e-05 -3.996427e-05 -0.0002464648 0.00011710976 0.00014010746
-7.1623916e-05 -0.00021837025 0.00015593888 0.00011488281 -6.3664826e-05 0.00024928327 0.00026795277 0.00012782693
0.00016973283 3.590859e-05 -5.145276e-05 0.0001066549 -4.2139185e-05 1.3418111e-06 -0.00065801584 5.3241325e-05
0.00012506242 0.00016386036 -2.5476147e-05 4.6077075e-05 -7.213133e-07 -4.6024157e-05 6.165278e-05 -0.0001305715
-0.00021107089 9.966746e-05 -0.00016733777 -5.466049e-05 4.009966e-05 4.863672e-05 1.4099715e-05 4.1013856e-05
-0.00013441891 1.5414305e-05 -0.0001221782 -0.00015223144 -0.0001654224 0.00011259755 -0.00010643081 0.0004292932
-7.0424256e-05 -3.6461054e-06 0.00012527978 9.848322e-05 9.8915865e-05 -0.00010750654 0.0052915644 0.20051837
0.0014458133 3.901996e-06 0.3743271 0.0003451256 6.903864e-05 -1.3994576e-05 1.4839041e-05 -2.1389467e-05
8.357986e-05 2.4483794e-05 -0.00012619555 -5.8217393e-05 -0.00027724775 -9.6894764e-05 0.00017521983 3.599504e-05
-4.5658995e-05 -3.1257473e-06 3.7364532e-07 -0.00014084783 -5.2702362e-05 -0.0003257239 7.0799564e-05 -6.733376e-05
-0.00023949746 -7.670205e-05 7.780914e-06 -5.0939343e-06 3.0800955e-05 1.8478435e-05 0.00010873641 3.7513884e-05
-0.0001549618 -3.0857947e-05 0.005147114 0.00012705427 -0.45158958 0.027978528 9.612781e-05 -0.69352496

mlp_encoder.model.0.bias f4 [32]
00000000: 0e56 ea37 beee 9cb8 fa7a 62b9 da0e 93b8
00000010: 94cc 19b9 627a 2db8 88f7 dab8 e0c0 b6b8
00000020: c85a 8838 5f06 7fb8 3b4a cc38 bdc5 3ab9
00000030: a365 4039 b0b3 1fb9 ba38 7838 57aa fcb8
00000040: d56f 8f38 187d c838 71aa 1fb8 5aae 17b9
00000050: 0961 1038 40c4 b838 36ca 85b8 d104 52b8
00000060: 615f bab6 c828 e4b7 451c 4938 7c69 1f39
00000070: f6d8 af38 dc87 5bb8 2340 a1b7 baf5 eb38
2.7935046e-05 -7.483129e-05 -0.00021598852 -7.0122725e-05 -0.00014667428 -4.1360392e-05 -0.00010441156 -8.714362e-05
6.501895e-05 -6.080267e-05 9.7413045e-05 -0.00017812006 0.0001834841 -0.0001523036 5.918064e-05 -0.00012048025
6.839602e-05 9.560044e-05 -3.806729e-05 -0.00014465433 3.4422646e-05 8.810358e-05 -6.379599e-05 -5.0072387e-05
-5.5543355e-06 -2.7198708e-05 4.7948462e-05 0.00015202718 8.3850624e-05 -5.2340198e-05 -1.9222562e-05 0.00011251443

mlp_encoder.model.3.weight f4 [3, 32]
00000000: 7039 69be fe38 c037 37b3 8438 651d a338
00000010: 00bf 9a39 e36b bcb8 89b1 dcb7 9abe dfb8
00000020: 604e c9b8 d8ef 6ab9 0c0e af38 30cc bab8
00000030: 9c12 c736 ab11 f9b7 4e1e bab8 5998 1a38
00000040: 4b03 e4b8 7714 c938 d21d 6138 c803 3938
00000050: 0c7c e237 dd9b f637 cfdd 4bb7 02fe 2239
00000060: 5127 9038 ecc4 1bbf 9ff0 e538 a9e2 85b8
00000070: dd66 99b7 c7a1 e1b8 ae7d 9c36 2e75 73bd
00000080: df8e cbb7 0124 c1b8 055e 5038 ff4c 68b8
00000090: 2b96 db3e d391 05b9 e9b9 04b8 922f 1539
000000a0: 0a61 d6b8 5026 dfb7 9412 b5b6 8a2c 9c38
000000b0: d629 9bb8 2b46 8a3d bd51 54b8 1804 09b9
000000c0: d457 14b7 af4b b837 902d f537 c73a 17ba
000000d0: ab35 61b8 1a66 be38 3094 01b5 e10b 9eb8
000000e0: 7802 dcb7 be93 61bf 9598 60b7 08db 1238
000000f0: 14d3 c638 a19e 1237 a0ea c5b7 f37b 6bb9
00000100: e64a 4bb7 3854 7138 165e d4b8 eefb 8cb9
00000110: 8c21 ea3e 5b5f 0438 4ee9 de37 27e2 7838
00000120: 7fc2 78b8 7eff b3b8 a824 09b9 bade 43b9
00000130: cc43 2638 ca03 0139 257a 1db9 643a 46b7
00000140: df29 8bb8 bdc4 0838 e6ff fd38 4a3b 01b9
00000150: 7572 30b7 1118 6d39 280a d2b7 d08d e638
00000160: 73e2 f638 7350 9f39 119e 3039 43ba 60b8
00000170: 7a0b 5438 d8fd 7ab9 a365 15b9 69aa 803f
-0.22775817 2.2914723e-05 6.327632e-05 7.777921e-05 0.00029515475 -8.984634e-05 -2.6308715e-05 -0.00010668971
-9.599025e-05 -0.00022405328 8.347267e-05 -8.907204e-05 5.9328286e-06 -2.969134e-05 -8.874816e-05 3.6858346e-05
-0.000108725006 9.588239e-05 5.3671953e-05 4.411096e-05 2.6999063e-05 2.9398065e-05 -1.2151387e-05 0.00015544149
6.873778e-05 -0.60847354 0.0001096439 -6.384153e-05 -1.828692e-05 -0.000107589694 4.6637933e-06 -0.059437923
-2.4266015e-05 -9.2096634e-05 4.9678627e-05 -5.538482e-05 0.42888007 -0.00012738192 -3.1644395e-05 0.00014227469
-0.0001022239 -2.6601512e-05 -5.396383e-06 7.446956e-05 -7.3987685e-05 0.06751665 -5.0620863e-05 -0.00013066863
-8.8419365e-06 2.1969752e-05 2.9227493e-05 -0.00057689514 -5.3694162e-05 9.078924e-05 -4.8271886e-07 -7.53624e-05
-2.6227193e-05 -0.8811606 -1.3386966e-05 3.50131e-05 9.480692e-05 8.739212e-06 -2.3593486e-05 -0.00022457521
-1.21171815e-05 5.7537312e-05 -0.000101264726 -0.00026890583 0.4572872 3.156006e-05 2.6573103e-05 5.933843e-05
-5.9308946e-05 -8.582974e-05 -0.00013078994 -0.00018679621 3.9640625e-05 0.0001230381 -0.00015018189 -1.1815315e-05
-6.6358356e-05 3.2608154e-05 0.00012111645 -0.00012324486 -1.0517067e-05 0.00022611047 -2.503868e-05 0.00010993669
0.000117723735 0.00030386783 0.00016843552 -5.357923e-05 5.0555427e-05 -0.00023936422 -0.0001424761 1.0052005

mlp_encoder.model.3.bias f4 [3]
00000000: 453a 123f f827 99be ef4b 823b
0.5712016 -0.29913306 0.003976337
