online_adapt_sim/learned_models/meta_mlpt_h2_bl5/model_param.pth (torch, 3639 bytes, 4 tensors)

mlp_encoder.model.0.weight f4 [32, 9]
0	0xb9130ac6	-0.00014023026
1	0x35a73ad4	1.2459591e-06
2	0x38b50522	8.6317086e-05
3	0x3859bb40	5.191122e-05
4	0xb91f5dcf	-0.00015198368
5	0xb8fd69e8	-0.00012083707
6	0x39291e5e	0.00016128409
7	0x392b6bb6	0.00016347956
8	0x382eaa06	4.164318e-05
9	0x388d6b4b	6.743389e-05
10	0x391119e5	0.00013837924
11	0x3886258a	6.39661e-05
12	0x393582d7	0.00017310247
13	0xb8a5f23f	-7.912935e-05
14	0x395f2101	0.00021279232
15	0xb9441f28	-0.00018703623
16	0x390aa1dd	0.00013221004
17	0x395ef0ad	0.00021261229
18	0x393eb3ea	0.00018186835
19	0xb8d582e4	-0.00010181012
20	0x37fe960d	3.0349032e-05
21	0xb925ef70	-0.00015824824
22	0x394cb18f	0.00019521102
23	0xb8f197a3	-0.0001152002
24	0x39303ac7	0.00016806564
25	0x390c9d2b	0.0001340999
26	0xb92043ea	-0.00015284089
27	0x3942f68a	0.00018593125
28	0x3927cde2	0.00016003058
29	0xb87f0242	-6.079884e-05
30	0x392ad391	0.00016291278
31	0x3831614b	4.22907e-05
32	0xb81b841b	-3.7077913e-05
33	0x392fe59f	0.00016774841
34	0x38db6dfa	0.000104632185
35	0xb886067c	-6.390826e-05
36	0xb85c41cd	-5.251337e-05
37	0xb904aa98	-0.00012652052
38	0x3980bc49	0.00024554346
39	0xb6a14d8d	-4.807202e-06
40	0xb9084678	-0.00012996222
41	0xb8e3b1b5	-0.00010857304
42	0xb8532bb3	-5.034702e-05
43	0x396b2d79	0.00022428286
44	0x38b37e40	8.558901e-05
45	0x398d676a	0.00026970665
46	0xb85f47b9	-5.323414e-05
47	0xb91f60db	-0.00015199503
48	0x381b3722	3.7006226e-05
49	0x3727063b	9.955426e-06
50	0x38b4bef4	8.618637e-05
51	0xb7e8efa2	-2.7768143e-05
52	0x37102585	8.5918045e-06
53	0xb92cd6c3	-0.00016483203
54	0xb8852227	-6.3482956e-05
55	0x390735aa	0.00012894595
56	0xb8b917d6	-8.825927e-05
57	0x39232095	0.00015557029
58	0x397567aa	0.00023403639
59	0xb92a5b1a	-0.00016246401
60	0xb95cd8fd	-0.0002106167
61	0xb873a161	-5.808601e-05
62	0xb88f17e4	-6.823221e-05
63	0xb7fbc3df	-3.0012741e-05
64	0xb8a479d3	-7.842821e-05
65	0x3938abbc	0.00017611583
66	0xb993a976	-0.00028164283
67	0x38abe44a	8.1964376e-05
68	0xb8aed6a3	-8.336946e-05
69	0x38c8338d	9.546345e-05
70	0xb750753a	-1.242506e-05
71	0xb819e872	-3.6694524e-05
72	0xb88b2248	-6.634422e-05
73	0x393d86da	0.0001807468
74	0x39037369	0.00012536127
75	0xb8ca3334	-9.641648e-05
76	0xb7c9495d	-2.399523e-05
77	0x371f1681	9.482378e-06
78	0x39005db0	0.00012241933
79	0xb9954245	-0.0002846887
80	0xb916b092	-0.00014370892
81	0xb5da6e58	-1.627438e-06
82	0x37c3475e	2.3279044e-05
83	0xb8163421	-3.5811336e-05
84	0xb99f69d4	-0.0003040569
85	0x39c9a785	0.0003846252
86	0xb82d0579	-4.125151e-05
87	0xb97ad620	-0.00023921626
88	0x392b34d2	0.00016327508
89	0x393e2192	0.00018132318
90	0x3853b6c4	5.0476534e-05
91	0x38433a82	4.6546113e-05
92	0xb8606fa8	-5.350975e-05
93	0xb99be1e7	-0.00029732214
94	0xb86d007a	-5.6505647e-05
95	0xb882b1d2	-6.232005e-05
96	0x386cc6e3	5.6452012e-05
97	0xb85a912f	-5.2110463e-05
98	0x382d2bc9	4.1287192e-05
99	0x37f080af	2.8670152e-05
100	0x3953c7b7	0.00020196928
101	0x38e7dc6c	0.00011055995
102	0x390e99d4	0.00013599481
103	0x36474f25	2.969938e-06
104	0xb760490f	-1.3368451e-05
105	0xb8368b71	-4.3522046e-05
106	0xb88c00be	-6.6758585e-05
107	0xb9434d37	-0.00018625414
108	0x393ed6d1	0.00018199837
109	0xb850752d	-4.9700193e-05
110	0xb91973f2	-0.0001463441
111	0x37223181	9.6674785e-06
112	0x37859afd	1.5927008e-05
113	0xb9293b14	-0.00016139104
114	0xb7591d69	-1.29410555e-05
115	0x37ecb5ed	2.8218108e-05
116	0x393fde78	0.00018298056
117	0xb996b1bf	-0.0002874266
118	0x390aedc3	0.00013249279
119	0xb91b25ad	-0.00014795987
120	0xb8e559bd	-0.00010936286
121	0x390aa7be	0.00013223194
122	0x3955d165	0.00020391268
123	0x3797f7f7	1.811607e-05
124	0x394dc2f6	0.00019622952
125	0xb9425001	-0.00018531086
126	0xb7940535	-1.76454e-05
127	0xb884e1bd	-6.3362975e-05
128	0xb8218c16	-3.8515856e-05
129	0xb9198ce1	-0.00014643699
130	0x3921c41e	0.00015427216
131	0xb78476c8	-1.5790938e-05
132	0x399899d5	0.00029106313
133	0x3996e50e	0.00028780889
134	0xb85c6436	-5.2545416e-05
135	0xb88e00bb	-6.771224e-05
136	0xb84d85b0	-4.9000315e-05
137	0x398268de	0.00024873664
138	0xb8ee006d	-0.00011348804
139	0xb86a3956	-5.5843346e-05
140	0xb905c695	-0.00012757846
141	0x38c9ad54	9.616712e-05
142	0x39d7af93	0.0004113881
143	0xb8e31e57	-0.00010829855
144	0xb80d977f	-3.375811e-05
145	0x39b4d814	0.00034493266
146	0xb90d2607	-0.00013460974
147	0xb960b2b6	-0.0002142888
148	0xb7c567dc	-2.3532593e-05
149	0x361fe5bf	2.3826576e-06
150	0x38d40ee9	0.00010111725
151	0xb7948df6	-1.770908e-05
152	0x38e0395f	0.000106918385
153	0x38b1c616	8.476914e-05
154	0x39475054	0.00019008043
155	0xb7ec7aea	-2.8190629e-05
156	0x3981e460	0.0002477495
157	0xb836953f	-4.3531178e-05
158	0xb9288d2a	-0.00016074316
159	0xb93fc9bb	-0.0001829033
160	0xb8f337bb	-0.000115975236
161	0xb8d307ed	-0.0001006274
162	0xb92d72d7	-0.00016541347
163	0xb9395311	-0.0001767392
164	0xb7af02ea	-2.0862983e-05
165	0x38042a3c	3.1510586e-05
166	0xb921c86c	-0.0001542882
167	0xb9992cd0	-0.00029215822
168	0x3732fe8a	1.0668891e-05
169	0xb8b5a17e	-8.660833e-05
170	0xb90cf811	-0.00013443852
171	0xb80e145f	-3.387441e-05
172	0xb6a0c8ba	-4.7917392e-06
173	0x3876dc38	5.8856065e-05
174	0xb81d86c2	-3.755722e-05
175	0x37cbf221	2.4312236e-05
176	0x38854787	6.355257e-05
177	0x37a32110	1.944651e-05
178	0x38a5544c	7.8835146e-05
179	0xb89107b1	-6.9155714e-05
180	0xb798b1a3	-1.820253e-05
181	0xb9031475	-0.00012500754
182	0xb8ee4984	-0.00011362418
183	0x391cbdd0	0.0001494803
184	0x390d14f3	0.00013454612
185	0x3841fcf4	4.6250367e-05
186	0x3842ceb1	4.64457e-05
187	0xb8f15e05	-0.00011509288
188	0xb9dfdcb0	-0.000426983
189	0xb92400b1	-0.00015640516
190	0xb9568075	-0.00020456484
191	0xb6efe89e	-7.1498353e-06
192	0x38c3f1eb	9.343385e-05
193	0x381408af	3.5294037e-05
194	0x38abcb0f	8.191738e-05
195	0xb82d4fd0	-4.1320745e-05
196	0xb7bf720a	-2.2822078e-05
197	0xb95611d8	-0.00020415278
198	0xb9272d0d	-0.00015943144
199	0x37fdbaca	3.024693e-05
200	0xb900c46a	-0.00012280201
201	0xb8b05ed6	-8.4099986e-05
202	0xb74c86ea	-1.219076e-05
203	0xb917f48c	-0.00014491583
204	0x385fdbbc	5.3371987e-05
205	0x3952c18f	0.00020099267
206	0xb81f25c1	-3.7943715e-05
207	0xb7265be2	-9.915764e-06
208	0xb9091443	-0.00013072886
209	0x3862e642	5.4097043e-05
210	0xb88575e3	-6.363892e-05
211	0x385d5f0d	5.277903e-05
212	0x350a2166	5.145761e-07
213	0xb94bd760	-0.00019439822
214	0x366a39bf	3.490233e-06
215	0xb93600cf	-0.00017357174
216	0xb8f8b8cd	-0.00011859983
217	0x378bb361	1.6653621e-05
218	0x39a6011b	0.0003166281
219	0xb9bc5ddc	-0.00035928085
220	0x394d4f68	0.00019579905
221	0x376c2b89	1.40768325e-05
222	0xb9319fef	-0.00016939615
223	0x38d403a6	0.00010109627
224	0x37b94bea	2.2089069e-05
225	0xb8c0cd2f	-9.193492e-05
226	0x39200e83	0.00015264195
227	0xb88f8894	-6.844211e-05
228	0xb900c4bd	-0.00012280322
229	0xb89e4d59	-7.548434e-05
230	0xb8c945f0	-9.597454e-05
231	0xb81a81d1	-3.6837362e-05
232	0x386064df	5.3499705e-05
233	0x388871a2	6.506151e-05
234	0x37863d0b	1.600247e-05
235	0xb7d69c26	-2.55835e-05
236	0x38ee971c	0.00011376871
237	0x3a068985	0.00051321863
238	0x374203dc	1.15642e-05
239	0x38d15e81	9.983499e-05
240	0x37dd9fc1	2.6419644e-05
241	0xb8ed4546	-0.00011313944
242	0x38edc756	0.0001133817
243	0x377d0ef4	1.5083457e-05
244	0x39ab620d	0.00032688715
245	0xb8e7ca95	-0.00011052672
246	0xb78bc88d	-1.666348e-05
247	0xb9208d1d	-0.00015311358
248	0xb84dd6fc	-4.907603e-05
249	0x39066b92	0.00012819309
250	0x3984c6e4	0.00025325187
251	0xb9819ada	-0.0002472017
252	0x38b15bce	8.457118e-05
253	0xb9ffa140	-0.0004875753
254	0x3939d503	0.00017722328
255	0xb9090941	-0.00013068785

mlp_encoder.model.0.bias f4 [32]
0	0x39d3b83a	0.00040382316
1	0x39dab856	0.0004171754
2	0x38188a44	3.6368394e-05
3	0xb91b6b40	-0.00014821906
4	0x39060a7d	0.00012783143
5	0xb8763112	-5.869667e-05
6	0x376ae8d9	1.4001701e-05
7	0x39336895	0.0001710973
8	0xb889f16c	-6.5776374e-05
9	0x39332cd1	0.00017087466
10	0xb99e7653	-0.00030224267
11	0xb92f6aa2	-0.00016729024
12	0xb880a107	-6.133509e-05
13	0x3611d32a	2.1729597e-06
14	0x392ea310	0.00016654679
15	0xb903153c	-0.00012501044
16	0xb9cee514	-0.00039462058
17	0x38932dff	7.018074e-05
18	0x38d05d21	9.9355595e-05
19	0xb9397892	-0.00017687891
20	0x39413a6d	0.0001842768
21	0x38c22631	9.2577546e-05
22	0x388dacc0	6.755581e-05
23	0xb84c6570	-4.873186e-05
24	0xb8a09f0d	-7.65902e-05
25	0xb901b798	-0.00012370793
26	0xb901bc23	-0.00012372485
27	0x38e96f3f	0.00011131027
28	0xb9468514	-0.00018932327
29	0xb8acb269	-8.2348306e-05
30	0x38e045ac	0.0001069413
31	0xb8e0a76d	-0.00010712338

mlp_encoder.model.3.weight f4 [3, 32]
0	0x392e619f	0.000166303
1	0x38dca739	0.00010521565
2	0x3944ff17	0.00018787045
3	0xb88e83ed	-6.795661e-05
4	0xb8245e95	-3.9188733e-05
5	0xb80f012a	-3.409494e-05
6	0x38f96177	0.000118913995
7	0xb9027351	-0.00012440725
8	0xb94c76b8	-0.00019499182
9	0x38196d9a	3.6580117e-05
10	0xb8861f11	-6.3954045e-05
11	0xb9433af8	-0.00018618617
12	0xb939ad9b	-0.00017707648
13	0x387904f9	5.9370857e-05
14	0xb7f00443	-2.8612214e-05
15	0xb90c5f6b	-0.00013386986
16	0xb880168e	-6.107717e-05
17	0x37e26da1	2.699235e-05
18	0xb4a9bb40	-3.1614945e-07
19	0xb99f8cb0	-0.00030431664
20	0x37aa99f8	2.0337277e-05
21	0x38af6da5	8.365073e-05
22	0xb7825651	-1.5537402e-05
23	0x39a85cc9	0.00032112587
24	0xb756ab40	-1.2795266e-05
25	0xb8d35835	-0.00010077694
26	0xb908f191	-0.00013059961
27	0x38b3a3b2	8.565876e-05
28	0xb83e624f	-4.5391087e-05
29	0xb71b664b	-9.262537e-06
30	0xb83a6c0c	-4.4446482e-05
31	0x38aa2ed6	8.1149556e-05
32	0x38ff34d2	0.00012169186
33	0xb829999a	-4.0435792e-05
34	0x39364ca4	0.00017385423
35	0x39383465	0.00017567126
36	0x36e8984b	6.931868e-06
37	0xb93da0bc	-0.00018084323
38	0x38de5883	0.000106022715
39	0xb6ddbdf5	-6.608427e-06
40	0x39154b1c	0.00014237728
41	0xb9358dbf	-0.0001731431
42	0xb589925b	-1.024989e-06
43	0xb81850db	-3.6314927e-05
44	0xb7b7e614	-2.1922438e-05
45	0x3994e6b5	0.0002840065
46	0x381eecb0	3.7890568e-05
47	0xb918622c	-0.00014532421
48	0xb91163c8	-0.00013865449
49	0x38f7a654	0.00011808859
50	0x388d264f	6.7305395e-05
51	0x388149cd	6.164946e-05
52	0xb894a7bd	-7.0884336e-05
53	0xb88828e7	-6.492604e-05
54	0xb78a34dd	-1.6475498e-05
55	0x3931a84c	0.00016942731
56	0x39bf21a4	0.00036455423
57	0xb6618af8	-3.3608503e-06
58	0x376a58ca	1.396816e-05
59	0xb776ece9	-1.4717903e-05
60	0x38a955bc	8.074517e-05
61	0x393f513b	0.0001824544
62	0xb92f4701	-0.00016715752
63	0x390f882b	0.00013688269
64	0x38aea301	8.3273284e-05
65	0x38965a7f	7.1694136e-05
66	0xb871cef8	-5.7651632e-05
67	0x37e0b493	2.6786967e-05
68	0x392545c8	0.00015761622
69	0xb77f108d	-1.5203038e-05
70	0x393bec10	0.0001792165
71	0x39218b96	0.00015406156
72	0x38faa511	0.00011951675
73	0xb81b1653	-3.697567e-05
74	0xb9876b59	-0.00025829187
75	0xb8df028d	-0.00010633944
76	0xb951c22d	-0.0002000413
77	0x39211af7	0.00015364202
78	0x383b0e2f	4.4597484e-05
79	0x38d377a3	0.00010083548
80	0xb94bf3d0	-0.00019450416
81	0x38ced2ce	9.862111e-05
82	0xb94bb37b	-0.0001942645
83	0xb7a5957d	-1.9739144e-05
84	0xb9038ea1	-0.00012546267
85	0x38a912f6	8.06208e-05
86	0xb9cb4e43	-0.00038777487
87	0x39f86e25	0.0004738431
88	0xb7e142f4	-2.6853268e-05
89	0x37e20825	2.6945092e-05
90	0x3830647a	4.2055246e-05
91	0xb90220bc	-0.0001240996
92	0xb9196222	-0.00014627774
93	0xb91d0c81	-0.00014977345
94	0xb8b4b1da	-8.616196e-05
95	0xb84c7327	-4.8744634e-05

mlp_encoder.model.3.bias f4 [3]
0	0x38fcbec0	0.00012051826
1	0xbf37b7cf	-0.71764845
2	0x36c41486	5.8436444e-06
