online_adapt_sim/learned_models/meta_mlpt_h4_bl10/model_param.pth (torch, 4407 bytes, 4 tensors)

mlp_encoder.model.0.weight f4 [32, 15]
0	0xb68981e3	-4.098039e-06
1	0x380f472e	3.4160148e-05
2	0x38180da2	3.625232e-05
3	0xb8c26519	-9.269472e-05
4	0x36b7ed6e	5.4814655e-06
5	0x391c2d05	0.0001489409
6	0xb855bac6	-5.0957104e-05
7	0xb6b23c15	-5.311808e-06
8	0x35d4b925	1.5849115e-06
9	0xb9130048	-0.00014019117
10	0x389ab212	7.3764604e-05
11	0x38308f61	4.2095202e-05
12	0xb8c14caa	-9.217237e-05
13	0x348ff13d	2.681135e-07
14	0xb8ea155c	-0.00011161968
15	0x3e896c3c	0.2684039
16	0xb8d7eab6	-0.00010295717
17	0x3873f166	5.8160535e-05
18	0x3d804bb3	0.062644385
19	0xb77292ac	-1.4458474e-05
20	0x3927efc9	0.00016015688
21	0x3888dd5c	6.526217e-05
22	0xb85812cd	-5.1515923e-05
23	0x3887d03c	6.476088e-05
24	0x39a8f4e0	0.00032225903
25	0x38dabe5a	0.00010430506
26	0x38f76987	0.00011797534
27	0x38315b92	4.228537e-05
28	0xb876f94f	-5.8883157e-05
29	0xb7980013	-1.8119847e-05
30	0x35a6df5f	1.2432973e-06
31	0xb7f0b074	-2.8692397e-05
32	0x3804b9a1	3.1644133e-05
33	0xb763dc89	-1.3581602e-05
34	0x370ffb63	8.581995e-06
35	0xb7dc1d03	-2.6239553e-05
36	0xb85ca7d2	-5.2608382e-05
37	0x393162df	0.00016916868
38	0x38f2934e	0.00011566897
39	0x38905a71	6.883301e-05
40	0x388d7cb1	6.7466295e-05
41	0xb8873dde	-6.448825e-05
42	0xb820cf63	-3.8340117e-05
43	0xb8118a28	-3.4699362e-05
44	0xb8fc666e	-0.000120353754
45	0x37ca8aca	2.4144905e-05
46	0xb8bcc6f0	-9.0015936e-05
47	0xb856306f	-5.1066683e-05
48	0x38cc1120	9.730668e-05
49	0x38dc9ff4	0.00010520211
50	0x38d17bc0	9.988947e-05
51	0xb52d1834	-6.448274e-07
52	0xb82d7e4d	-4.136404e-05
53	0x38a080e2	7.653401e-05
54	0xb868e8c4	-5.552989e-05
55	0xb841a929	-4.617233e-05
56	0x36b14469	5.282975e-06
57	0xb83684d6	-4.3515895e-05
58	0x389cbbc3	7.473633e-05
59	0x3686830b	4.0087666e-06
60	0x38a0c7c0	7.666601e-05
61	0x38f4d5d3	0.000116746545
62	0x38821446	6.202659e-05
63	0xb84997cd	-4.806351e-05
64	0xb8b3cb23	-8.573222e-05
65	0x376780ea	1.3798688e-05
66	0x38cd8f79	9.8018856e-05
67	0x38e96fb9	0.00011131116
68	0xb8ac73d9	-8.2231774e-05
69	0x37e7100e	2.7544822e-05
70	0x38c6a776	9.472568e-05
71	0xb917d66a	-0.00014480358
72	0x37e896ec	2.7726834e-05
73	0x35035ba4	4.893466e-07
74	0x388e3fbf	6.782961e-05
75	0xb8911cdc	-6.919514e-05
76	0xb8abb35d	-8.1873244e-05
77	0x38a284ab	7.749473e-05
78	0xb9a84f20	-0.0003210241
79	0x389ad407	7.3827854e-05
80	0x37d00f13	2.4802552e-05
81	0x3690e318	4.3179716e-06
82	0xb90d11cb	-0.00013453436
83	0x38439977	4.663455e-05
84	0xb8b3a8b5	-8.566809e-05
85	0xb910cae1	-0.00013808488
86	0x372736b7	9.966715e-06
87	0xb9654ca6	-0.00021867696
88	0xb899f322	-7.3408955e-05
89	0x3871eaa6	5.767741e-05
90	0x393dffd1	0.00018119744
91	0xb8aa2a33	-8.114092e-05
92	0xb817203a	-3.603122e-05
93	0xb85bfdff	-5.245022e-05
94	0xb7012fa1	-7.700089e-06
95	0x39356a79	0.0001730117
96	0x37896633	1.6379263e-05
97	0x3889846c	6.5573346e-05
98	0x380ab4ac	3.3070028e-05
99	0xb6fe22f4	-7.573859e-06
100	0xb92ee6ff	-0.00016679986
101	0x38d0c8bd	9.955603e-05
102	0x38cbf35a	9.725122e-05
103	0x380fcae3	3.428281e-05
104	0x380b4c5f	3.321131e-05
105	0x39273a6b	0.00015948123
106	0x3838cac1	4.4057848e-05
107	0xb89a5c94	-7.360536e-05
108	0x38f6c213	0.00011766343
109	0xb634c1db	-2.693493e-06
110	0x39786a69	0.00023690764
111	0xb7460be5	-1.1804489e-05
112	0x3865c0d7	5.477745e-05
113	0x37664c62	1.3726853e-05
114	0xb7934b0d	-1.7558714e-05
115	0xb8f8d2d0	-0.000118648284
116	0xb8533a5d	-5.0360675e-05
117	0xb8cbf56f	-9.72551e-05
118	0x39316d63	0.00016920785
119	0x3883f56c	6.29228e-05
120	0xb7d6e0bc	-2.5615438e-05
121	0x3983c94e	0.0002513625
122	0xb99fe79b	-0.00030499403
123	0xb91b76b9	-0.0001482618
124	0x3e38e6fa	0.1805686
125	0x38d1c93f	0.000100033816
126	0x3817fecd	3.6238507e-05
127	0x3d845122	0.06460787
128	0xb890c2f8	-6.902771e-05
129	0x383487c3	4.3041782e-05
130	0x3c4b166a	0.012395481
131	0xb92dd4aa	-0.00016577789
132	0xb9365720	-0.00017389329
133	0x3e896e51	0.26841977
134	0x3866ad3a	5.4997603e-05
135	0xb87c0871	-6.0089344e-05
136	0x386ae00b	5.5998604e-05
137	0x389d9642	7.514331e-05
138	0x38a6ebf6	7.959448e-05
139	0xb9211331	-0.00015361306
140	0x38582249	5.1530344e-05
141	0xb7f0ad5e	-2.869096e-05
142	0xb90c1f6d	-0.00013363147
143	0x37e37768	2.7116112e-05
144	0xb8b0604e	-8.410272e-05
145	0x37b6a370	2.1772197e-05
146	0x385d3c8a	5.2746887e-05
147	0xb888474c	-6.4982654e-05
148	0xb932339c	-0.00016994629
149	0xb90bc74d	-0.00013330318
150	0x3e69a408	0.22816479
151	0xb96d2277	-0.0002261492
152	0x3829a3e6	4.0445382e-05
153	0x3e856718	0.26055217
154	0xb90ab61d	-0.00013228548
155	0xb8188dbe	-3.637163e-05
156	0x3df502cc	0.11963424
157	0xb6c2b602	-5.802839e-06
158	0xb8e4f6b7	-0.000109178414
159	0xb83c0cad	-4.4834498e-05
160	0x38b489ba	8.6087224e-05
161	0xb6ea0748	-6.974591e-06
162	0xb68a0a83	-4.113944e-06
163	0xb76d42e2	-1.4141873e-05
164	0x389eb77f	7.568206e-05
165	0x37c0a306	2.2964097e-05
166	0xb8d868a7	-0.000103191756
167	0xb98850bd	-0.00026000096
168	0x3cc6abe6	0.02425189
169	0x35db8739	1.6356126e-06
170	0xb714153f	-8.826434e-06
171	0x3913767b	0.0001406315
172	0x39cd7577	0.00039188165
173	0x364d48d4	3.0589772e-06
174	0x384f26ea	4.9388887e-05
175	0xb8b1bb9e	-8.474964e-05
176	0xb988dea7	-0.0002610583
177	0xb68e94d1	-4.2492543e-06
178	0x384e030e	4.9117072e-05
179	0xb9c51576	-0.00037590758
180	0x3816aa7e	3.592157e-05
181	0x38cc0dde	9.730061e-05
182	0xb8ce298b	-9.8305834e-05
183	0xb841e298	-4.6225818e-05
184	0x38dec865	0.00010623111
185	0xb8cf8612	-9.895502e-05
186	0x360cfa5b	2.1007352e-06
187	0xb8251166	-3.935527e-05
188	0xb8b2b803	-8.521976e-05
189	0x38a3a0e7	7.802416e-05
190	0x385b3949	5.226702e-05
191	0x37d42bf6	2.529284e-05
192	0x381e8637	3.7795133e-05
193	0x37d31cff	2.5166662e-05
194	0xb87b1fc0	-5.9872633e-05
195	0xbe9ed193	-0.31019267
196	0x36709904	3.5851854e-06
197	0xb974e56f	-0.00023355124
198	0xbd936844	-0.071976215
199	0x37a9fc78	2.0263935e-05
200	0x38cb0a07	9.681662e-05
201	0xbe219faf	-0.1578357
202	0x388e2b5f	6.779166e-05
203	0xb6aa1829	-5.0692074e-06
204	0xbc7f1c6f	-0.015570744
205	0x390d5575	0.00013478643
206	0xba0ee1bf	-0.0005450509
207	0xba957a73	-0.001140429
208	0x3680d34e	3.8392964e-06
209	0x3878063e	5.913362e-05
210	0xbe0fd4ad	-0.14045973
211	0xb6b5fc2e	-5.423578e-06
212	0x3c444549	0.0119794095
213	0xbd58dcd9	-0.05294499
214	0xb8541e43	-5.0572922e-05
215	0x3c2f4d7a	0.010699624
216	0xbc584af6	-0.013201466
217	0xb9203806	-0.0001527966
218	0x3c0776b7	0.00826805
219	0xbdabbb42	-0.08385326
220	0x37e9aa28	2.7855e-05
221	0x3933978a	0.00017127223
222	0xb9b961bb	-0.00035358765
223	0xb973886d	-0.00023225108
224	0x39b6112a	0.00034726533
225	0x399aec0d	0.0002954904
226	0x37b11923	2.111175e-05
227	0xb8e3f40a	-0.00010869659
228	0x3827e8df	4.003278e-05
229	0xb87493f6	-5.8311933e-05
230	0xb8ca737a	-9.65362e-05
231	0xb92e21ad	-0.00016606478
232	0xb7f0a2c6	-2.8686027e-05
233	0xb68a665a	-4.124636e-06
234	0xb806b176	-3.2113363e-05
235	0xb9330c96	-0.00017075459
236	0x393928d3	0.00017658183
237	0x37c76e83	2.377411e-05
238	0x365a9179	3.2569208e-06
239	0x38aae6ac	8.149198e-05
240	0xb97a3feb	-0.00023865669
241	0x394d6de1	0.00019591257
242	0x38db75c5	0.0001046467
243	0xb88f5720	-6.835e-05
244	0x37b775e1	2.1870192e-05
245	0xb8d49dfd	-0.000101383754
246	0xb837ca51	-4.381902e-05
247	0xb8ef0490	-0.00011397258
248	0xb817f7ee	-3.6232108e-05
249	0xb8a6b855	-7.949831e-05
250	0x38589171	5.1633866e-05
251	0xb6246bbd	-2.4500616e-06
252	0x37e64e61	2.7454635e-05
253	0xb926d5cb	-0.00015910638
254	0xb889a41b	-6.563236e-05
255	0x388e1318	6.774644e-05

mlp_encoder.model.0.bias f4 [32]
0	0xb883b07d	-6.27944e-05
1	0xbc89ba74	-0.01681254
2	0x37d34169	2.5183619e-05
3	0x3824c6e5	3.9285882e-05
4	0x3851ca47	5.001787e-05
5	0x382648c6	3.964526e-05
6	0xb5dcbea5	-1.6446762e-06
7	0x38a34348	7.784978e-05
8	0x3776637d	1.46859065e-05
9	0x37658984	1.36814815e-05
10	0x378b6613	1.6617623e-05
11	0x3e82b2b1	0.25526956
12	0x36439a28	2.9146995e-06
13	0x388c4dc0	6.690202e-05
14	0xbe8bad65	-0.27280727
15	0xb909ddbf	-0.00013147945
16	0xb85704af	-5.1264356e-05
17	0x38ef2d13	0.00011404804
18	0x376c4b1b	1.4084183e-05
19	0x372f9895	1.0466339e-05
20	0x35501fb2	7.753216e-07
21	0x3c64bb64	0.013960693
22	0x3827c2ba	3.9997256e-05
23	0xb780802a	-1.531847e-05
24	0xb6f0de6a	-7.17845e-06
25	0x3847c6f4	4.7630587e-05
26	0x3d0ff7d5	0.03514846
27	0x377f4906	1.52161865e-05
28	0x388f7862	6.8411944e-05
29	0xb80242f2	-3.1056763e-05
30	0xb827937d	-3.9953262e-05
31	0xb75fae41	-1.3332407e-05

mlp_encoder.model.3.weight f4 [3, 32]
0	0xb7081269	-8.110518e-06
1	0xb76fef5e	-1.4301242e-05
2	0xb64aea7d	-3.0236836e-06
3	0xb83ddfe6	-4.5269633e-05
4	0xb95319fb	-0.00020132207
5	0xb7e37faf	-2.7119966e-05
6	0x3817b93a	3.617371e-05
7	0x37862c76	1.5994749e-05
8	0x3ec68334	0.38771975
9	0xb7e7d49f	-2.7636355e-05
10	0x37ca65b6	2.412764e-05
11	0x3795114f	1.7770244e-05
12	0x38fde66f	0.00012106902
13	0xb5e7fe60	-1.7284874e-06
14	0x382c076c	4.1014908e-05
15	0xb90af595	-0.00013252192
16	0x374e9b24	1.2314678e-05
17	0xb7877f99	-1.6152671e-05
18	0xb8878cb5	-6.46351e-05
19	0xb8d42116	-0.000101151105
20	0x388bf418	6.6735025e-05
21	0x393a64f5	0.00017775952
22	0xb7d9c2d4	-2.595914e-05
23	0xb9318c5a	-0.0001693232
24	0x3d3ec071	0.046570245
25	0xb6d764c7	-6.4192313e-06
26	0xb6ac1854	-5.1288316e-06
27	0xb56b3149	-8.761604e-07
28	0x3da7d016	0.08193986
29	0x370d88ea	8.436133e-06
30	0x378eb1c7	1.7010503e-05
31	0x3ef3da4c	0.47627485
32	0xb97d59a9	-0.00024161361
33	0x3eaf822f	0.3427901
34	0xb953c29f	-0.0002019503
35	0x34f59d11	4.5749087e-07
36	0xb764643d	-1.3613198e-05
37	0x36b2ac70	5.3248878e-06
38	0xb648db7e	-2.9930084e-06
39	0xb7cf5cd6	-2.4719553e-05
40	0x3d1bbcbe	0.038021795
41	0x3846f1a2	4.7431917e-05
42	0x3ece37ef	0.4027705
43	0x37c05293	2.2926635e-05
44	0xb90bc2e1	-0.00013328671
45	0xbf051961	-0.5199185
46	0xb81c6c49	-3.7294147e-05
47	0xb8d06d60	-9.9385856e-05
48	0xb70b6757	-8.309106e-06
49	0x36fb3d75	7.4875375e-06
50	0x3dd860b4	0.1056532
51	0xb790c0ba	-1.7255883e-05
52	0xb83a45be	-4.441081e-05
53	0xbe1613c6	-0.1465598
54	0x3d3d948f	0.046284255
55	0x3db1c97c	0.08681008
56	0x384b5aec	4.848365e-05
57	0xb61ab15e	-2.305103e-06
58	0x38360ce3	4.3404183e-05
59	0x36f4eb62	7.299169e-06
60	0x36d68b62	6.3939233e-06
61	0x378e751a	1.6982249e-05
62	0x362d44d0	2.5819063e-06
63	0x3b623aa5	0.0034519818
64	0xb8473235	-4.7492056e-05
65	0x39cd9f99	0.00039219556
66	0x38b90bfa	8.823718e-05
67	0xb674e6be	-3.6493143e-06
68	0x36c55501	5.8809533e-06
69	0x389a068f	7.344514e-05
70	0x36e0ebb4	6.7031597e-06
71	0x37b8554b	2.1974227e-05
72	0x386ae713	5.6005152e-05
73	0x393fc353	0.00018287943
74	0x3e63e692	0.22255924
75	0x3e825e43	0.2546254
76	0x39572584	0.00020517973
77	0xba170d86	-0.0005762208
78	0xbf1976e1	-0.5994702
79	0x39282e4d	0.00016038977
80	0x383ca553	4.4976663e-05
81	0xb7bf26bf	-2.2787017e-05
82	0xb734f9fc	-1.078704e-05
83	0x37d17766	2.497034e-05
84	0xb7dffa5c	-2.6700254e-05
85	0xb985dbd0	-0.0002553151
86	0xb64c89c4	-3.047856e-06
87	0x37a3b351	1.9514615e-05
88	0x3893bfef	7.045257e-05
89	0x38247354	3.9208055e-05
90	0x383f5da3	4.5625155e-05
91	0xb84eb79b	-4.9285223e-05
92	0xb7a8ae59	-2.0108348e-05
93	0x373619a5	1.0854016e-05
94	0x385a8040	5.2094692e-05
95	0xb88da5ed	-6.75431e-05

mlp_encoder.model.3.bias f4 [3]
0	0x37402373	1.14523455e-05
1	0xbe5fdcb0	-0.2186153
2	0x3edafcc1	0.4277096
