online_adapt_sim/learned_models/meta_mlpt_h3_bl20/model_param.pth (torch, 4023 bytes, 4 tensors)

mlp_encoder.model.0.weight f4 [32, 12]
0	0xb8bb6e12	-8.937357e-05
1	0xb8cf5232	-9.885839e-05
2	0xb794d427	-1.7741766e-05
3	0x3837386b	4.3683143e-05
4	0x398ef0b9	0.00027263703
5	0x38b054fc	8.4081636e-05
6	0x3882f898	6.245187e-05
7	0xb82a27f9	-4.0568386e-05
8	0x38bdb3d0	9.045715e-05
9	0xb8f6a167	-0.000117602576
10	0xb9752e02	-0.0002338216
11	0x3880eba2	6.147406e-05
12	0x362ccecd	2.5750371e-06
13	0xb80b8d3b	-3.3271714e-05
14	0xb90a0e42	-0.00013166017
15	0xb8d894b5	-0.000103273815
16	0xb80ba393	-3.3292523e-05
17	0x38bd2f4f	9.021034e-05
18	0xb9010c12	-0.00012306895
19	0xb96c3441	-0.0002252618
20	0x38f8a3e1	0.00011856086
21	0x38ce0068	9.822921e-05
22	0x36a61cad	4.950524e-06
23	0x37cc6c69	2.4369177e-05
24	0x3758eaa3	1.2929234e-05
25	0xb88cd3ab	-6.7151464e-05
26	0x3925a50c	0.00015797111
27	0x36b75636	5.4638613e-06
28	0xb80caca9	-3.3539403e-05
29	0xb89d67da	-7.505687e-05
30	0xb7859b46	-1.592714e-05
31	0x37ce8745	2.4620103e-05
32	0xb845f92f	-4.720053e-05
33	0xb919e3b6	-0.00014676046
34	0xb7d59103	-2.5459105e-05
35	0xb8b0e734	-8.435399e-05
36	0xb8716c75	-5.7559886e-05
37	0xb93afcec	-0.00017832563
38	0xb81336cc	-3.5098565e-05
39	0x34e45b57	4.2534768e-07
40	0xb9122124	-0.00013935991
41	0x389a8f8c	7.37003e-05
42	0xb877bf35	-5.9067464e-05
43	0x376c07b1	1.4068487e-05
44	0xb5928f9e	-1.0919646e-06
45	0x3884190d	6.2989166e-05
46	0xb8fb0ab9	-0.0001197061
47	0xb5a10d2f	-1.1999272e-06
48	0x360f4c88	2.1353208e-06
49	0x38885fd4	6.502835e-05
50	0xb910d55f	-0.00013812397
51	0x38c41884	9.350575e-05
52	0xb94cf044	-0.00019544462
53	0x390993cb	0.00013120395
54	0x37f7de54	2.9548224e-05
55	0x3780d0e5	1.5356063e-05
56	0x38a651c0	7.930724e-05
57	0x3982d4a6	0.00024953968
58	0x363fbfb8	2.8572813e-06
59	0x39410a1d	0.00018409682
60	0x393c0215	0.00017929853
61	0x3882541f	6.214552e-05
62	0xb8d5c9fd	-0.00010194255
63	0xb75b9f01	-1.3090438e-05
64	0x3849528e	4.799902e-05
65	0x36e312da	6.767322e-06
66	0x38cc50b4	9.74251e-05
67	0xb9388212	-0.00017596062
68	0x39150356	0.0001421099
69	0xb8e6ebc6	-0.00011011171
70	0x3857c001	5.1438812e-05
71	0xb8d83161	-0.0001030888
72	0x38dc1ad9	0.00010495418
73	0xb8c37076	-9.319272e-05
74	0x38b32199	8.541643e-05
75	0x397be431	0.00024022233
76	0xb85b6b96	-5.2313866e-05
77	0x38b2ac0e	8.519749e-05
78	0xb9329ae1	-0.000170331
79	0xb84105f4	-4.602033e-05
80	0x38785ba0	5.921314e-05
81	0xb8ea0065	-0.00011158063
82	0xb768597a	-1.38491105e-05
83	0x38a20f9d	7.72767e-05
84	0x37fb4246	2.9952393e-05
85	0xb8f97d0c	-0.00011896537
86	0xb9149efc	-0.00014173606
87	0x38276f31	3.9919458e-05
88	0xb93c04c7	-0.00017930857
89	0x3791306c	1.7307895e-05
90	0xb75e25d8	-1.3241042e-05
91	0xb9888529	-0.00026039153
92	0x398d57cc	0.0002695903
93	0x38c2a479	9.281276e-05
94	0xb944b56c	-0.00018759602
95	0xb8d4cf52	-0.00010147564
96	0xb953bd57	-0.00020193063
97	0x38a18ccb	7.703303e-05
98	0xb809d327	-3.2859996e-05
99	0x3910ef1c	0.00013821985
100	0xb90a126e	-0.00013167571
101	0xb8e80efd	-0.00011065414
102	0xb726eb38	-9.949137e-06
103	0x38b6b333	8.711815e-05
104	0x38b048e0	8.405908e-05
105	0xb909adb1	-0.00013130043
106	0x34f5bff2	4.5774465e-07
107	0x37c51998	2.3496148e-05
108	0x389567c7	7.124204e-05
109	0x38ebc3ca	0.00011242142
110	0x3852b2e3	5.0234503e-05
111	0xb859b626	-5.190647e-05
112	0x39afc392	0.00033524312
113	0x38931cd8	7.014879e-05
114	0xb92796e0	-0.00015982566
115	0xb7aa8e85	-2.0331945e-05
116	0xb90c35bc	-0.00013371458
117	0x3990ad1c	0.00027594797
118	0xb8ae1190	-8.300238e-05
119	0xb852ab52	-5.0227456e-05
120	0x381f276f	3.794528e-05
121	0xb923842f	-0.00015594134
122	0x3882df1a	6.240439e-05
123	0x3887c17d	6.473342e-05
124	0x387dff0d	6.0557435e-05
125	0xb9771f54	-0.00023567426
126	0x37d1c9cf	2.5008716e-05
127	0x39312b7e	0.00016896238
128	0x3805f5e3	3.193867e-05
129	0xb881d8d0	-6.191584e-05
130	0x397d32c8	0.00024146878
131	0xb9226390	-0.00015486614
132	0xb5135654	-5.488739e-07
133	0xb8f2d87b	-0.00011579782
134	0xb8a43b6b	-7.831197e-05
135	0x36e21ed4	6.7389137e-06
136	0x391da7e0	0.00015035225
137	0xb758b4b5	-1.2916677e-05
138	0xb81b38db	-3.700783e-05
139	0x39aac7c8	0.00032573775
140	0x391f7e92	0.00015210573
141	0x39061e41	0.00012790506
142	0xb9791809	-0.00023755444
143	0x38b09ecd	8.421913e-05
144	0xb810d33f	-3.4529014e-05
145	0x39582d66	0.00020616277
146	0x384b4a15	4.8467966e-05
147	0x35225015	6.046624e-07
148	0x37ee7e49	2.8430617e-05
149	0x38e9c82b	0.0001114759
150	0xb84cf78a	-4.886793e-05
151	0xb69a904c	-4.606356e-06
152	0xb89d9d4a	-7.515641e-05
153	0x38e33559	0.0001083414
154	0x38f52986	0.00011690245
155	0xb90db399	-0.00013513713
156	0x3e3bd983	0.18344693
157	0xbda786a0	-0.081799746
158	0xbe222626	-0.15834865
159	0x391e2f94	0.00015085778
160	0xbacaefb7	-0.0015482818
161	0xbd1e0fd1	-0.038589302
162	0x3e3d71ad	0.18500395
163	0xb9cc5e27	-0.0003898006
164	0xbd5a69d9	-0.0533236
165	0x3d809b2b	0.06279596
166	0xbcab1e02	-0.020888332
167	0xbe9111f5	-0.28334013
168	0x3e2987d8	0.16555727
169	0xb97b5f32	-0.00023972688
170	0xbcd65d88	-0.026167646
171	0x3afa5310	0.0019098241
172	0xb9c265c8	-0.00037078396
173	0xbc50f0c1	-0.012752713
174	0x3daecea5	0.08535508
175	0x3eb14ffd	0.3463134
176	0xba0ef0d7	-0.0005452758
177	0x3c027c77	0.007964245
178	0x3ea573f2	0.32315022
179	0xba784a64	-0.0009471534
180	0x38c50c26	9.395955e-05
181	0xb8adde3a	-8.290676e-05
182	0x37caabf7	2.4160354e-05
183	0xb86ec079	-5.6922876e-05
184	0xb7c2a7d6	-2.3204757e-05
185	0x390d7bb3	0.0001349289
186	0xb6e5d283	-6.8492386e-06
187	0xb6cfeebf	-6.1968744e-06
188	0xb8645bcc	-5.444493e-05
189	0x380cb483	3.3546716e-05
190	0xb929c305	-0.00016189746
191	0xb9030a14	-0.00012496888
192	0x3e695f6a	0.22790304
193	0xba2323ca	-0.00062232895
194	0xb96580f1	-0.00021887176
195	0x3967f72b	0.00022121954
196	0xb979a9af	-0.00023809703
197	0xba8e14bd	-0.0010839921
198	0x3d145127	0.036210205
199	0xb9ba11af	-0.0003548986
200	0xbe5ea8ac	-0.2174403
201	0x3d34eef5	0.0441732
202	0xbab51c94	-0.0013817721
203	0xbe6a56da	-0.22884694
204	0x393074ea	0.00016828222
205	0xb7d4edec	-2.538316e-05
206	0xb8b02796	-8.3997074e-05
207	0xb8ab9673	-8.181939e-05
208	0xb922a760	-0.00015511876
209	0x395c42f3	0.00021005775
210	0xb944d6c2	-0.0001877202
211	0xb937a381	-0.0001751315
212	0x3976bda6	0.00023531038
213	0x375c1411	1.3117694e-05
214	0xb99887e3	-0.00029092943
215	0xb843190d	-4.6514953e-05
216	0xb70dd7c4	-8.454492e-06
217	0xb71a74dd	-9.206325e-06
218	0xb9213166	-0.00015372559
219	0x3929c345	0.0001618984
220	0xb817e453	-3.621385e-05
221	0xb858cc4e	-5.1688687e-05
222	0x37050f58	7.93099e-06
223	0xb8f45ab8	-0.00011651724
224	0x39060632	0.00012781544
225	0x38c8a645	9.567713e-05
226	0xb9255027	-0.00015765485
227	0xb9462007	-0.00018894683
228	0x38d6c7ab	0.00010241506
229	0xb905bb49	-0.00012753638
230	0xb95008db	-0.00019839725
231	0xb8851f41	-6.347756e-05
232	0x385ee03f	5.313777e-05
233	0x394c57cd	0.00019487664
234	0x390bc873	0.00013330746
235	0xb94f0c8d	-0.00019745734
236	0xb8f7f9ff	-0.00011824443
237	0x38a2af19	7.7573764e-05
238	0xb903259e	-0.00012507147
239	0x39164fe0	0.0001433487
240	0x39937b0e	0.00028129708
241	0x392855d0	0.00016053696
242	0xb804ee10	-3.1692965e-05
243	0xb7e064cf	-2.6749824e-05
244	0xb8a8b101	-8.043834e-05
245	0x38e0362d	0.000106912434
246	0xb930193a	-0.00016794066
247	0x388d30c1	6.732485e-05
248	0x393e95c0	0.00018175598
249	0xb8900ff2	-6.869425e-05
250	0x392caffc	0.00016468758
251	0x399255dc	0.0002791126
252	0xb5a91288	-1.2596875e-06
253	0xb9175c9c	-0.00014434982
254	0xb851a1f9	-4.9980332e-05
255	0xb9a13262	-0.0003074585

mlp_encoder.model.0.bias f4 [32]
0	0xb8452cfe	-4.7010362e-05
1	0xb8e3d23d	-0.000108633634
2	0xb8c72ba6	-9.4971896e-05
3	0x3948d6af	0.00019153462
4	0xb84f4bc5	-4.942321e-05
5	0xb98d33ee	-0.00026932306
6	0xb7eb764c	-2.806927e-05
7	0x3941c4ec	0.00018479273
8	0x391af357	0.00014777236
9	0xb969b881	-0.00022289345
10	0xb89d701f	-7.5072276e-05
11	0x34b2c19e	3.329596e-07
12	0xb74b24a3	-1.2108273e-05
13	0xb921b4d4	-0.0001542152
14	0xbd396aa7	-0.045267727
15	0x390b4a5a	0.00013283771
16	0x39145633	0.00014146492
17	0xb894cdfd	-7.095558e-05
18	0x39079311	0.0001292939
19	0x384d1207	4.8892598e-05
20	0xb8c92639	-9.5915464e-05
21	0xb89111c7	-6.91745e-05
22	0x38da556a	0.0001041096
23	0xb8a81667	-8.015037e-05
24	0x39165700	0.00014337525
25	0xb922c245	-0.00015521895
26	0xbe97e839	-0.2966936
27	0xb8990a73	-7.297555e-05
28	0x38d176e8	9.9880446e-05
29	0x38b656e8	8.694624e-05
30	0xb9a9e6c4	-0.00032406126
31	0x38837066	6.2675026e-05

mlp_encoder.model.3.weight f4 [3, 32]
0	0xb985dc0c	-0.00025531685
1	0x38867fc6	6.4134176e-05
2	0x37929f85	1.7478838e-05
3	0xb9432494	-0.00018610276
4	0x3984f1bb	0.00025357105
5	0xb94a8a69	-0.00019315783
6	0xb8a24b17	-7.7387485e-05
7	0xb8d437e1	-0.00010119356
8	0xb92793e8	-0.0001598146
9	0x396b9976	0.00022468515
10	0x38fbf0c3	0.00012013458
11	0x37d7764f	2.5685089e-05
12	0xb8a3bead	-7.807962e-05
13	0x3f837aee	1.027189
14	0xb807b302	-3.2353222e-05
15	0xb834479b	-4.2982032e-05
16	0x3f4a5929	0.790423
17	0xb7658980	-1.3681478e-05
18	0x397605ba	0.00023462521
19	0xb8ce023a	-9.82326e-05
20	0x3901ddde	0.0001238505
21	0x395472fe	0.00020260733
22	0x36fb9d74	7.498713e-06
23	0xb9874f0d	-0.00025808104
24	0xb6c5fbd7	-5.9003755e-06
25	0xb5d36788	-1.5750857e-06
26	0x36ee9f09	7.111467e-06
27	0xb8f80917	-0.00011827255
28	0x39a7329d	0.00031890432
29	0xb9dcf873	-0.0004214678
30	0xb90097fd	-0.00012263651
31	0x385e62f3	5.302108e-05
32	0x37c6ca77	2.369772e-05
33	0xb90846ed	-0.00012996393
34	0xb98a8986	-0.00026423874
35	0x39845507	0.00025240352
36	0xb69823b3	-4.534109e-06
37	0xb8f23a88	-0.000115503615
38	0xb71d4b0a	-9.375401e-06
39	0x386cb380	5.6433957e-05
40	0x37dfcb99	2.667848e-05
41	0xb871f9bc	-5.769146e-05
42	0xb91ad46d	-0.00014765719
43	0x39597b3d	0.00020740643
44	0xb902d3ce	-0.0001247667
45	0xb8074ecd	-3.2259897e-05
46	0xbf7e59a6	-0.9935554
47	0xb8fa631e	-0.00011939391
48	0xb8e7d4b2	-0.00011054556
49	0xb83ff018	-4.5761553e-05
50	0x3943bcc9	0.00018666977
51	0x38ee18ac	0.0001135332
52	0xb920b104	-0.00015324733
53	0x37320113	1.0609877e-05
54	0xb7c07f78	-2.294754e-05
55	0xb8ebba99	-0.0001124043
56	0xb89ded70	-7.5305696e-05
57	0x388f36b1	6.8289584e-05
58	0x395fbdf5	0.00021337702
59	0xb8bc4492	-8.977311e-05
60	0xb772de72	-1.4476116e-05
61	0xb947aace	-0.00019041749
62	0x3749b288	1.2022101e-05
63	0x39309387	0.00016839626
64	0x38b05b39	8.4093255e-05
65	0xb91042d9	-0.00013757813
66	0xb697b66d	-4.521388e-06
67	0x38aff058	8.389418e-05
68	0x3640eecb	2.8749225e-06
69	0x387a8a6f	5.973357e-05
70	0xb7ba7e24	-2.2231667e-05
71	0xb711676b	-8.666752e-06
72	0x38debe07	0.0001062118
73	0xb8b83ebe	-8.78549e-05
74	0xb8d160cf	-9.9839286e-05
75	0xb741fa0d	-1.1561916e-05
76	0xb904b576	-0.000126561
77	0xb8bc73f5	-8.986137e-05
78	0xbeef2106	-0.46704882
79	0x3775c921	1.4649967e-05
80	0x38d905c4	0.0001034844
81	0xb8af631e	-8.363112e-05
82	0x384ba635	4.8553764e-05
83	0xb9309ba7	-0.00016842653
84	0x38538fa8	5.044011e-05
85	0xb6c3c150	-5.8339574e-06
86	0xb98658e6	-0.00025624706
87	0x39055fe3	0.00012719589
88	0xb7842bb4	-1.5755977e-05
89	0x3894db02	7.097983e-05
90	0x3f48fa14	0.7850659
91	0x3929ae43	0.00016182013
92	0xb9ae237d	-0.00033214307
93	0x38982c2c	7.2561525e-05
94	0x38ba5334	8.884669e-05
95	0x36936e58	4.393787e-06

mlp_encoder.model.3.bias f4 [3]
0	0x375085aa	1.2428887e-05
1	0x3eeb4fc6	0.459593
2	0xbe9311f3	-0.28724632
