online_adapt_sim/learned_models/meta_mlpt_h4_bl5/model_param.pth (torch, 4407 bytes, 4 tensors)

mlp_encoder.model.0.weight f4 [32, 15]
00000000: 2e43 84b9 ac2e a9b8 8aad deb8 d617 e0b9
00000010: 20a4 15b8 936d 00b8 4c14 d338 9296 e7b7
00000020: e49c a738 84cc 1d38 e9fb 45b9 25fc a639
00000030: 00b8 b938 c429 8138 030a 5037 dac9 2fb8
00000040: 4196 0cb5 8725 b6b7 c2b9 78b8 fdd4 03b8
00000050: 9c3d d9b7 9106 ac38 98c5 56b8 f950 55b8
00000060: 1a98 10b9 c841 2539 6c33 2db8 1298 07b9
00000070: d18c 8fb9 3483 a139 5fe0 3538 42a8 9736
00000080: 3c5a 49b9 7145 2f39 6c43 d5b5 32cb 27b7
00000090: 6df1 30b9 fcca 2f36 7d23 81b8 63c2 2938
000000a0: c441 8bb8 32e3 2c38 87c0 6bb8 a2f8 4439
000000b0: 9efc b838 e224 0439 291f 03b9 e7da 6938
000000c0: 6e75 fc38 92f0 2039 4e7e e6b8 a28c 20b7
000000d0: 4bea 48b9 ca22 1338 741a 0439 60d2 8c37
000000e0: 4d97 07b9 bfca 80b8 560d f6b8 c655 fdb8
000000f0: 048c 2839 5fff 7438 8ab6 75b9 4636 82b8
00000100: b3bb 88b9 c38b 9438 310e d3b8 c7f8 c0b8
00000110: 43a2 d7b7 5dc3 cfb8 506d a637 2146 84b8
00000120: 0cd5 64b9 aacf ef38 4876 02b9 c6a8 fc38
00000130: e9f2 cf39 b268 41b8 be97 0c39 1f1c 5b38
00000140: 9747 4db9 2f08 22b8 c4fd f5b8 a2be 0339
00000150: 3131 3bb9 ee7f d038 3e8a ab38 927d 3bb8
00000160: 15da e938 c7c2 aa38 a74c 4ab8 4e28 f3b5
00000170: 7810 cbb5 b281 1cb8 c9ad 1f39 de71 bcb8
00000180: 2d8c 0b39 a11b 07b8 204c 6e38 bb3f 2539
00000190: 6fb6 3fb8 d4c2 98b5 40df 3639 e0a8 9a36
000001a0: 08e6 09b9 2fd0 85b8 5b21 efb6 ec09 06b8
000001b0: f823 0638 2657 40b9 817a e139 a7f5 85b8
000001c0: 3db5 edb8 7a5b da38 3ce5 9238 27c6 ef38
000001d0: 372a 0039 31f4 0cb8 1bc0 ff38 353a 67b8
000001e0: 5a28 11b9 07e8 bc38 fdb7 a8b8 9708 bcb6
000001f0: 7347 ceb8 dd92 5cb6 8d40 fb38 f2e8 4f39
00000200: ce8d 44b9 0045 2537 3917 5139 0159 bd36
00000210: 1507 1eb8 5ff2 4d38 f7c2 09b8 792f 17b9
00000220: 74d4 a736 d8d0 b638 7387 a537 1806 3539
00000230: cb71 04b6 7f5f 0d38 ed99 1038 d37c d838
00000240: 79c0 a3b8 5236 3a39 2550 b4b7 efc1 beb8
00000250: ad1a e6b7 41d3 a638 86d3 ef37 b94e 00b7
00000260: a6ce 4bb9 9d89 3bb9 0559 ef38 59c7 0f39
00000270: b0ee 0d39 bebc a337 9ba0 3138 ccc6 1fb9
00000280: 3aa4 0d39 3f83 0539 2dd5 0439 c9e7 b938
00000290: b824 42b9 46e9 b938 7528 4b38 3d6b dfb9
000002a0: bfcf cab8 80f1 4d38 92de 17b9 d9a4 acb8
000002b0: d578 bc38 2273 ae38 31d0 9939 5b4f d538
000002c0: 0f01 4939 f370 9339 b06b 62b7 bf45 98b6
000002d0: 26bb f8b8 ba86 d837 50aa 4238 77df 3439
000002e0: e3ed 9337 7fd3 d7b8 432d 8539 3188 b8b7
000002f0: f55d e838 30e7 7d37 50ea 98b7 9460 b8b7
00000300: b038 b838 6b28 c9b8 442a 45b8 d7d3 8539
00000310: fcf7 8139 ef56 8638 4777 0939 da31 2e39
00000320: 8469 0739 fb79 6139 4ea0 6139 5bc9 bab8
00000330: 4aa7 31b9 e463 fbb8 4f88 2039 6c63 d237
00000340: 1428 1938 1de3 0138 adde 4839 fe25 05b9
00000350: e8b8 cd38 1bde bab8 ae72 b338 2dd5 9b38
00000360: b517 16b8 cbbd dcb7 df64 5eb8 92ce ed38
00000370: 808b 37b9 e175 0336 553f e3b8 50f6 0638
00000380: ac1c d737 9433 51b9 bd5a b6b8 8c34 3239
00000390: d082 37b7 d53e 96b8 48a4 f9b8 1f91 b6b8
000003a0: adff 44b8 b4d1 7ab8 514e 1039 6782 0339
000003b0: 5569 3139 6070 5b38 187b 4638 b0fc b9b8
000003c0: b3eb 9038 1100 df38 e816 3339 fe27 0a39
000003d0: 6da8 5539 8d95 b037 197f 0437 f4e0 8f39
000003e0: 2196 ccb7 9404 0138 1e20 c4b7 578c 2c37
000003f0: e36b c338 d661 efb7 e08f 9838 cdcf 1d38
-0.00025227055 -8.067241e-05 -0.00010618109 -0.00042742369 -3.567722e-05 -3.0619627e-05 0.000100650446 -2.760746e-05
7.992404e-05 3.7622187e-05 -0.00018881228 0.0003184985 8.85576e-05 6.158979e-05 1.2400097e-05 -4.191124e-05
-5.237271e-07 -2.1713566e-05 -5.9300808e-05 -3.1431195e-05 -2.5897105e-05 8.202822e-05 -5.12056e-05 -5.085857e-05
-0.00013789572 0.00015760132 -4.1294305e-05 -0.00012931254 -0.00027380002 0.00030806067 4.3362725e-05 4.5197385e-06
-0.00019202469 0.0001671517 -1.5889359e-06 -1.0001286e-05 -0.00016874606 2.6195185e-06 -6.1578095e-05 4.0473777e-05
-6.640286e-05 4.1219588e-05 -5.620767e-05 0.0001878464 8.820857e-05 0.00012602241 -0.00012504742 5.5755398e-05
0.000120381694 0.00015348408 -0.00010990781 -9.569487e-06 -0.00019160767 3.507993e-05 0.00012598356 1.6787264e-05
-0.00012930967 -6.14128e-05 -0.00011732678 -0.00012079957 0.00016073888 5.8411966e-05 -0.00023433022 -6.208992e-05
-0.00026079788 7.0832226e-05 -0.000100639074 -9.201612e-05 -2.5705556e-05 -9.9069184e-05 1.9839645e-05 -6.307313e-05
-0.0002182314 0.000114350885 -0.0001244183 0.00012047733 0.000396631 -4.611229e-05 0.00013407969 5.223986e-05
-0.00019576993 -3.863143e-05 -0.00011729778 0.0001256415 -0.00017852035 9.942042e-05 8.179665e-05 -4.470122e-05
0.00011150927 8.142512e-05 -4.823194e-05 -1.8116641e-06 -1.5129472e-06 -3.7314087e-05 0.00015228162 -8.985748e-05
0.00013308293 -3.221224e-05 5.681452e-05 0.00015759368 -4.5707853e-05 -1.1381585e-06 0.0001744004 4.6092173e-06
-0.00013151031 -6.3807114e-05 -7.126638e-06 -3.195733e-05 3.1981588e-05 -0.00018343012 0.00043006617 -6.3876905e-05
-0.00011334799 0.00010412089 7.004521e-05 0.00011433317 0.00012222758 -3.3606022e-05 0.0001219513 -5.51289e-05
-0.0001384331 9.007757e-05 -8.045135e-05 -5.6038366e-06 -9.836154e-05 -3.286804e-06 0.00011980636 0.00019827837
-0.00018744843 9.850832e-06 0.00019940444 5.6430003e-06 -3.767673e-05 4.9101534e-05 -3.284492e-05 -0.00014418167
5.0017206e-06 8.7173365e-05 1.9732606e-05 0.00017263775 -1.973577e-06 3.3705957e-05 3.447563e-05 0.00010322933
-7.8082965e-05 0.00017758578 -2.1494992e-05 -9.096029e-05 -2.7430558e-05 7.954846e-05 2.8589518e-05 -7.647724e-06
-0.00019436571 -0.00017884975 0.00011412989 0.00013711806 0.00013535726 1.9519004e-05 4.2349664e-05 -0.00015237479
0.00013507987 0.00012732761 0.00012667915 8.864661e-05 -0.0001851496 8.864938e-05 4.843665e-05 -0.00042613773
-9.670806e-05 4.9100723e-05 -0.00014483396 -8.2323044e-05 8.987045e-05 8.318412e-05 0.0002933755 0.000101714126
0.00019169248 0.0002812218 -1.3495723e-05 -4.5380725e-06 -0.00011860421 2.5811943e-05 4.641182e-05 0.00017249385
1.763454e-05 -0.00010291393 0.0002540146 -2.1997928e-05 0.00011080123 1.5133803e-05 -1.8228922e-05 -2.1979482e-05
8.7843626e-05 -9.591955e-05 -4.7007823e-05 0.0002552557 0.0002478956 6.4058106e-05 0.00013109772 0.00016612504
0.00012913911 0.00021503113 0.0002151739 -8.9066765e-05 -0.00016942355 -0.00011987219 0.00015309568 2.5080248e-05
3.651537e-05 3.0967512e-05 0.0001915644 -0.00012698022 9.809603e-05 -8.9105415e-05 8.556746e-05 7.430683e-05
-3.5784866e-05 -2.6314423e-05 -5.3022868e-05 0.000113395174 -0.00017504208 1.9589136e-06 -0.00010836 3.2177486e-05
2.5643349e-05 -0.00019951008 -8.6953376e-05 0.00016994978 -1.0938107e-05 -7.164261e-05 -0.00011903845 -8.705467e-05
-4.6968158e-05 -5.9799946e-05 0.00013762085 0.00012541712 0.00016919275 5.2318326e-05 4.732152e-05 -8.868554e-05
6.9103575e-05 0.00010633481 0.00017079304 0.00013175604 0.00020376006 2.1050475e-05 7.897405e-06 0.0002744269
-2.4388604e-05 3.076026e-05 -2.3379976e-05 1.0284674e-05 9.31842e-05 -2.8536579e-05 7.2747236e-05 3.7625246e-05

mlp_encoder.model.0.bias f4 [32]
00000000: d6b5 cab8 015b 64b8 75eb 7839 f3f6 cb38
00000010: c039 ff37 c855 2f39 477e bf38 ea45 a2b8
00000020: 56bf 7ab9 7249 7bb8 eaad 0239 64c5 4839
00000030: 17ab a2b8 07b2 0db9 afb3 ed37 f960 1439
00000040: 187f 2339 c69b 1eb9 0b2f c338 1fe6 b338
00000050: 99fd ba37 29a8 8eb5 6e4e b6b8 9811 3239
00000060: 3d7a 8638 2121 6a39 3b29 a438 c77c 0eb8
00000070: fc56 a9b8 c787 c837 e75f 7139 0de8 e6b7
-9.66598e-05 -5.444419e-05 0.00023738838 9.725792e-05 3.042526e-05 0.00016721257 9.131111e-05 -7.7377845e-05
-0.00023913136 -5.9911465e-05 0.00012462554 0.0001914702 -7.75663e-05 -0.00013513128 2.8336273e-05 0.00014150505
0.00015592237 -0.00015126084 9.307087e-05 8.5782485e-05 2.2291018e-05 -1.0628765e-06 -8.693045e-05 0.00016981957
6.4123866e-05 0.0002232832 7.827809e-05 -3.3971646e-05 -8.07475e-05 2.3905084e-05 0.00023019277 -2.7526194e-05

mlp_encoder.model.3.weight f4 [3, 32]
00000000: 87c8 31b9 fe86 cb38 95f3 a039 e037 52b8
00000010: e2bc 0439 ead1 b638 34c8 6138 403f acb8
00000020: 809a c9b7 4127 6638 89f9 3837 c8a6 a2b7
00000030: f377 2536 aa8a 7eb9 c792 8ab9 d76e 6fb8
00000040: 191b ae37 207b a139 24c7 ee38 60ca 70b8
00000050: 62cf 15b9 3554 8c39 15a0 9038 fdab 41b8
00000060: dbf6 4238 2752 bcb8 811c cbb7 75dc 4e38
00000070: 1bcd b1b7 f034 14b8 e5e4 2838 6041 c7b8
00000080: b99a 4a38 4d28 a6b8 4ef6 b6b8 cf31 93b8
00000090: 7e0c 86b8 7ce2 82b7 ecd5 ac38 c751 4138
000000a0: f078 dc38 925e ad37 724e fab8 56df be38
000000b0: e75e 8839 845a c338 c43a 3639 ee5c b1b8
000000c0: 87af 31b6 1882 4338 9be9 e537 ee05 00b9
000000d0: d733 2a39 8132 7538 0657 ffb8 6906 0739
000000e0: b2dc 2939 0ede f936 ac47 8fb8 4a64 b638
000000f0: b12e 54b8 af1f 3c37 fab3 01b9 8f91 cfb8
00000100: 9a85 d237 f1e7 df38 e0d8 02b9 89ed 35b9
00000110: b17c fdb8 5a7f b2b7 de02 f138 1dbf a338
00000120: d99a e137 d9cc d0b8 42db e5b8 63cf c4b8
00000130: 8303 98b8 1ed4 6339 b94a 9cb7 bb50 9e39
00000140: 908e 1639 42d6 82b8 b878 c4b8 9271 e4b7
00000150: 7823 fc38 008e d337 dad4 9fb8 c341 48b9
00000160: 5549 deb7 6469 9636 be6a 0eb8 a14b f637
00000170: 918b 44b9 ac13 34b7 a127 6539 98f7 88b7
-0.00016954738 9.7049386e-05 0.0003069906 -5.011994e-05 0.00012658865 8.717536e-05 5.3830634e-05 -8.21338e-05
-2.4033012e-05 5.487283e-05 1.1025354e-05 -1.9389568e-05 2.4656736e-06 -0.00024274984 -0.0002643077 -5.7085268e-05
2.0755035e-05 0.00030800048 0.00011385817 -5.7408935e-05 -0.00014287003 0.0002676562 6.896273e-05 -4.6174962e-05
4.6483106e-05 -8.979841e-05 -2.4212759e-05 4.9319544e-05 -2.1195554e-05 -3.533525e-05 4.0267496e-05 -9.5012365e-05
4.830465e-05 -7.9230034e-05 -8.724314e-05 -7.018784e-05 -6.391945e-05 -1.5602673e-05 8.241445e-05 4.6090947e-05
0.00010512944 2.0667245e-05 -0.000119355405 9.1015056e-05 0.0002601065 9.3151844e-05 0.00017378764 -8.457327e-05
-2.6477226e-06 4.6612782e-05 2.7407708e-05 -0.0001220924 0.00016231775 5.8459587e-05 -0.00012175557 0.00012876991
0.00016199311 7.446629e-06 -6.832121e-05 8.6971166e-05 -5.0588224e-05 1.121305e-05 -0.00012369445 -9.8976416e-05
2.5096164e-05 0.00010676671 -0.00012478558 -0.00017349994 -0.00012087206 -2.1278556e-05 0.000114923096 7.808043e-05
2.6894197e-05 -9.956369e-05 -0.00010960411 -9.384637e-05 -7.248579e-05 0.00021727427 -1.8631445e-05 0.00030196257
0.00014358223 -6.238792e-05 -9.368494e-05 -2.7232603e-05 0.00012022903 2.5219284e-05 -7.6213575e-05 -0.00019097984
-2.649861e-05 4.4826174e-06 -3.395485e-05 2.9360703e-05 -0.00018744009 -1.0733416e-05 0.00021853905 -1.6327758e-05

mlp_encoder.model.3.bias f4 [3]
00000000: 1f56 48b8 c0d2 343f b01a 0038
-4.7763922e-05 0.7063408 3.0542433e-05
