online_adapt_sim/learned_models/meta_mlpt_h3_bl5/model_param.pth (torch, 4023 bytes, 4 tensors)

mlp_encoder.model.0.weight f4 [32, 12]
00000000: 2de3 2439 4121 94b8 5988 29b9 e1b6 cb38
00000010: f19e ad39 e021 37b9 b958 afb8 3682 5cb9
00000020: 2408 d538 75c2 d936 018a 98b8 74b5 63b9
00000030: fa9c 92b9 2db0 7839 0571 2bb9 7ec5 c036
00000040: 6cb7 89b9 2f11 a137 5232 a7b8 c3d5 4a37
00000050: f8ac 55b9 e897 3437 be38 1e39 0c01 6a38
00000060: 4b48 0039 5aa6 0639 4b3f 3fb9 d5fe beb8
00000070: 2c84 3f37 2ecc 16b9 e0d6 4139 e4cc 4339
00000080: 375e 9738 4e09 9938 75b5 9c39 f35d 8339
00000090: 2a84 0438 759a 8538 d25c 3339 7f45 2d39
000000a0: 0a2b 7db9 3ff4 95b9 a3b7 5539 2b5f ed38
000000b0: b57a 1439 4006 8437 1d14 4939 3511 00b8
000000c0: fc6d 31b8 9845 9fb8 698e 9238 574a 77b8
000000d0: 0cc1 29b9 d86d 2939 5a69 85b9 c405 dc38
000000e0: 2de3 b738 860d cdb7 254a b8b8 850f 0a38
000000f0: 7036 fc38 399a 35b9 0ee3 07b9 84f3 25b8
00000100: d5aa 35b9 aec8 f8b8 5578 ea39 0a1c 5eb7
00000110: 9773 0ab8 d2a3 7737 7d3d 00b9 b1cc 9a38
00000120: 65ef 2039 9820 33b8 de7a 5db8 cbab 39b9
00000130: c92b 85b9 a493 0239 102a 8439 19b6 88b6
00000140: 68ef 9635 26c8 1bb9 f59e 15b9 6f4a 04b8
00000150: d97e 30b8 b052 4939 d064 b138 b316 90b8
00000160: 01c4 8bb9 4f97 2d39 1d0e 26b8 24d8 b437
00000170: c607 2138 dc93 2039 69a9 3939 8fe6 1739
00000180: 84d6 2eb9 da3d 31b9 22b8 8a39 0f1a 9938
00000190: 177a 8238 7630 bd39 ae44 2cb8 0bf2 ae38
000001a0: 90b0 8db7 c650 5ab8 6a73 8db8 3cdd 8db7
000001b0: f82f 0839 0880 bd38 9615 d537 4284 f836
000001c0: 086a c7b8 89b8 a538 f2c2 1438 d84d 41b8
000001d0: 0f0e c135 a7d9 1739 ac55 3f39 763c 4739
000001e0: 09fd 8736 dbfd 2839 e34e 09b8 6b1f 8438
000001f0: 8336 8438 b403 15b8 983a 31b9 be75 39b8
00000200: 0107 7637 335b 0cb8 b4cf 4a37 1639 87b9
00000210: f434 53b8 89c9 4db8 d2ab a7b9 c9cd 2cb9
00000220: b83d a5b9 03f0 9ab7 1457 eeb8 8783 8039
00000230: d7e3 04b7 35ba 0939 56e4 4337 4e73 3e38
00000240: d21d 97b8 0561 0eb9 867b e138 c881 9b37
00000250: 0430 4d39 7b9a 1439 349f dfb7 817e 83b8
00000260: e1f3 68b8 9e01 4cb9 139d 9039 6ae2 e838
00000270: dd21 c138 c208 4cb9 1b50 2f39 df70 c138
00000280: 74a0 8ab8 00e0 0e39 e79c 1037 c080 85b7
00000290: a43d 2b38 614c 3d39 0356 e038 57fa 35b8
000002a0: 2ca3 1c39 8594 a7b7 cd53 2e39 3443 9038
000002b0: af76 6fb9 f68a a2b8 6d4e 33b9 d742 d6b8
000002c0: eb48 0b38 164f acb9 c395 3339 ac09 28b9
000002d0: 74e3 d2b8 77c0 08b8 0b3e bfb7 31db d6b8
000002e0: 19ac 0f37 8bdc cbb7 8ac5 2bb9 f766 a039
000002f0: e5d8 15b9 cb4c b9b8 37e1 5cb7 356f 0eb8
00000300: 183d 4339 60ae 7d38 489f 4eb9 f729 1439
00000310: 7df7 8d39 e6ab 6eb7 8486 e639 9684 d7b7
00000320: a5e1 4b38 4667 e837 5c29 1839 5910 6739
00000330: a8d1 3c38 d488 1a39 df39 6739 f361 8038
00000340: 7dbb c638 345a 19b9 efc4 4137 b2b4 a737
00000350: 0357 5a37 72eb f836 7736 02b8 aaa2 9cb8
00000360: 552a 3137 ebf4 eeb8 ef2b 9938 a111 7339
00000370: 9805 ecb8 293c 3539 9396 11b7 9c2e b5b7
00000380: f90d 8e38 8a18 10b8 e2a7 9039 8576 13b8
00000390: bbd6 4a39 309c 2338 8922 acb8 07ae 1a39
000003a0: 53b3 c3b6 be7f b138 a3f0 7bb8 98dd 0539
000003b0: f875 4439 0287 bf39 3084 8c39 b878 2bb9
000003c0: 1126 2ab9 dbda 8138 e2a0 e737 32aa 8739
000003d0: 4ce6 2738 82e0 9038 a835 c437 250f f338
000003e0: 3799 0a39 44ee 7738 64f6 54b7 2e9a 5bb7
000003f0: 80f6 b937 3e6c 6137 033c 49b8 e3d4 a838
0.00015724888 -7.063384e-05 -0.0001616789 9.713858e-05 0.00033115552 -0.0001746486 -8.361176e-05 -0.00021029342
0.00010158148 6.4897417e-06 -7.27363e-05 -0.00021716004 -0.00027964247 0.00023716754 -0.00016349934 5.745037e-06
-0.00026267336 1.9200697e-05 -7.9725534e-05 1.20899085e-05 -0.00020377699 1.07642045e-05 0.00015089192 5.5790922e-05
0.00012233962 0.00012841207 -0.00018238758 -9.107372e-05 1.1415261e-05 -0.00014381178 0.00018485961 0.00018672977
7.21779e-05 7.297342e-05 0.00029889835 0.00025056265 3.159434e-05 6.370704e-05 0.00017105349 0.00016524455
-0.00024143994 -0.00028601472 0.00020381673 0.00011318767 0.00014160092 1.5738537e-05 0.00019176347 -3.0533603e-05
-4.230252e-05 -7.594674e-05 6.9883485e-05 -5.8958623e-05 -0.00016189012 0.00016158016 -0.0002544623 0.000104914914
8.768435e-05 -2.4444202e-05 -8.787614e-05 3.2916218e-05 0.00012026436 -0.00017318958 -0.00012959188 -3.9565857e-05
-0.00017325145 -0.00011862941 0.00044721612 -1.32387595e-05 -3.3009415e-05 1.476049e-05 -0.00012229937 7.381419e-05
0.0001534797 -4.270728e-05 -5.2804935e-05 -0.00017706973 -0.0002540036 0.00012452767 0.0002520834 -4.074315e-06
1.1245547e-06 -0.00014856513 -0.00014268963 -3.1540574e-05 -4.2079806e-05 0.00019199657 8.4587955e-05 -6.870683e-05
-0.0002665818 0.00016554933 -3.9590628e-05 2.155832e-05 3.839263e-05 0.00015313871 0.00017706085 0.00014486372
-0.00016673846 -0.00016903077 0.000264586 7.300462e-05 6.221624e-05 0.00036084995 -4.107196e-05 8.3420506e-05
-1.6890728e-05 -5.2050476e-05 -6.7449015e-05 -1.691153e-05 0.0001298784 9.03607e-05 2.540163e-05 7.406373e-06
-9.508809e-05 7.9021855e-05 3.5467507e-05 -4.6087283e-05 1.4383712e-06 0.00014481564 0.00018247095 0.00019000642
4.0527707e-06 0.00016116297 -3.2736814e-05 6.3001025e-05 6.304404e-05 -3.5527817e-05 -0.00016901863 -4.4217093e-05
1.4664373e-05 -3.3463537e-05 1.2088498e-05 -0.0002579174 -5.0355637e-05 -4.9063503e-05 -0.00031980738 -0.00016479859
-0.00031517236 -1.8469995e-05 -0.00011364944 0.00024512058 -7.920861e-06 0.00013134706 1.1676069e-05 4.5406916e-05
-7.2057956e-05 -0.00013578318 0.00010751844 1.8537874e-05 0.0001956821 0.00014171928 -2.6657806e-05 -6.27013e-05
-5.554024e-05 -0.00019455559 0.0002758285 0.00011104795 9.209265e-05 -0.00019458219 0.00016719142 9.223981e-05
-6.6102395e-05 0.00013625622 8.6196005e-06 -1.591479e-05 4.0826984e-05 0.00018052898 0.00010697173 -4.338691e-05
0.00014938106 -1.9977111e-05 0.00016625151 6.8789726e-05 -0.00022837029 -7.7506455e-05 -0.00017099986 -0.00010216765
3.3208093e-05 -0.0003286532 0.00017126561 -0.00016025332 -0.00010055947 -3.2604174e-05 -2.2797865e-05 -0.00010245143
8.563534e-06 -2.4302184e-05 -0.0001638142 0.00030594293 -0.00014290547 -8.835791e-05 -1.3165459e-05 -3.3959008e-05
0.00018619408 6.04823e-05 -0.00019705028 0.00014130013 0.0002707801 -1.4225929e-05 0.0004396924 -2.5691737e-05
4.860912e-05 2.7704646e-05 0.00014511257 0.00022035967 4.501795e-05 0.00014737557 0.00022051435 6.12176e-05
9.476298e-05 -0.0001462482 1.1549549e-05 1.9992094e-05 1.3014072e-05 7.4183854e-06 -3.104514e-05 -7.468958e-05
1.0559878e-05 -0.00011394344 7.303792e-05 0.00023180853 -0.00011254399 0.00017283917 -8.677732e-06 -2.1598586e-05
6.77369e-05 -3.435513e-05 0.00027590903 -3.515791e-05 0.00019344215 3.900769e-05 -8.208032e-05 0.00014751415
-5.832329e-06 8.4638115e-05 -6.0067174e-05 0.00012766419 0.00018735963 0.00036530948 0.00026801368 -0.00016352802
-0.00016226644 6.191964e-05 2.7612263e-05 0.00025876012 4.0030383e-05 6.908273e-05 2.3390006e-05 0.00011589964
0.00013217783 5.911129e-05 -1.2693552e-05 -1.3089315e-05 2.2168504e-05 1.3436247e-05 -4.7978025e-05 8.0505175e-05

mlp_encoder.model.0.bias f4 [32]
00000000: 08c2 9438 769e 81b9 2abb 2a38 1c65 c4b7
00000010: aa47 4fb7 c519 77b9 59cc 2e39 a2f7 28b9
00000020: e4bf 8138 ce20 b838 9012 00b8 c23a 7e38
00000030: 7f14 5339 832f c738 8c1a 56b9 ee64 1839
00000040: 2bb3 8f38 28c5 4bb8 e452 15b8 33de 1338
00000050: d2d9 3039 d715 3a39 d5ed 49b8 ae47 a8b7
00000060: 7531 2ab9 9ebe 4038 adb9 27b9 fe8b a039
00000070: e42d d5b7 6340 b6b7 9951 7638 2606 10b9
7.093331e-05 -0.0002472286 4.070547e-05 -2.3412103e-05 -1.2354847e-05 -0.00023565356 0.00016670059 -0.00016113979
6.186942e-05 8.779914e-05 -3.0534866e-05 6.061304e-05 0.00020130163 9.497909e-05 -0.0002041852 0.00014533449
6.852144e-05 -4.8582588e-05 -3.5601566e-05 3.525447e-05 0.00016865812 0.00017746478 -4.8143633e-05 -2.006054e-05
-0.00016230888 4.5953893e-05 -0.0001599553 0.0003062188 -2.5412948e-05 -2.1726073e-05 5.8726964e-05 -0.000137352

mlp_encoder.model.3.weight f4 [3, 32]
00000000: 08fb 3f38 bb01 eab8 07fe 2538 9bfa 7c38
00000010: 63fc 2339 034f 90b8 c52c 3f39 3438 1038
00000020: d47a 49b9 630a da38 0493 8539 8a5b 0339
00000030: 293a 6537 212b db37 b7f5 3c39 677c a3b8
00000040: a2f0 29b9 723d 28b9 4e58 f938 6c77 4ab6
00000050: 569f e335 51da 5339 febd 38b6 43c7 1e37
00000060: da95 c339 3c1e 21b9 54c3 4a38 40c7 45b7
00000070: 5bcb 9037 10e1 1039 e907 5337 4719 a438
00000080: cca2 6238 c02a 5b39 2be0 b238 d68f ed38
00000090: 4ca1 d5b7 c16f cf38 21e4 0f39 87b7 41b8
000000a0: f1a8 8c38 5c3c a7b9 4862 f1b8 8089 3c37
000000b0: f0a3 7db9 1c4e 63b7 4c42 6739 d210 48b9
000000c0: 244f c2b5 ced4 f838 a398 8cb8 8902 f738
000000d0: ffd9 bab8 af8a 7c38 0ede 3f38 a79d 8139
000000e0: 644a 0e38 e5cd 1eb9 eb56 c7b8 57ba fab8
000000f0: 32db 42b9 ea7d 72b8 dd79 aeb8 dfec aab8
00000100: 0f5e 9bb7 1bbc 2eb9 8271 ceb7 ae15 4b37
00000110: 5664 9139 7ed6 e738 d8b0 47b9 c643 bb38
00000120: b80d 17b8 13ed 0c39 108e a138 6104 7db7
00000130: 1f7a f8b8 001e d839 bf8c 0139 c389 2d38
00000140: 0fd6 c238 63ba 4737 1567 8639 8b47 86b8
00000150: 8296 b638 93f7 3439 efdb 1e39 71fc e8b8
00000160: 3194 b038 7cfa 7bb8 25ae 4639 6bd1 86b8
00000170: 7b1d 3d36 2d5d 9cb9 e67f a138 b928 4038
4.577174e-05 -0.00011158312 3.9575647e-05 6.0314876e-05 0.00015638913 -6.881172e-05 0.00018231857 3.438462e-05
-0.00019214611 0.00010396985 0.00025477272 0.00012527235 1.3663005e-05 2.6126918e-05 0.00018020613 -7.7956174e-05
-0.00016206739 -0.00016044619 0.00011889693 -3.0169858e-06 1.6959191e-06 0.00020203857 -2.7528727e-06 9.463928e-06
0.00037304946 -0.0001536542 4.8342466e-05 -1.17885065e-05 1.7260832e-05 0.00013816752 1.2578422e-05 7.824838e-05
5.4034215e-05 0.00020901393 8.529456e-05 0.00011327832 -2.5466688e-05 9.891345e-05 0.00013722527 -4.618571e-05
6.707188e-05 -0.00031897693 -0.00011510082 1.1237687e-05 -0.00024189032 -1.3548441e-05 0.00022054574 -0.00019079752
-1.4477159e-06 0.000118651995 -6.704151e-05 0.0001177835 -8.909776e-05 6.021064e-05 4.5744753e-05 0.00024722258
3.392472e-05 -0.00015144756 -9.505249e-05 -0.000119556375 -0.00018582938 -5.7814563e-05 -8.319665e-05 -8.1503524e-05
-1.852124e-05 -0.00016664008 -2.460997e-05 1.2104791e-05 0.0002773131 0.00011054891 -0.00019043998 8.929479e-05
-3.6013982e-05 0.00013439757 7.7035394e-05 -1.5080995e-05 -0.00011848308 0.00041221082 0.0001235483 4.1374715e-05
9.2905124e-05 1.1904721e-05 0.00025635274 -6.402944e-05 8.7064705e-05 0.00017258366 0.00015149986 -0.00011109643
8.419937e-05 -6.0076345e-05 0.00018947625 -6.428625e-05 2.8180355e-06 -0.0002982406 7.700901e-05 4.5814293e-05

mlp_encoder.model.3.bias f4 [3]
00000000: b089 11b8 a71d 373f e350 e638
-3.4698925e-05 0.7152962 0.00010982321
