online_adapt_sim/learned_models/meta_mlpt_h0_bl20/model_param.pth (torch, 2871 bytes, 4 tensors)

mlp_encoder.model.0.weight f4 [32, 3]
0.29654986 0.0003987577 0.000154541 -0.00015545163 -9.2631e-05 1.7793154e-05 8.104363e-06 -0.00016890356
7.621372e-05 -0.09146743 -0.0102234455 0.87927395 -9.767895e-05 7.331946e-05 7.870398e-05 -0.3904676
0.00031218634 -0.000118727316 2.6452846e-05 -0.00023576891 0.00023092348 -1.7424882e-05 0.00020304976 -6.02031e-05
-3.4772245e-07 -7.929838e-05 6.649843e-05 -2.5196246e-05 8.279656e-05 3.4030687e-05 -0.00014226986 -0.00011873169
0.00016472732 -8.3080566e-05 -1.0093507e-05 -0.00018250357 0.00035331983 0.00017132086 0.00028398668 0.07597702
-0.00021987304 -0.00026208485 -0.00053269824 -0.010728905 0.401112 0.0001415669 -4.0528947e-05 0.00010671721
-0.0001453087 -1.871114e-05 3.54171e-05 -1.2383697e-05 0.0002725846 -2.8454691e-05 -0.0001745816 -8.672561e-06
0.0001951177 0.00012299587 0.00017008194 5.4577e-05 6.6139975e-05 -0.00012275373 0.00012935206 0.00087452825
0.05683483 -0.47113034 -0.00018917883 -0.000114555485 0.0001117735 0.00015957523 -6.604005e-05 -7.848042e-05
0.000109537046 4.7887166e-05 -6.700309e-05 -0.026630186 0.00015852864 5.0196944e-05 -8.939064e-05 -0.00016432538
-9.081649e-05 0.00012088532 0.00026205834 -0.00010052638 0.00017499558 0.00010942885 -0.000111900525 1.0538562e-06
-9.540251e-06 2.1294538e-05 -0.00020499772 0.00011315598 4.3959827e-07 0.6514286 -0.12723152 0.0002606553
00000000: 62d5 973e 5a10 d139 490c 2239 bb00 23b9
00000010: e442 c2b8 8242 9537 f9f7 0737 b41b 31b9
00000020: eed4 9f38 4753 bbbd 3d80 27bc 1918 613f
00000030: fdd8 ccb8 16c3 9938 e10d a538 5feb c7be
00000040: f1ac a339 3efd f8b8 0ee7 dd37 bc38 77b9
00000050: 0d24 7239 a62b 92b7 c1e9 5439 9682 7cb8
00000060: 9cae bab4 fe4c a6b8 1375 8b38 875c d3b7
00000070: 11a3 ad38 2cbc 0e38 462e 15b9 97ff f8b8
00000080: a7ba 2c39 8a3b aeb8 4857 29b7 6e5e 3fb9
00000090: c93d b939 98a4 3339 0ce4 9439 d799 9b3d
000000a0: b88d 66b9 6f68 89b9 c6a4 0bba 4ac8 2fbc
000000b0: 8d5e cd3e 9371 1439 a0fd 29b8 5ecd df38
000000c0: 025e 18b9 def5 9cb7 d28c 1438 93c3 4fb7
000000d0: b0e9 8e39 fcb1 eeb7 e40f 37b9 5e80 11b7
000000e0: 8298 4c39 74f8 0039 0658 3239 9ce9 6438
000000f0: a1b4 8a38 74b7 00b9 aea2 0739 9940 653a
00000100: a4cb 683d ff37 f1be 4e5e 46b9 823d f0b8
00000110: f167 ea38 a653 2739 fb7e 8ab8 db95 a4b8
00000120: 41b7 e538 74da 4838 0384 8cb8 8c27 dabc
00000130: b53a 2639 8f8a 5238 3c77 bbb8 c24e 2cb9
00000140: bb74 beb8 d083 fd38 e064 8939 b0d1 d2b8
00000150: 057f 3739 2b7d e538 23ac eab8 3972 8d35
00000160: 110f 20b7 aca1 b237 a8f4 56b9 274e ed38
00000170: ed01 ec34 06c4 263f fb48 02be 90a8 8839

mlp_encoder.model.0.bias f4 [32]
0.30171272 -0.00034005684 -0.00014315559 -5.8380883e-05 -4.4599714e-05 8.127368e-05 9.770637e-05 9.0395864e-05
6.230997e-05 0.00013223209 2.2352899e-05 -4.888051e-06 -7.227639e-05 0.00013043189 -0.000101389356 -0.0001496649
-4.5263063e-05 -2.0861711e-05 -5.468823e-06 -7.797292e-05 -0.00011282901 0.00012561126 -0.0002592036 9.803749e-06
6.088273e-05 -0.00012025582 -7.123136e-05 2.6725014e-05 0.00018032777 9.0132686e-05 7.800545e-05 -7.694335e-05
00000000: 177a 9a3e a849 b2b9 091c 16b9 ffdd 74b8
00000010: 9410 3bb8 7a71 aa38 b5e7 cc38 e992 bd38
00000020: 69ac 8238 c8a7 0a39 7c82 bb37 0a04 a4b6
00000030: 1793 97b8 8bc4 0839 ffa0 d4b8 5eef 1cb9
00000040: d8d8 3db8 2f00 afb7 d580 b7b6 6585 a3b8
00000050: 9d9e ecb8 84b6 0339 b8e5 87b9 c87a 2437
00000060: 555c 7f38 da31 fcb8 0c62 95b8 882f e037
00000070: 5e16 3d39 9e05 bd38 db96 a338 a65c a1b8

mlp_encoder.model.3.weight f4 [3, 32]
-1.7817689e-05 7.2236384e-05 -7.9723206e-05 -0.00016771382 -3.2655174e-05 0.47575128 -9.713501e-06 -6.766487e-05
3.573284e-05 1.7235001e-06 -4.372016e-05 5.026314e-05 8.168036e-05 -0.17510068 0.00021193066 -9.2228665e-06
-0.000102188955 3.9230046e-05 -4.68215e-05 -0.00010000454 -7.999772e-05 -2.9913543e-05 6.165086e-05 -0.00014966163
-4.8046146e-05 -6.695343e-05 -0.00014107127 -1.3250206e-05 -4.5058652e-05 0.000115594696 5.874924e-05 -0.8365694
-0.6024856 -2.149162e-05 -2.5939084e-05 2.5982923e-05 1.1756134e-05 0.06424678 -9.061512e-05 -0.00010311301
-6.240852e-05 -7.296295e-05 8.311735e-05 -0.00010660829 -9.548382e-05 -0.05330037 0.00018857233 -5.6106153e-05
-6.701794e-05 5.0414666e-05 0.032738388 -0.00011670477 2.4950172e-05 -9.78217e-05 -1.1005967e-05 -2.1412898e-05
-2.9528692e-05 0.15845974 1.9486843e-06 -5.558837e-05 -2.7820033e-05 5.3786942e-05 1.9294625e-05 -0.00018734347
-0.0002540748 -4.4416396e-05 8.6114815e-05 0.8313136 6.148877e-05 0.00013377421 4.584087e-05 -2.5908414e-05
-9.3455055e-05 0.0001539914 -5.4302745e-05 8.843369e-05 4.7680158e-05 8.426664e-05 0.42297497 0.00013001864
8.635089e-05 2.5180463e-05 0.009007668 9.8186254e-05 -1.489826e-05 -0.5349087 -8.284419e-05 6.9082096e-05
3.7905316e-05 0.00015003076 0.000113662834 -5.991102e-05 2.533053e-06 -8.005556e-05 0.00014368958 -0.00017001828
00000000: 3277 95b7 9d7d 9738 1231 a7b8 56dc 2fb9
00000010: 3af7 08b8 ac95 f33e 2bf7 22b7 4de7 8db8
00000020: d8df 1538 0353 e735 2a60 37b8 a3d1 5238
00000030: cf4b ab38 984d 33be b439 5e39 e9bb 1ab7
00000040: 474e d6b8 f18a 2438 3462 44b8 87b9 d1b8
00000050: 73c4 a7b8 d8ee fab7 8e4a 8138 7dee 1cb9
00000060: 2885 49b8 5969 8cb8 88ec 13b9 344d 5eb7
00000070: 5cfd 3cb8 6e6b f238 8469 7638 6a29 56bf
00000080: 7f3c 1abf e748 b4b7 c297 d9b7 e7f5 d937
00000090: 363c 4537 d193 833d 9f08 beb8 603e d8b8
000000a0: 52e1 82b8 af03 99b8 4a4f ae38 e492 dfb8
000000b0: 7c3e c8b8 7d51 5abd 80bb 4539 8653 6bb8
000000c0: fc8b 8cb8 5674 5338 b018 063d 65bf f4b8
000000d0: 164c d137 a025 cdb8 45a6 38b7 d99f b3b7
000000e0: 62b4 f7b7 4543 223e 24c6 0236 8f27 69b8
000000f0: 115f e9b7 4a99 6138 e4da a137 a171 44b9
00000100: 5835 85b9 be4b 3ab8 8a98 b438 f8d0 543f
00000110: 88f3 8038 be45 0c39 4245 4038 e555 d9b7
00000120: 4dfd c3b8 c078 2139 21c3 63b8 7a75 b938
00000130: 2efc 4738 4fb8 b038 2d90 d83e 9d55 0839
00000140: 4817 b538 a23a d337 e694 133c 58e9 cd38
00000150: 8af3 79b7 c7ef 08bf a3bc adb8 2be0 9038
00000160: 86fc 1e38 9351 1d39 455e ee38 f848 7bb8
00000170: 85fd 2936 80e3 a7b8 61ab 1639 ef46 32b9

mlp_encoder.model.3.bias f4 [3]
0.113920756 -0.53853685 -6.438111e-05
00000000: 494f e93d 8ddd 09bf 5804 87b8
