online_adapt_sim/learned_models/meta_mlpt_h1_bl15/model_param.pth (torch, 3255 bytes, 4 tensors)

mlp_encoder.model.0.weight f4 [32, 6]
00000000: 5ac3 8fbe 5365 96b8 194a abb8 6917 a4bc
00000010: ff35 e938 f01d 4cba 1e86 96b8 51b2 deb8
00000020: 67be 01ba c0b3 2d38 62ff 0139 609b b0b9
00000030: 3205 a3b8 7463 6eb7 e585 4db9 264f 25b8
00000040: 410a 55b9 1fa0 2c39 d760 eab8 ebd8 8338
00000050: e925 4339 7178 41b6 9e88 f138 bde7 deb8
00000060: 3038 0339 8ebe 9c38 ae9c 67b8 6ac4 e5b7
00000070: cc0d bab8 9ccf 1839 4334 233f 46b8 7e3a
00000080: 3925 28bc f37d ca3e ea80 0d3a 973b 18bc
00000090: 34c1 8838 e794 8ab8 9cf1 c838 a99e 0eb8
000000a0: b588 7eb9 735e 92b7 a9cb d8b8 9bf3 8b38
000000b0: 3ef4 0137 428e eab8 2213 b638 4938 95b8
000000c0: 2268 ae38 f286 a7b9 66da 7c38 bb02 f0b6
000000d0: 7d05 26b9 aee8 8cb9 3402 3eb7 4cde 5fb9
000000e0: 6b46 7038 8e1e 25b7 75a4 37b8 de46 ea38
000000f0: 5d45 8039 c2b1 9e38 09d9 59b6 8b37 29b9
00000100: 6c7d 6839 2aa3 24b8 6c41 d138 0700 cd38
00000110: 3159 14b8 f312 1bb8 2ac9 f836 4b55 28b9
00000120: 1c25 d137 9abc 8d39 a65c d7b9 dff0 f33b
00000130: 4896 cf38 535d 8fb9 3703 0fb9 52fb 0d3e
00000140: ca1b b63c e4f1 cd38 24f2 8d3e 12dd 103d
00000150: adce cab8 d0ba 8f3d d774 ab38 73f8 84b8
00000160: 137e c839 f77a c437 5813 2b38 2ed7 b838
00000170: 269f 97b8 93f4 1f39 6014 7e39 b115 d338
00000180: f435 4cb8 eaff 6f39 22a9 0439 aedf e8b8
00000190: e33b fc37 75d4 eb36 4590 8438 2ea2 2639
000001a0: 7025 0339 c81d 24b9 b942 0fb7 a6a9 d8b8
000001b0: 1440 b4b9 ebf1 5dbd cee6 d2b9 3d0a 89b9
000001c0: 5684 39bf 0a6d 89b9 bdcf 1fb9 7be5 f638
000001d0: 1c98 20b9 f6f0 5738 001a 87b9 638f 6c36
000001e0: 4768 3138 3e06 2c39 9173 e737 55ce a138
000001f0: 969e e3b8 b401 1b39 a3e9 c1b8 0e32 0639
00000200: 0900 fd38 1fce 3238 4dda 0439 1fbe 2039
00000210: c7c4 4439 95d3 beb8 ef06 efb8 4bda 36b9
00000220: e4a7 3837 e86d 7e3a dc78 9a39 1553 27b9
00000230: ad65 5a36 dba9 5cb8 3790 34b9 07a1 2a39
00000240: ddd8 c5b8 31d6 5939 91a8 03b9 737f 1db9
00000250: a442 9138 ca17 f3b8 9eba b7b8 7dbd 6cb7
00000260: 2c7e 2139 87d8 0339 d243 8637 6d87 c4b7
00000270: b591 0937 ef29 11b9 7016 bcb8 7d75 8d38
00000280: cdd2 d937 7b19 15b8 d70d 1bb8 f41e 8e38
00000290: a180 ac38 97cb 0039 a181 bdb8 cd4f 8737
000002a0: 4922 fd38 7d69 adb5 7b56 85b8 5ae3 9bb6
000002b0: 8c9f 0b39 e23e c038 8fa0 cdb7 12b1 a138
000002c0: a919 5e38 db19 8eb9 7328 7b39 c436 8738
000002d0: 270c eeb8 8ecb 43b7 b99b 7939 3478 59b8
000002e0: 69cf 08b6 28e3 2bb8 76db 2f38 5d4a a0b8
000002f0: dc40 5cb8 4665 df37 05fe f238 5ef9 ddb8
-0.2807873 -7.1714305e-05 -8.167717e-05 -0.020030694 0.00011120363 -0.00077864435 -7.177539e-05 -0.00010618999
-0.00049493316 4.141382e-05 0.00012397536 -0.000336851 -7.7734134e-05 -1.4209061e-05 -0.00019600203 -3.941278e-05
-0.00020317083 0.00016462848 -0.00011176027 6.286971e-05 0.00018610772 -2.8829347e-06 0.000115172224 -0.000106289495
0.00012514065 7.474153e-05 -5.522061e-05 -2.739039e-05 -8.871741e-05 0.0001457319 0.6375162 0.000971679
-0.010262781 0.39549217 0.0005397933 -0.009291551 6.520972e-05 -6.608088e-05 9.5817464e-05 -3.4003202e-05
-0.00024274255 -1.7448538e-05 -0.00010337617 6.6734116e-05 7.745866e-06 -0.00011184487 8.682e-05 -7.1153576e-05
8.316363e-05 -0.00031953264 6.028488e-05 -7.1528752e-06 -0.00015833038 -0.0002687624 -1.13253955e-05 -0.0002134975
5.728604e-05 -9.8418805e-06 -4.3783763e-05 0.000111711895 0.00024465742 7.567137e-05 -3.246185e-06 -0.00016137787
0.00022171967 -3.9252605e-05 9.9780824e-05 9.775167e-05 -3.5369016e-05 -3.6972528e-05 7.4143945e-06 -0.00016053503
2.4932022e-05 0.00027034135 -0.00041077024 0.0074444856 9.898521e-05 -0.00027344617 -0.0001363874 0.13865402
0.022230048 9.8202174e-05 0.277238 0.03536708 -9.670607e-05 0.070180535 8.1756785e-05 -6.340528e-05
0.00038240905 2.342228e-05 4.0787592e-05 8.813884e-05 -7.229885e-05 0.00015254533 0.00024230918 0.000100653044
-4.8687638e-05 0.00022888152 0.00012651508 -0.00011104286 3.0068628e-05 7.028279e-06 6.321123e-05 0.0001589141
0.0001250708 -0.00015651353 -8.538999e-06 -0.00010331282 -0.00034380017 -0.05418579 -0.00040226284 -0.00026138304
-0.72467554 -0.00026211917 -0.0001524081 0.00011772938 -0.00015315454 5.1484407e-05 -0.00025768578 3.5250202e-06
4.2297204e-05 0.00016405524 2.759116e-05 7.7155106e-05 -0.000108537424 0.00014782586 -9.2464754e-05 0.00012797883
0.00012063987 4.2630472e-05 0.00012669824 0.00015329615 0.00018765322 -9.099316e-05 -0.000113976996 -0.00017438193
1.1006345e-05 0.00097057084 0.00029463216 -0.00015957312 3.2543714e-06 -5.2610278e-05 -0.00017219862 0.00016272451
-9.434086e-05 0.00020774525 -0.0001255593 -0.00015020165 6.9265516e-05 -0.00011591574 -8.76088e-05 -1.4110815e-05
0.00015401159 0.00012573796 1.6005626e-05 -2.3428083e-05 8.199761e-06 -0.00013843899 -8.968718e-05 6.745288e-05
2.5966578e-05 -3.55481e-05 -3.696777e-05 6.776853e-05 8.225558e-05 0.00012282874 -9.0363676e-05 1.6130414e-05
0.00012070366 -1.2920206e-06 -6.3580424e-05 -4.645827e-06 0.00013315509 9.166986e-05 -2.451267e-05 7.71006e-05
5.2952822e-05 -0.00027103614 0.00023952294 6.4475025e-05 -0.00011350988 -1.16702995e-05 0.00023804502 -5.184878e-05
-2.0386308e-06 -4.0981133e-05 4.192764e-05 -7.643246e-05 -5.2512492e-05 2.663083e-05 0.00011586774 -0.000105845495

mlp_encoder.model.0.bias f4 [32]
00000000: 3de0 3b3e 75f5 11b7 176e 4bba ec02 55b8
00000010: 0b5c 8537 fa46 7d37 f6eb 0f38 00e1 17b8
00000020: f071 003d 96a6 3eb8 b170 81b8 6565 f736
00000030: 845d 163e d303 76be d443 133e b74f 3f39
00000040: 8569 8bb8 773a bc38 37b9 ecb9 ee17 a3b8
00000050: abad 7bb7 7529 63b6 07ac ffbd c32d 5cb8
00000060: f472 81b8 d4df 0bb8 1f8f a23d cc10 ae38
00000070: 9760 0639 02b5 07be 3bab 0539 3920 b43d
0.18347259 -8.699823e-06 -0.000776024 -5.078588e-05 1.5897696e-05 1.5096501e-05 3.4313613e-05 -3.6210753e-05
0.03135866 -4.5454675e-05 -6.17219e-05 7.3729775e-06 0.14684111 -0.24024896 0.14381343 0.00018244876
-6.647691e-05 8.9754285e-05 -0.00045151424 -7.776903e-05 -1.5001201e-05 -3.3849767e-06 -0.124839835 -5.2494706e-05
-6.172611e-05 -3.334864e-05 0.079374544 8.300095e-05 0.00012815218 -0.13252643 0.00012747657 0.087952085

mlp_encoder.model.3.weight f4 [3, 32]
00000000: 31d0 5b3e 7d35 1bb7 3535 7ab7 b230 5e36
00000010: df16 5cb5 027e 02b9 3ab2 b6b8 0563 57b9
00000020: 7ce2 4cb8 6bda 2ab5 de0c 7ab8 cb48 6eb8
00000030: 7001 dbb8 7a8f e53d 35ab 683e 74d2 8eb8
00000040: 187b d0b7 21eb e037 5231 64bf fb1e 3338
00000050: cef7 3bb9 fea9 9137 9dd2 0539 8fd5 8cb8
00000060: 7b2e 8938 1867 1fb8 0084 10b8 320f a3b8
00000070: 11a5 e135 8c1b 0fb9 fdad 4538 87d4 47b6
00000080: 97c2 0db8 dab8 78bd b9c0 3f35 77d5 a938
00000090: 0446 b0b7 d3f8 1bbf 9d25 e1b8 2f24 3b38
000000a0: 9d8c b636 f33a 6537 9664 54b8 e02b 2cb7
000000b0: d50b 21be ad5b 343e c803 d6bc 4764 e9b7
000000c0: f797 6b38 dcf3 a1b7 7d93 45ba 4ca8 0d38
000000d0: f768 2238 da30 3cb7 84ba 203e a656 ad38
000000e0: 4b9a 8e38 d4e1 a0b5 7b18 5237 bcb2 87b8
000000f0: c4e0 5237 77bf 8c3d 91b3 0438 7a6b efb7
00000100: 9015 6f3e 8464 0138 e64b 0e37 4558 d03c
00000110: fb28 58b7 b1bf 11bf 2975 64b7 6d25 44b8
00000120: 76cd ef3d 0d11 5b37 1a8f 27b7 d993 0fb8
00000130: b2c8 2239 f63c b4be e776 68b8 765d 53b8
00000140: e6dd 9335 bf2f 2c38 efc5 af3e 8dfc b4b7
00000150: 7526 20b8 26d5 5538 0c63 17b8 634b 44b7
00000160: e70a 74b7 e4d1 73b8 ae5d 9e37 a776 9336
00000170: f342 1535 19b4 48bd 9874 5238 7c55 d338
0.21466137 -9.251174e-06 -1.4913549e-05 3.3108922e-06 -8.198967e-07 -0.00012444708 -8.7116336e-05 -0.00020540885
-4.884832e-05 -6.3647775e-07 -5.961663e-05 -5.6811416e-05 -0.000104430015 0.112090066 0.2272156 -6.8102876e-05
-2.4852852e-05 2.6812371e-05 -0.89137757 4.270578e-05 -0.00017926024 1.7364506e-05 0.00012762328 -6.7154986e-05
6.541327e-05 -3.8004568e-05 -3.445521e-05 -7.775276e-05 1.6811847e-06 -0.00013647805 4.71305e-05 -2.9777018e-06
-3.3798246e-05 -0.060723163 7.1433493e-07 8.098309e-05 -2.1013439e-05 -0.6092655 -0.00010735842 4.4617973e-05
5.440392e-06 1.3663189e-05 -5.0638417e-05 -1.0262214e-05 -0.1572717 0.17613097 -0.02612485 -2.782246e-05
5.6169894e-05 -1.9306251e-05 -0.0007536931 3.377376e-05 3.8721566e-05 -1.1217047e-05 0.1569615 8.2654224e-05
6.799827e-05 -1.1986654e-06 1.2522675e-05 -6.4705935e-05 1.2569308e-05 0.068724565 3.1638487e-05 -2.8541068e-05
0.23348069 3.084961e-05 8.481531e-06 0.025432715 -1.2884145e-05 -0.5693312 -1.36171375e-05 -4.6764897e-05
0.117091104 1.3057387e-05 -9.987294e-06 -3.423155e-05 0.00015524289 -0.3520276 -5.5423847e-05 -5.0393362e-05
1.1016934e-06 4.1052463e-05 0.343307 -2.1575275e-05 -3.818279e-05 5.0981667e-05 -3.609345e-05 -1.1700063e-05
-1.4546072e-05 -5.813119e-05 1.887869e-05 4.3947543e-06 5.560425e-07 -0.04899988 5.0176488e-05 0.00010077187

mlp_encoder.model.3.bias f4 [3]
00000000: 86d3 313e d134 9ebe 3ea1 363e
0.17365846 -0.3089967 0.17834947
