online_adapt_sim/learned_models/meta_mlpt_h0_bl15/model_param.pth (torch, 2871 bytes, 4 tensors)

mlp_encoder.model.0.weight f4 [32, 3]
00000000: a7f5 05b9 1bca 50b7 35d1 13b9 d3fc 9939
00000010: d1fb 1339 b7cb 0c39 9165 3fb7 1de0 9bb9
00000020: 5ad3 e0b8 1bf9 2738 2f0d e6b8 ca1e c437
00000030: 116d e4b8 4fc0 41b9 aab5 99b6 a19a 9038
00000040: 4b90 28b9 97fc 56b6 910f 37b8 bfbc b0b7
00000050: 7c7c 8fb9 edef 2bb8 e79e 33b7 a8b8 41b8
00000060: ba6d ecb9 d723 4039 9008 cf3e 594b b839
00000070: a2f1 93b8 6fc7 1b39 3876 c4b8 984d 2c38
00000080: f27a 0b38 72f2 b238 b433 c6b9 eeb9 5bb9
00000090: f8ed 03b9 a0b7 2ab9 f9c5 1039 2ae8 95b8
000000a0: 01d5 1337 783d 32b9 e61a 27b9 2d35 8738
000000b0: cd06 2bb8 c676 2d38 f880 bd39 63f4 3fb9
000000c0: 70da ca38 0984 cc38 c30e c638 1fd3 b9b8
000000d0: 61eb 29b9 a5ac 14b8 4d5b 8d38 7a12 ef39
000000e0: 57ee aab8 4408 96bd ff3a 243f bfb3 a539
000000f0: 477a 62b6 f60b 3439 2aab e6b8 fc6f c8b8
00000100: 03ab 1bb9 6e5b 0eb7 00d2 1139 d1c8 4639
00000110: 3c78 2039 01bd 99b8 51f3 0339 971b c2b7
00000120: 2398 e4b8 b129 67b8 3d58 31b9 8fd0 8fb9
00000130: 6ef2 1ab9 ae84 5cb9 cfdb 2eb9 86a4 4f37
00000140: 8bae 22b8 0e9e 7d38 fb7a 7bb8 dbac 2cb9
00000150: e23a 2b39 f50f 6b38 d88c d938 3e48 65b9
00000160: a27a be37 e58d 9237 8e5d a339 e00c ffb8
00000170: e776 ccb8 1bf0 59bf 52d7 b2b9 7b65 413e
-0.00012775381 -1.24448225e-05 -0.00014096948 0.00029370803 0.00014112821 0.0001342733 -1.1408135e-05 -0.0002973088
-0.0001072052 4.00479e-05 -0.0001096971 2.3379358e-05 -0.000108922024 -0.00018477555 -4.580904e-06 6.895257e-05
-0.00016075482 -3.2035512e-06 -4.3645097e-05 -2.1068727e-05 -0.00027367834 -4.0993025e-05 -1.0706229e-05 -4.618676e-05
-0.0004509518 0.00018323898 0.4043622 0.00035151353 -7.054514e-05 0.00014856247 -9.368028e-05 4.108026e-05
3.3254684e-05 8.5328604e-05 -0.00037804025 -0.00020954732 -0.00012581784 -0.00016280869 0.0001380666 -7.1481176e-05
8.811477e-06 -0.00016998302 -0.00015936382 6.4472064e-05 -4.077591e-05 4.135703e-05 0.00036144978 -0.0001830622
9.672798e-05 9.7520715e-05 9.444125e-05 -8.860812e-05 -0.00016204781 -3.5446737e-05 6.74041e-05 0.00045599398
-8.150626e-05 -0.07325795 0.6415252 0.00031605174 -3.37478e-06 0.00017170593 -0.000109991364 -9.557602e-05
-0.00014845659 -8.485147e-06 0.00013906509 0.00018957561 0.0001530358 -7.330813e-05 0.00012583776 -2.313945e-05
-0.00010900225 -5.511352e-05 -0.00016912907 -0.00027430474 -0.00014776897 -0.00021030262 -0.00016675818 1.2376468e-05
-3.8786366e-05 6.04671e-05 -5.9957598e-05 -0.00016467592 0.00016329766 5.6043227e-05 0.000103736005 -0.00021866054
2.270687e-05 1.7470631e-05 0.00031159486 -0.00012161746 -9.749625e-05 -0.85131997 -0.00034111232 0.18886368

mlp_encoder.model.0.bias f4 [32]
00000000: 8ca0 1db9 b593 fdb8 93ba 71b8 6f71 4db9
00000010: 27f8 1737 7e9f 4db9 570f 2138 8840 a238
00000020: f607 8bbe 064b e7b8 5b22 8db8 e830 c738
00000030: da95 bab8 ae90 cc38 0e21 eab7 82a2 b1b7
00000040: e9ab 9eb8 abc4 b9b9 a520 44b9 96b8 1639
00000050: 9fbe c338 af2e 53b8 6e46 4438 e9ce 76b8
00000060: 6514 0ab9 cd1f 1838 62d0 ac38 cd4d 8bb8
00000070: 89c0 03ba f300 b9b8 9013 cf38 e0f0 9738
-0.00015032495 -0.00012091493 -5.763264e-05 -0.00019592581 9.058079e-06 -0.00019609739 3.8399678e-05 7.736782e-05
-0.2715451 -0.000110289126 -6.729803e-05 9.498169e-05 -8.897083e-05 9.754427e-05 -2.7910366e-05 -2.1175718e-05
-7.566048e-05 -0.0003543248 -0.00018704178 0.00014373878 9.3338305e-05 -5.0349798e-05 4.6795634e-05 -5.884367e-05
-0.00013168303 3.626924e-05 8.2404134e-05 -6.642528e-05 -0.00050259434 -8.821664e-05 9.874173e-05 7.2451076e-05

mlp_encoder.model.3.weight f4 [3, 32]
00000000: f535 4938 3607 45b9 7106 86b8 a9b0 2638
00000010: a48c 4838 a647 e4b8 34a1 4ab8 e1d7 2439
00000020: b1b3 82b9 3705 01b9 8231 c5b8 b78d 5238
00000030: 1967 8738 9384 bdb8 1be2 8ab8 965d ab38
00000040: fdcc a4b8 0a83 6138 c985 9ab8 20d3 60b9
00000050: 7329 25b9 2711 a338 12a4 4039 f491 c3b8
00000060: cf58 3638 e27b b8b6 6ceb aa37 4698 11b9
00000070: 00e7 cdb9 1d38 91b8 60b9 b337 5d9b ab3f
00000080: 8d79 8438 6601 3738 20c2 90b8 c26c af38
00000090: a3c4 8a39 93c9 b7b8 25dc 45b9 537b 5239
000000a0: d224 42ba 689e e138 43b1 18b9 7dc0 1d39
000000b0: bfda 65b8 4dd0 dcb8 73ce 1bb9 273e 27b9
000000c0: 0a1e 61b8 5599 13b9 d22b 4a39 c9f6 b03f
000000d0: b340 64b9 53d2 4a38 5787 c2b7 7646 8339
000000e0: bb7e 41b9 189e 4736 174a a038 ec18 43b9
000000f0: 7f8f 8bb8 549d 53b6 31bd 46b9 f267 84b9
00000100: 0fbb 78b9 c444 16b8 2599 df37 a0ac 1439
00000110: a5ef 84b7 992f 79b8 0f67 67b7 6b50 a4b8
00000120: 9e8c 3e3f 077f ff35 cef6 4db8 62a7 6ab9
00000130: a731 cab7 db8b a037 1e5a 9237 bf94 82b8
00000140: 7170 1fb9 b217 ae38 8f13 27b7 4376 0b39
00000150: d41d 2e39 65f6 4437 100c dfb7 ac10 5db7
00000160: 05ee 9cb9 c043 bb38 c95d 6238 853d 0db8
00000170: 8fed 4db8 9d9b e0b8 24a6 06b9 7988 6f39
4.7972386e-05 -0.0001879007 -6.390818e-05 3.974201e-05 4.7814698e-05 -0.00010885233 -4.8310685e-05 0.0001572068
-0.00024929413 -0.00012304341 -9.4029136e-05 5.0199884e-05 6.456505e-05 -9.036916e-05 -6.622468e-05 8.171347e-05
-7.8583114e-05 5.376622e-05 -7.368212e-05 -0.00021440955 -0.00015751067 7.7756406e-05 0.00018371668 -9.3255105e-05
4.347489e-05 -5.498049e-06 2.0375206e-05 -0.00013885004 -0.00039272755 -6.924591e-05 2.1424785e-05 1.3406788
6.316891e-05 4.3631902e-05 -6.902614e-05 8.364908e-05 0.00026467917 -8.763666e-05 -0.00018869394 0.00020073102
-0.00074059993 0.000107583415 -0.00014561885 0.00015044394 -5.4801578e-05 -0.000105292165 -0.0001485886 -0.00015949515
-5.3672156e-05 -0.00014076133 0.00019280546 1.3825313 -0.00021767877 4.8356433e-05 -2.3189625e-05 0.00025038765
-0.00018453125 2.9745333e-06 7.643195e-05 -0.00018605933 -6.654765e-05 -3.1533027e-06 -0.00018953231 -0.00025254447
-0.00023720808 -3.582683e-05 2.6654985e-05 0.00014178688 -1.584722e-05 -5.9410555e-05 -1.3792668e-05 -7.8351084e-05
0.74433315 1.903595e-06 -4.9105663e-05 -0.00022378334 -2.4103398e-05 1.9138612e-05 1.744652e-05 -6.226589e-05
-0.0001520531 8.30138e-05 -9.9585295e-06 0.00013300129 0.00016605045 1.1739879e-05 -2.6589289e-05 -1.3176508e-05
-0.00029931977 8.929474e-05 5.3969943e-05 -3.3674314e-05 -4.9097052e-05 -0.000107101376 -0.00012841128 0.00022843656

mlp_encoder.model.3.bias f4 [3]
00000000: d7a7 da38 3e12 9c38 7be2 23bf
0.00010426313 7.4420575e-05 -0.64017457
