online_adapt_sim/learned_models/meta_mlpt_h5_bl20/model_param.pth (torch, 4791 bytes, 4 tensors)

mlp_encoder.model.0.weight f4 [32, 18]
0	0xb87c1cd3	-6.0108327e-05
1	0xb714a32c	-8.859479e-06
2	0x394a18de	0.00019273485
3	0xb98bd620	-0.00026671682
4	0x373c7c94	1.1234679e-05
5	0x374c9e69	1.219623e-05
6	0xb949f5b8	-0.00019260391
7	0xb70caf98	-8.385534e-06
8	0xb82d8fdd	-4.1380397e-05
9	0xb75d31de	-1.3184237e-05
10	0x388062b7	6.121903e-05
11	0x388165b7	6.170145e-05
12	0xb98dffdc	-0.00027084246
13	0xb804c2bb	-3.165261e-05
14	0xb8eb0c9b	-0.00011208021
15	0x38ccf620	9.7733224e-05
16	0x38a1e182	7.719082e-05
17	0x390c77be	0.00013396048
18	0x36984da5	4.538992e-06
19	0xb90aaa22	-0.00013224085
20	0xb83eb399	-4.5466793e-05
21	0x37103507	8.595415e-06
22	0x39130d3c	0.00014023943
23	0x378e5642	1.6967886e-05
24	0x38bc4a08	8.978328e-05
25	0xb822ef5b	-3.8846727e-05
26	0xb907bd6f	-0.00012945173
27	0x3888b3d4	6.518481e-05
28	0x37922183	1.7420161e-05
29	0x393cc26f	0.0001800151
30	0x38fbc1d7	0.00012004718
31	0xb7601ce2	-1.3358165e-05
32	0xb89d470d	-7.4995776e-05
33	0xb92bc4da	-0.00016381164
34	0x39d09a98	0.00039788033
35	0x3810973f	3.4473134e-05
36	0xb969aeec	-0.00022285775
37	0xbe3bffaa	-0.18359247
38	0xb72534a4	-9.847023e-06
39	0x390d871d	0.00013497141
40	0xb8aa3d86	-8.117691e-05
41	0x38180d1e	3.625184e-05
42	0xb9916084	-0.00027728465
43	0x3883c259	6.282767e-05
44	0x37ebc34e	2.8105129e-05
45	0xba89868b	-0.0010492367
46	0xb91ee314	-0.00015152647
47	0x39d16290	0.0003993702
48	0xbb963997	-0.004584502
49	0xb8142670	-3.5321747e-05
50	0xb9709bb2	-0.00022946185
51	0xbe82bade	-0.25533193
52	0x37a44612	1.9582953e-05
53	0x381f30d3	3.7954025e-05
54	0x3918f8bc	0.0001458851
55	0xb841bc93	-4.619041e-05
56	0xb78238eb	-1.5523712e-05
57	0x39923d89	0.00027893137
58	0x3885867d	6.3669846e-05
59	0xb915fa77	-0.00014303053
60	0xb89fd75a	-7.621823e-05
61	0xb848eb77	-4.790301e-05
62	0xb89a478c	-7.356619e-05
63	0xb954f907	-0.00020310665
64	0x3881d713	6.19126e-05
65	0xb95014f1	-0.00019844227
66	0x37957dec	1.7820821e-05
67	0x3989b403	0.00026264795
68	0x395eccdb	0.00021247884
69	0x399d2cce	0.00029978756
70	0x38489f63	4.7832156e-05
71	0xb9144ae9	-0.00014142286
72	0x3945e4a8	0.00018872565
73	0x38de597b	0.00010602452
74	0x395339be	0.00020144039
75	0xb8768621	-5.8775888e-05
76	0xb8d313f4	-0.000100649806
77	0x36c5880e	5.8868964e-06
78	0xb90942fc	-0.00013090292
79	0xb9075a03	-0.00012908135
80	0x38ccd3aa	9.7669035e-05
81	0xb84a95bd	-4.8300008e-05
82	0xb8c3953b	-9.326121e-05
83	0xb834debf	-4.3122793e-05
84	0xb6e5b7a1	-6.846109e-06
85	0x3899c82c	7.3328934e-05
86	0xb93bbff1	-0.00017905213
87	0x3791bbbd	1.737277e-05
88	0xb7ebc9f9	-2.8108234e-05
89	0x390fb3b0	0.00013704482
90	0x388acb9f	6.61828e-05
91	0xb8b59560	-8.658576e-05
92	0xb910d0c6	-0.00013810684
93	0xb7adfc4b	-2.074069e-05
94	0xb8845bce	-6.3113504e-05
95	0xb88409d0	-6.296078e-05
96	0xb898cd96	-7.286218e-05
97	0xb7d8d1e2	-2.584694e-05
98	0xb8c92090	-9.590492e-05
99	0xb9a8129a	-0.00032057316
100	0xb8b1939f	-8.467514e-05
101	0xb9922065	-0.00027871426
102	0x3764b137	1.363112e-05
103	0x3724f4f8	9.832198e-06
104	0x388d60de	6.741447e-05
105	0xb8837f52	-6.270282e-05
106	0xb92d4565	-0.00016524417
107	0x3628ec37	2.5171446e-06
108	0x39331df7	0.00017081933
109	0xb8d616be	-0.00010208551
110	0x3923ffcc	0.00015640183
111	0x3854f677	5.0774277e-05
112	0x37a53305	1.969329e-05
113	0x388c4206	6.688018e-05
114	0xb8128b72	-3.493898e-05
115	0xb93eee89	-0.00018208673
116	0x3815923e	3.5660567e-05
117	0xb8b19640	-8.468004e-05
118	0x3802f57d	3.1223044e-05
119	0xb9519823	-0.00019988469
120	0x3907417f	0.00012899002
121	0xb857c9ba	-5.1447867e-05
122	0xb6a8fc53	-5.0361646e-06
123	0x39162180	0.00014317594
124	0x38ac9386	8.2290775e-05
125	0xb8e5ada7	-0.00010951916
126	0xb93f74c6	-0.00018258681
127	0x3893f826	7.0557275e-05
128	0xb924be64	-0.00015711185
129	0x37cf03b3	2.4678046e-05
130	0xb9d4b41b	-0.0004056998
131	0x394424d5	0.00018705738
132	0x36138bab	2.1986004e-06
133	0x37ee310a	2.8394647e-05
134	0xb64ce175	-3.0529602e-06
135	0x36a666e1	4.959162e-06
136	0x3906d730	0.000128594
137	0x3924cca7	0.00015716498
138	0xb88c8a17	-6.7014415e-05
139	0x3911f958	0.00013921165
140	0x3868de9e	5.552044e-05
141	0x38eacf3e	0.000111965914
142	0xb73559c5	-1.0809342e-05
143	0xb5919a7f	-1.0848306e-06
144	0x39a1123c	0.000307219
145	0xb9c7b3a8	-0.00038090092
146	0x3727c173	9.999017e-06
147	0x3951008c	0.00019931997
148	0xb9e6bd0e	-0.00044009875
149	0xb845e0dd	-4.717788e-05
150	0x39060c79	0.00012783882
151	0xb98fe677	-0.00027446795
152	0x381f146b	3.792757e-05
153	0x392477ae	0.00015684843
154	0xb9f2b63d	-0.00046293615
155	0x37ac43b8	2.0535532e-05
156	0x38ee1102	0.00011351892
157	0xbe0ca7d0	-0.1373589
158	0xb9a0df77	-0.00030684072
159	0xb96bc73d	-0.00022485568
160	0xbe87943d	-0.26480284
161	0xb7ca6762	-2.4128418e-05
162	0x38ade483	8.2918465e-05
163	0xb708d929	-8.156793e-06
164	0x39038539	0.00012542763
165	0xb8b3c28e	-8.571624e-05
166	0x359812bd	1.1330336e-06
167	0xb81e7a38	-3.778396e-05
168	0x398eded7	0.0002725038
169	0x38dafc24	0.00010442015
170	0xb935081a	-0.00017264523
171	0x39316391	0.00016917127
172	0x3754a72b	1.26751065e-05
173	0xb8a76624	-7.982206e-05
174	0x39605657	0.00021394469
175	0x38b59dc9	8.660142e-05
176	0xb92e099f	-0.00016597517
177	0x37d25348	2.5072732e-05
178	0xb8591a57	-5.1761363e-05
179	0x390b61d8	0.00013292523
180	0x388146ec	6.1644096e-05
181	0x3939dc6c	0.00017725088
182	0xb956def8	-0.00020491693
183	0x378f6c7c	1.7097445e-05
184	0x384f1f03	4.9381528e-05
185	0x39108d57	0.00013785563
186	0xb90ef641	-0.00013633912
187	0xb8f11b66	-0.00011496879
188	0x398572e7	0.00025453346
189	0xb8463f69	-4.7265934e-05
190	0x382151b2	3.8461476e-05
191	0xb84e23aa	-4.9147442e-05
192	0x3942fc0f	0.00018595181
193	0x38efd6a3	0.00011436387
194	0xb889e498	-6.575248e-05
195	0x3844def5	4.6937686e-05
196	0x38846121	6.312342e-05
197	0x382e83e5	4.160767e-05
198	0xb90d641e	-0.00013484104
199	0xb92cd23b	-0.00016481515
200	0x385c858d	5.2576466e-05
201	0xb87385fd	-5.80605e-05
202	0xb78acc32	-1.6545968e-05
203	0x3803233d	3.1265652e-05
204	0xb9197dfb	-0.00014638148
205	0xb82163a5	-3.8478192e-05
206	0xb9462a15	-0.00018898428
207	0xb8053e4a	-3.1767682e-05
208	0xb844fb21	-4.6963924e-05
209	0x39631f0b	0.00021659971
210	0xb5b04571	-1.3133232e-06
211	0xb84b5e1a	-4.848661e-05
212	0xb907f792	-0.0001296683
213	0xb941d438	-0.00018484972
214	0xb94862e3	-0.00019110325
215	0x39cfbd9a	0.0003962338
216	0x38ef15c6	0.00011400464
217	0xb92ae09b	-0.00016296135
218	0xb92cb1d1	-0.0001646944
219	0x38fde6e8	0.0001210699
220	0xb8f64d36	-0.00011744576
221	0x37851559	1.5864776e-05
222	0x38d3d201	0.0001010038
223	0xb98884d7	-0.00026038915
224	0x3922fe49	0.00015544253
225	0xb995f529	-0.00028602153
226	0xb820fce7	-3.8382506e-05
227	0x38b3daa3	8.5761094e-05
228	0x3933a9fe	0.00017134097
229	0x38c72795	9.496432e-05
230	0x36eaee1b	7.0014626e-06
231	0x38021b5e	3.1019903e-05
232	0x38b84615	8.7868575e-05
233	0xb99679b3	-0.00028700902
234	0xb8b83782	-8.784143e-05
235	0x398c09ad	0.0002671009
236	0xb90eef60	-0.0001363135
237	0x38b350e9	8.550456e-05
238	0x38309066	4.209615e-05
239	0x38ce1102	9.8260134e-05
240	0x3904584a	0.00012621391
241	0x37f68fd6	2.9392464e-05
242	0x3869755d	5.5660832e-05
243	0xb7d2e5b2	-2.5140911e-05
244	0xb8fba397	-0.00011999084
245	0x38bdf18a	9.0572124e-05
246	0x39a47b8c	0.00031372567
247	0x38e0858d	0.00010706028
248	0xb90667cf	-0.00012817908
249	0x381aa6f6	3.6871956e-05
250	0x39bb5d2b	0.00035736835
251	0x3938ff41	0.00017642697
252	0x381637de	3.5814817e-05
253	0xb8e18d98	-0.0001075521
254	0xb99248ec	-0.0002790162
255	0x38342a99	4.2955016e-05

mlp_encoder.model.0.bias f4 [32]
0	0x396c3349	0.00022525819
1	0xb8173e6c	-3.605934e-05
2	0xba2e7d16	-0.00066562125
3	0xb934bfd8	-0.00017237605
4	0xb8a1f9e4	-7.723624e-05
5	0xb976ff00	-0.00023555383
6	0xb91515fd	-0.00014217939
7	0x370f6e4a	8.549143e-06
8	0xb92f7fb9	-0.00016736881
9	0x38301851	4.1984316e-05
10	0xb88dbeeb	-6.758965e-05
11	0xb838b735	-4.4039643e-05
12	0xb8bff6e9	-9.15358e-05
13	0x3804ff91	3.1709267e-05
14	0xb8efdb4b	-0.000114372546
15	0x385c81fd	5.257315e-05
16	0xb742cc46	-1.1610862e-05
17	0x386ffbfc	5.721672e-05
18	0x382b48be	4.0837323e-05
19	0xbe1f4c39	-0.1555642
20	0x38173ce0	3.60579e-05
21	0xb8a5873b	-7.893002e-05
22	0xb653ecb1	-3.1579223e-06
23	0x38f24733	0.00011552721
24	0x39daad0b	0.00041709127
25	0x38e7f44c	0.00011060442
26	0xb7e4a088	-2.7254471e-05
27	0xb9cf34c0	-0.00039521419
28	0xb8846374	-6.312775e-05
29	0xb81947ad	-3.6544796e-05
30	0x39255c70	0.00015770062
31	0x391541f0	0.00014234311

mlp_encoder.model.3.weight f4 [3, 32]
0	0x37673689	1.378137e-05
1	0xb86f4e77	-5.7055116e-05
2	0x3e1790a9	0.14801277
3	0xbd7e67c7	-0.06211069
4	0x3726a72f	9.9332965e-06
5	0x38246701	3.9196577e-05
6	0xb7c56a0f	-2.3533617e-05
7	0x38d3c0cd	0.00010097176
8	0x3e063503	0.1310616
9	0xb80fe77b	-3.430944e-05
10	0xb901bf4d	-0.00012373664
11	0x37a53743	1.9695266e-05
12	0x3852a1ee	5.021871e-05
13	0x36d38c54	6.3046264e-06
14	0xb75fc64e	-1.3338007e-05
15	0x3ecdff92	0.40234047
16	0xb54daee9	-7.662298e-07
17	0x3e71466e	0.23562023
18	0x37d8f4f3	2.586327e-05
19	0xbf169ee5	-0.58836204
20	0xb8a4da13	-7.860749e-05
21	0xb9e01cac	-0.00042745972
22	0x35b79ce4	1.3680224e-06
23	0x38b5c9a2	8.6683096e-05
24	0x3666de49	3.4402058e-06
25	0xb8935400	-7.0251524e-05
26	0x36899638	4.100406e-06
27	0x346301b9	2.1141649e-07
28	0xb806637a	-3.2040734e-05
29	0xb8d4da2f	-0.000101495876
30	0x381cd67b	3.739305e-05
31	0xb7ccd5cd	-2.4418254e-05
32	0xb8399b98	-4.4252345e-05
33	0x38125c91	3.489532e-05
34	0x382b918c	4.0905128e-05
35	0x390af980	0.00013253652
36	0xb777450f	-1.4738426e-05
37	0x37f53adb	2.9233683e-05
38	0xb8b769a2	-8.745796e-05
39	0xb6a2c1ad	-4.850523e-06
40	0xbef1ae73	-0.47203407
41	0x36adc410	5.1786265e-06
42	0x383673c6	4.3500004e-05
43	0xb83f0901	-4.5546334e-05
44	0x38e1a82d	0.00010760161
45	0x382fe3c6	4.1935382e-05
46	0x37eff899	2.8606783e-05
47	0x37b5af9e	2.165866e-05
48	0x3867c190	5.525496e-05
49	0x39f15eda	0.00046037772
50	0x390c4999	0.00013378858
51	0xb7c137b2	-2.3033328e-05
52	0xbf38eaa7	-0.7223305
53	0x3d7cef31	0.06175155
54	0x38188bbf	3.6369773e-05
55	0x38d5af70	0.00010189309
56	0x38bf42d6	9.120039e-05
57	0xb74f0562	-1.2339415e-05
58	0xb875743f	-5.8520814e-05
59	0x3923240f	0.00015558324
60	0x38cda730	9.806303e-05
61	0x392c47a8	0.00016429892
62	0xb9468024	-0.00018930488
63	0xb8984de8	-7.262436e-05
64	0x38ddb93d	0.000105726045
65	0xb7b4b0e3	-2.1540041e-05
66	0xbed0d253	-0.40785465
67	0x374c2b80	1.2169476e-05
68	0x3787f9dc	1.6209604e-05
69	0x3883b0c3	6.279491e-05
70	0xb881c896	-6.1885614e-05
71	0xb90f2178	-0.00013650011
72	0x38035ef7	3.1321277e-05
73	0x3de10a2f	0.109882705
74	0x37ce24bc	2.457422e-05
75	0xb682df4e	-3.900298e-06
76	0xb930ef88	-0.000168739
77	0xb8111443	-3.4589564e-05
78	0x385568cc	5.0880757e-05
79	0xbea04a5a	-0.31306726
80	0xb7fabad2	-2.9889317e-05
81	0xbe3eeca4	-0.18644959
82	0xb7f6918f	-2.9393266e-05
83	0xb85e79e3	-5.304244e-05
84	0x37bc931f	2.2479855e-05
85	0xb84f033d	-4.935566e-05
86	0x3868cfb7	5.550656e-05
87	0xb70f139b	-8.528029e-06
88	0xb769e537	-1.39412505e-05
89	0x3944980f	0.00018748663
90	0x37ffb39b	3.0482004e-05
91	0x383743d4	4.369377e-05
92	0xb8747a29	-5.8287904e-05
93	0xb9420ffc	-0.00018507236
94	0xb836ffb0	-4.363031e-05
95	0xb88b4f5f	-6.6428205e-05

mlp_encoder.model.3.bias f4 [3]
0	0x3e5f523f	0.21808718
1	0x3cc59339	0.024118053
2	0x3ed4a297	0.41530296
