online_adapt_sim/dynamics/model_param.npy (npy, 12224 bytes, 1 tensors)

array f4 [3024, 1]
0	0xbad33652	-0.0016114211
1	0xbedb2fd3	-0.42809924
2	0x3e0f4706	0.13991937
3	0xbae0db42	-0.0017155188
4	0x390afa8d	0.00013254043
5	0x39214dac	0.00015383092
6	0x3d767877	0.060173478
7	0x3b803b38	0.0039133094
8	0xbdf5ab90	-0.119956136
9	0x3a586c6a	0.0008255901
10	0x3fa82bae	1.313833
11	0x3b0ddc54	0.0021646218
12	0x3c5f680e	0.013635648
13	0x3dcf7cad	0.10131202
14	0xbe02ded0	-0.12780309
15	0xbf3d0bc2	-0.73846066
16	0x3ac15e6b	0.001475287
17	0xbaa50377	-0.0012589534
18	0xbbd5663f	-0.006512433
19	0xbd296d25	-0.041363854
20	0xbe4e39ff	-0.20139311
21	0x3f80023f	1.0000685
22	0x3b6e416c	0.0036354912
23	0x391a664c	0.00014724693
24	0xb7a7dc98	-2.0010673e-05
25	0x3932ab98	0.00017039326
26	0xb887a78d	-6.4685104e-05
27	0x38205970	3.8230268e-05
28	0xb72e1df5	-1.0378183e-05
29	0x388af8f3	6.626723e-05
30	0x3951a7ea	0.00019994346
31	0x398fa61b	0.00027398844
32	0x39344f7c	0.00017195748
33	0xb92c1444	-0.00016410748
34	0x3870fed5	5.745779e-05
35	0xb78af885	-1.6566608e-05
36	0x38d1d9e9	0.000100064855
37	0x387c4ac2	6.0151106e-05
38	0xb87aef76	-5.982766e-05
39	0xb947d4a5	-0.00019057335
40	0x393d8db7	0.00018077237
41	0xb90c1ba0	-0.00013361732
42	0xb764fa8c	-1.3648194e-05
43	0x3653b21a	3.154512e-06
44	0x37c2df32	2.3230536e-05
45	0xb86aeb73	-5.6009227e-05
46	0x388f21ca	6.825065e-05
47	0xb916e0db	-0.0001438888
48	0x390b8117	0.00013304163
49	0xb911fe52	-0.0001392302
50	0x3885d272	6.381133e-05
51	0xb8d6eb42	-0.000102481354
52	0x38e2c06a	0.0001081236
53	0xb90b0b93	-0.00013260385
54	0xbddc4449	-0.10755212
55	0x37d5080b	2.5395324e-05
56	0x3d8c883d	0.06861923
57	0xbaf257ac	-0.0018489263
58	0x3f609a4a	0.87735426
59	0xbb6d6db9	-0.003622873
60	0x38970e3c	7.2028924e-05
61	0xb70361a5	-7.830943e-06
62	0x38054248	3.17714e-05
63	0x393e4645	0.0001814599
64	0xb88f3613	-6.8288435e-05
65	0x38a63e7e	7.927137e-05
66	0xbcd82e86	-0.026389372
67	0x3901f51e	0.00012393712
68	0xbe86a778	-0.26299644
69	0xb89db60b	-7.5202515e-05
70	0x3a4aa98d	0.00077309535
71	0xba76c762	-0.00094138656
72	0xb9551209	-0.00020319982
73	0xb8866179	-6.4077736e-05
74	0x398170f9	0.0002468897
75	0x372e3332	1.0383128e-05
76	0xb9665aff	-0.00021968408
77	0x3924ee16	0.00015728953
78	0xb922be95	-0.00015520521
79	0x38e7d1af	0.00011053995
80	0x36899332	4.100054e-06
81	0xb9058235	-0.00012732374
82	0xb98c0c4f	-0.00026712051
83	0xb6c21e42	-5.785173e-06
84	0x3990bed0	0.00027607987
85	0xb93720ce	-0.0001746446
86	0x390e7321	0.00013585064
87	0xb997949a	-0.0002891168
88	0xb8ad38d1	-8.259866e-05
89	0xb8ec0de0	-0.00011255941
90	0x3c81862c	0.015811048
91	0xbd8e76bd	-0.06956241
92	0xbd29d01a	-0.041458227
93	0xbf89bd53	-1.0760902
94	0xba66df63	-0.0008807091
95	0xb9e48f12	-0.00043594145
96	0x3cd8a27e	0.02644467
97	0xbdd7d8b4	-0.1053938
98	0x3dc4e0d5	0.09613196
99	0xbf295c35	-0.6615632
100	0xba65289a	-0.0008741707
101	0x3a9f4f47	0.0012154364
102	0xb8d1035a	-9.966521e-05
103	0x395a677c	0.00020828651
104	0x3783eddd	1.572718e-05
105	0x38315afb	4.228482e-05
106	0x38c7898c	9.5146796e-05
107	0x335ee3ac	5.189547e-08
108	0xb7caec80	-2.4190405e-05
109	0x3a10943a	0.00055152515
110	0xb9916a1f	-0.00027735622
111	0x38b78718	8.751283e-05
112	0x3736104f	1.08518425e-05
113	0xb97a1569	-0.00023849834
114	0xbc0f7754	-0.008756477
115	0xbdb23682	-0.08701803
116	0x3db8fa33	0.09032097
117	0x3f7f24f2	0.9966575
118	0x3a44fc28	0.0007514381
119	0x3af0245d	0.0018321384
120	0x3592fac3	1.0950829e-06
121	0xb9c36b11	-0.0003727307
122	0x37f725c4	2.946228e-05
123	0x389fd66e	7.6216515e-05
124	0x391254e3	0.00013955268
125	0xb991fb06	-0.00027843582
126	0x3ed990b0	0.424932
127	0xbe4bb7f0	-0.19894385
128	0x3a257527	0.00063117075
129	0xb8d486ea	-0.000101340775
130	0x3a308078	0.00067330105
131	0xb82379cc	-3.897566e-05
132	0xbd062989	-0.032754455
133	0xbd938175	-0.07202426
134	0xbe0064c2	-0.12538436
135	0xbf439b0c	-0.7640846
136	0x3a684dba	0.000886168
137	0x3d287720	0.04112923
138	0x3925f794	0.00015827856
139	0xb88dea55	-6.767052e-05
140	0x390edaca	0.0001362368
141	0xb9009491	-0.00012262377
142	0x38bd5934	9.028838e-05
143	0x3931cc00	0.00016956031
144	0xbe124dff	-0.14287566
145	0x3d346ae9	0.04404727
146	0x3d4f6f89	0.050643478
147	0xbe742122	-0.23840764
148	0xbf1afa2c	-0.6053798
149	0xbb573a60	-0.003284119
150	0xbd6a45bd	-0.057195414
151	0x39b3e6e4	0.00034313567
152	0x3db0fff5	0.0864257
153	0x3847b387	4.7612495e-05
154	0x3a44c42d	0.0007506039
155	0xb8f059f1	-0.00011460845
156	0x3b8876d7	0.0041645574
157	0xbe2f5a1f	-0.17124222
158	0xbde37bbf	-0.11107587
159	0x3a0bd581	0.0005334244
160	0x3997fb26	0.00028988085
161	0x392b8a3d	0.00016359329
162	0xb71e5f19	-9.4396755e-06
163	0xb98bd208	-0.00026668631
164	0x374e737d	1.2305446e-05
165	0xb8b7bd1e	-8.761346e-05
166	0xb77dd196	-1.5128773e-05
167	0xb8ba152e	-8.873116e-05
168	0x394b26ac	0.00019373995
169	0x374ba2c5	1.2137641e-05
170	0xb8ca53fc	-9.647754e-05
171	0x389fa2e9	7.612055e-05
172	0x38999a98	7.324404e-05
173	0xb8f1a8be	-0.00011523206
174	0xbe0776ed	-0.1322896
175	0x3d95c8dd	0.07313702
176	0x3bc66770	0.006054811
177	0x3f02067d	0.5079115
178	0x3f677b3d	0.9042242
179	0x3957add4	0.00020568754
180	0x3e0bfff0	0.13671851
181	0x3c5f550e	0.013631118
182	0x3e0969a8	0.13419211
183	0x3b9b5af0	0.004741065
184	0x3f90e5de	1.132015
185	0xbcdf9b63	-0.027295774
186	0x39066efe	0.00012820584
187	0x3dfd0536	0.123545095
188	0xbe0440cc	-0.12915343
189	0x3a1582da	0.00057033973
190	0x39d06d7f	0.00039754433
191	0xb99f57f4	-0.00030392373
192	0xb8e2cc3d	-0.00010814562
193	0x3806ee71	3.2170155e-05
194	0xb75f0d6d	-1.3294962e-05
195	0xb8c2c0ba	-9.286539e-05
196	0x3908d072	0.00013047623
197	0x39183b8e	0.00014518035
198	0x3dfa7937	0.12230151
199	0x3d5541d0	0.052064717
200	0x3c7259cd	0.014791918
201	0x3ea1142f	0.3146071
202	0xbf938891	-1.1526052
203	0x3afaca3a	0.0019133755
204	0xb881af7e	-6.183887e-05
205	0xb9e915e0	-0.0004445752
206	0x38e6fed0	0.00011014717
207	0x37e6e334	2.7523936e-05
208	0xb8887e7a	-6.5085434e-05
209	0x38561de8	5.104943e-05
210	0xbcf29d3b	-0.029615989
211	0x3c88a489	0.016680019
212	0x3dff38ca	0.124620035
213	0xbf85b2f6	-1.044524
214	0x3a91673a	0.0011093386
215	0x3b199d7f	0.0023439822
216	0xb97f2370	-0.00024331897
217	0xbf18144b	-0.59405965
218	0xbf049a56	-0.51798
219	0xbf29b9ac	-0.6629894
220	0xb8b2ddbc	-8.529003e-05
221	0x39c4d8d8	0.00037545594
222	0x3597f680	1.1322118e-06
223	0xb708c673	-8.152437e-06
224	0xb904d8d2	-0.00012669273
225	0xbf364a2d	-0.71206933
226	0x388038a8	6.114069e-05
227	0xb9096ccd	-0.0001310587
228	0xb7ea3542	-2.7919774e-05
229	0x38d43ed1	0.00010120648
230	0x38595dbd	5.1824132e-05
231	0xbddb6c9e	-0.107140765
232	0x39b16fc1	0.00033843334
233	0x38f86cad	0.00011845804
234	0x384da08c	4.902533e-05
235	0x391ed17b	0.00015146092
236	0xb934fc77	-0.00017260188
237	0x37d9b1de	2.5951242e-05
238	0x3f048e87	0.5177998
239	0x396afe69	0.00022410754
240	0x3f152453	0.5825855
241	0xb985c751	-0.0002551624
242	0x38573303	5.1307503e-05
243	0xb9853b69	-0.00025412
244	0x39acaa9a	0.00032933505
245	0x3eea52ef	0.45766398
246	0x3f16a1d8	0.58840704
247	0x3e87640c	0.26443517
248	0x386c7a10	5.6380464e-05
249	0x3990aca8	0.0002759446
250	0x3884344f	6.303994e-05
251	0x3d6f44ec	0.05841534
252	0x3826e8b6	3.9794213e-05
253	0x38c41598	9.3500305e-05
254	0xb9c6f23c	-0.00037945982
255	0x38e6557b	0.000109831766
