online_adapt_sim/learned_models/meta_mlpt_h5_bl5/model_param.pth (torch, 4791 bytes, 4 tensors)

mlp_encoder.model.0.weight f4 [32, 18]
00000000: 9a86 1138 1618 92b8 0f83 4b39 4476 b038
00000010: e083 2939 18ff b838 6dfc 1136 b38e d638
00000020: b5f9 c8b8 5d79 77b9 4868 9237 fc54 ef38
00000030: abf5 1839 39fe 9538 623e 2838 4299 1738
00000040: 9672 de38 4733 7139 3ee1 2eb9 9898 05b9
00000050: 7c7c 1938 963c 5a39 340e 0e38 e9d3 f9b8
00000060: d99a c4b7 cd50 7638 dc0f 2039 8917 d6b8
00000070: 3921 aeb5 6d56 b938 0207 f437 abe8 a0b9
00000080: dce8 5239 6030 97b7 3a7a 5d38 56b7 2638
00000090: c58c 87b9 4cc9 0a39 83dc 43b8 0e5d 2139
000000a0: e2bd 35b9 a700 f1b8 cefa 9b35 cec0 8539
000000b0: 71f2 11b9 1fbd 8e38 23a9 7f39 13f6 af38
000000c0: 6807 3b39 1f55 36b8 ee59 37b9 6561 31b9
000000d0: 4011 dab8 387d 21b9 dee4 c439 6309 13b9
000000e0: 15f8 0039 c379 0037 e509 b338 8066 0b39
000000f0: cb81 1039 5b18 dfb8 312d a9b8 a10b 9e39
00000100: b140 4ab6 5ba0 fbb8 0f93 12b8 0ee5 8c38
00000110: e532 ca37 1569 9db8 042c 9fb8 6f60 aa38
00000120: 5360 e1b8 1b5d 4438 ec72 57b7 68f6 f238
00000130: 15e4 26b9 afc7 7439 c8ea 5cb8 da9d 11b9
00000140: 40bf 1db8 3c56 9139 5774 2337 ee46 b438
00000150: a950 95b8 5d77 ab38 0205 e2b7 4101 07b7
00000160: 4e0c 6939 6652 3cb8 5dd4 50b8 3088 2c39
00000170: 82b3 03b9 8afe 8938 0ee6 7bb9 f9ce 93b9
00000180: ce48 2339 2295 5d37 8f9c 6f38 ed04 1639
00000190: e4e5 0138 1526 a939 7eb3 bc37 849b 75b8
000001a0: c677 adb8 e3e8 b4b7 0ccf 02b9 f991 32b5
000001b0: 5e77 e7b8 2fe1 c7b9 10fa 2cb9 8deb 65b7
000001c0: 7ebe 0bb9 35f1 3ab8 540f d938 e434 9338
000001d0: 7a6e 73b9 a571 b438 a9fc 1fb9 85f6 2bb9
000001e0: d672 5b39 e59e 89b8 46fe 6e37 1ae0 0ab8
000001f0: 37bb a538 393c b2b7 6196 7637 f83b d438
00000200: 40ce d8b8 875f 3bb9 a074 5438 adbb 9339
00000210: cee0 15b9 5009 6db9 cccd 8239 1acb 1cb8
00000220: ede2 7fb7 5e94 bcb5 f838 1139 2853 e5b6
00000230: 813c cdb7 f245 bfb5 de6e 71b8 b59f 9c38
00000240: 3d99 44b9 e99e 9038 5735 9239 154a 1cb9
00000250: 19e0 83b8 3043 1639 8345 2c39 9486 4a39
00000260: 4da4 f7b7 f54c a2b7 3933 9b39 9bfe 2bb9
00000270: e5f5 dc37 f704 14b6 cb83 8339 38f4 af38
00000280: da3c 27b9 d27e 6137 2cc1 37b9 8ddc aab6
00000290: ceb5 43b8 6081 9bb8 1d62 a9b8 67e1 90b9
000002a0: bd5f f5b7 f231 e4b6 3585 cfb8 10ba 27b7
000002b0: fe35 a8b8 0d7d 81b8 b1cf f338 65b9 1638
000002c0: 0527 38b9 ebc7 80b8 1d97 a5b7 7c33 f0b8
000002d0: d533 f737 9b81 4bb6 100d 0cb9 316b 5936
000002e0: 0a3b 9d38 f9f8 bb38 f842 1638 3f25 2139
000002f0: 1597 b6b8 fcfd 15b9 dc62 adb8 ca19 e538
00000300: c864 b4b8 74ce 29b9 dd20 ce38 f2d0 12b8
00000310: d9e9 cab8 7c64 5e38 cb71 3e39 cf2a 8c38
00000320: 9813 b537 0831 6938 5ca0 e3b8 ff5b 2039
00000330: f7ae 17b8 d6af 2a39 b8f9 99b8 a973 4739
00000340: 31ee deb8 4526 5939 ab22 9b37 4534 a538
00000350: 3c3d 77b8 3258 0db9 edda 1ab8 1fea 11b7
00000360: 0abc afb5 4e51 a7b9 a8a9 b938 5dfb 01b9
00000370: 519e c739 4ad5 2338 079a a0b8 430c 2839
00000380: c18b 81b9 f17d a1b8 78e9 db38 ad51 5c36
00000390: eada 1239 5771 3fb8 d51f b438 d729 1fb9
000003a0: 2571 ebb8 4e66 5f39 0835 5937 6276 0f39
000003b0: bfd6 dc36 c056 e6b7 dfd0 0cb8 4aff 80b8
000003c0: 85ec d538 054d 9b38 61bd e239 8953 8c39
000003d0: d793 b038 dfed 4b39 2224 b238 230b 3939
000003e0: c3e4 e6b8 4524 13b7 0f7e fe38 8d68 7637
000003f0: a728 1938 3b9b 2739 a8e2 34b6 305c f5b8
3.469605e-05 -6.966309e-05 0.00019408412 8.414363e-05 0.00016166223 8.8213186e-05 2.1753615e-06 0.00010230895
-9.583255e-05 -0.00023600967 1.7453116e-05 0.00011412238 0.00014587368 7.152226e-05 4.011242e-05 3.6143938e-05
0.00010607128 0.00023002653 -0.00016677842 -0.00012740714 3.6593978e-05 0.0002081267 3.3868666e-05 -0.000119127166
-2.3437127e-05 5.8726222e-05 0.00015264697 -0.00010208699 -1.2973679e-06 8.8375855e-05 2.909033e-05 -0.0003069093
0.00020113908 -1.8023129e-05 5.280434e-05 3.974823e-05 -0.00025854088 0.00013235694 -4.669699e-05 0.00015388822
-0.00017332242 -0.00011491897 1.1621394e-06 0.00025511388 -0.00013918594 6.806314e-05 0.00024381703 8.390485e-05
0.00017836469 -4.3471457e-05 -0.00017485741 -0.00016916318 -0.00010398263 -0.00015400804 0.00037554553 -0.0001402251
0.00012299449 7.657744e-06 8.537228e-05 0.00013294257 0.00013781262 -0.00010638005 -8.0669655e-05 0.00030144773
-3.0138e-06 -0.00011998481 -3.494607e-05 6.718385e-05 2.4103976e-05 -7.5059164e-05 -7.5899094e-05 8.124194e-05
-0.00010746778 4.6816753e-05 -1.2841756e-05 0.00011585356 -0.00015915961 0.00023344041 -5.2670744e-05 -0.00013887082
-3.7609832e-05 0.00027720805 9.742645e-06 8.5962805e-05 -7.119898e-05 8.1761485e-05 -2.6943631e-05 -8.046919e-06
0.00022225195 -4.4899432e-05 -4.9788843e-05 0.00016453932 -0.00012560005 6.580081e-05 -0.00024022927 -0.00028192232
0.00015572013 1.3207349e-05 5.7127847e-05 0.0001430695 3.09701e-05 0.00032262565 2.2494929e-05 -5.8557387e-05
-8.2715924e-05 -2.1566118e-05 -0.00012474897 -6.6522585e-07 -0.00011037172 -0.00038124013 -0.00016496354 -1.3704307e-05
-0.00013327037 -4.4570497e-05 0.000103502214 7.019358e-05 -0.00023215442 8.604237e-05 -0.00015257545 -0.00016399666
0.00020928247 -6.5622655e-05 1.4245108e-05 -3.3110475e-05 7.9026846e-05 -2.1247297e-05 1.4697755e-05 0.00010120118
-0.000103381 -0.00017869296 5.0653354e-05 0.00028177854 -0.00014293494 -0.0002260555 0.00024948863 -3.738245e-05
-1.525202e-05 -1.4050272e-06 0.000138495 -6.8344125e-06 -2.4466079e-05 -1.4250966e-06 -5.756213e-05 7.4684074e-05
-0.00018749102 6.8960544e-05 0.0002788703 -0.00014904917 -6.288308e-05 0.00014330144 0.00016429093 0.00019314355
-2.9521203e-05 -1.934774e-05 0.00029602068 -0.00016402679 2.6340547e-05 -2.2056608e-06 0.0002508446 8.3901396e-05
-0.0001594903 1.3440573e-05 -0.00017524202 -5.0920703e-06 -4.666094e-05 -7.415074e-05 -8.076823e-05 -0.00027633758
-2.9250858e-05 -6.800744e-06 -9.895341e-05 -9.997297e-06 -8.020921e-05 -6.174492e-05 0.000116258285 3.593545e-05
-0.00017562143 -6.140753e-05 -1.97399e-05 -0.000114536815 2.946883e-05 -3.0324798e-06 -0.00013356307 3.2397913e-06
7.49734e-05 8.9632296e-05 3.5825156e-05 0.00015368032 -8.7065775e-05 -0.00014304364 -8.267697e-05 0.000109243745
-8.601841e-05 -0.00016194006 9.828967e-05 -3.5003708e-05 -9.675668e-05 5.3022508e-05 0.00018162203 6.683694e-05
2.1586005e-05 5.5597193e-05 -0.00010854073 0.0001529306 -3.6164154e-05 0.00016277967 -7.342122e-05 0.00019021206
-0.000106301515 0.00020708989 1.8493583e-05 7.877549e-05 -5.8946418e-05 -0.00013479663 -3.692035e-05 -8.697184e-06
-1.3093243e-06 -0.000319133 8.8530884e-05 -0.00012396039 0.00038074193 3.906087e-05 -7.658084e-05 0.00016026296
-0.00024708922 -7.700537e-05 0.00010486221 3.2830096e-06 0.00014005197 -4.5643505e-05 8.588998e-05 -0.00015179008
-0.00011226748 0.00021305049 1.2946555e-05 0.00013681644 6.5815107e-06 -2.7458533e-05 -3.3573127e-05 -6.151067e-05
0.00010200687 7.405322e-05 0.00043247177 0.0002676512 8.419871e-05 0.00019448203 8.494432e-05 0.00017647124
-0.00011009865 -8.770327e-06 0.00012135144 1.4687085e-05 3.6515903e-05 0.00015984189 -2.6954021e-06 -0.000116996816

mlp_encoder.model.0.bias f4 [32]
00000000: 8b98 2236 e90b 7db8 32d7 64b8 b1e7 2539
00000010: edd7 ee38 d922 86b6 df23 43b7 8ef9 8b38
00000020: aabb cdb8 14eb 30b9 e66a f438 987d 3839
00000030: 8ecf fdb8 c09a 8e39 0af6 08b6 79c4 0939
00000040: 13b2 54b9 dbc3 31b8 8554 cb38 36bb d2b8
00000050: 9d92 3bb9 6a26 1eb9 6a02 14b9 f807 9d38
00000060: ac47 7eb9 8ce9 fdb8 bc56 2fb9 4082 a0b8
00000070: 36b7 2c39 72a2 ca38 4776 0f39 9688 64b8
2.4228673e-06 -6.0330993e-05 -5.4559852e-05 0.00015821938 0.00011388944 -3.997568e-06 -1.1631258e-05 6.67452e-05
-9.810117e-05 -0.00016872241 0.00011654738 0.00017594395 -0.0001210264 0.00027199648 -2.0408793e-06 0.0001313853
-0.00020284233 -4.2382493e-05 9.695537e-05 -0.00010048451 -0.00017888327 -0.00015082365 -0.00014115279 7.487828e-05
-0.00024250027 -0.000121074816 -0.00016721612 -7.6536555e-05 0.0001647145 9.6623684e-05 0.00013681604 -5.448664e-05

mlp_encoder.model.3.weight f4 [3, 32]
00000000: 882f 3eb9 63dc a138 5405 fc38 a66b b4b8
00000010: 81e8 89b8 6eca cd38 447c f937 a7cc f5b7
00000020: 8e95 75b8 b6c1 0cb9 0e5e ebb8 1dec f7b8
00000030: d63e d338 9bde 12b9 c443 e438 1ade 6137
00000040: 561f 0c39 0b54 78b6 aa4c 1139 f7f6 30b8
00000050: 5bda 0ab9 6a18 42b9 1218 3539 da28 0639
00000060: 6bb1 2039 ec88 0eb9 11c8 d4b8 152a 0738
00000070: ae98 09b5 4384 04b9 6538 d3b7 9fd0 fa37
00000080: c698 efb8 2969 33b9 0305 01b9 c290 52b8
00000090: fe9f 9eb8 32d3 52b8 6eab 19b8 282f d438
000000a0: 2178 3839 4b2b 0f39 414e 8e38 673d 0239
000000b0: 39bc 3038 ddee aa37 a4a4 6639 4430 44b9
000000c0: 687c 01b8 a1e6 7bb8 553a 9638 5ea1 a638
000000d0: bc6d 8238 5703 9738 c547 6439 2138 5139
000000e0: 8905 9737 e5e1 5db9 8393 9338 4c53 34b9
000000f0: d9f1 0739 f221 4938 5ecf f238 b19d 2037
00000100: 7ea4 7938 410c 9837 d7a3 5b38 f80e 0439
00000110: 8b8b 40b8 fa01 cbb8 09b7 dbb8 aa3c 2c39
00000120: 6cbd 0db9 8201 7339 893a 20b8 8346 06b8
00000130: 6426 aab8 1811 bc38 f7ab 7d39 24c8 2eb9
00000140: c975 1db8 d14b 81b8 13e7 5939 b33c fb37
00000150: dfcf 6c38 cade b238 2af2 0b39 d80f 4eb9
00000160: 9d51 fe37 3b45 bfb9 a39e 0339 9ff2 0eb5
00000170: ade9 c2b9 1e3f bfb9 a1ab 2eb9 31e0 80b7
-0.00018137519 7.7181285e-05 0.00012017289 -8.60312e-05 -6.575976e-05 9.812867e-05 2.9740979e-05 -2.9301575e-05
-5.8551836e-05 -0.00013423603 -0.00011223192 -0.00011821857 0.00010072968 -0.00014006572 0.000108845095 1.3462757e-05
0.00013363114 -3.70038e-06 0.00013856837 -4.2191674e-05 -0.0001324205 -0.00018510377 0.00017270472 0.00012794454
0.00015324882 -0.00013593183 -0.00010146213 3.22257e-05 -5.1258655e-07 -0.00012637772 -2.517942e-05 2.989947e-05
-0.00011424864 -0.00017109945 -0.00012304266 -5.0202718e-05 -7.563828e-05 -5.0264593e-05 -3.66377e-05 0.00010117731
0.00017592359 0.0001365367 6.7856636e-05 0.0001242064 4.2136966e-05 2.0376809e-05 0.00021995843 -0.00018709997
-3.087186e-05 -6.0057853e-05 7.1634226e-05 7.945554e-05 6.219323e-05 7.200863e-05 0.0002177051 0.00019952703
1.800318e-05 -0.00021160355 7.0369824e-05 -0.00017197168 0.00012964699 4.795375e-05 0.000115780844 9.573459e-06
5.951942e-05 1.8125518e-05 5.2366257e-05 0.00012594077 -4.5906327e-05 -9.6801625e-05 -0.00010476827 0.00016425797
-0.00013517373 0.00023174848 -3.8201488e-05 -3.201376e-05 -8.1133825e-05 8.9677225e-05 0.00024192022 -0.00016668491
-3.7541413e-05 -6.165321e-05 0.00020780815 2.9949797e-05 5.646038e-05 8.529199e-05 0.00013346286 -0.00019651593
3.0317164e-05 -0.0003648194 0.0001255223 -5.325218e-07 -0.00037176666 -0.00036477385 -0.0001665787 -1.5363186e-05

mlp_encoder.model.3.bias f4 [3]
00000000: 376b 2cbf e6a4 63b7 344c d1bd
-0.67351097 -1.3568648e-05 -0.10219613
