online_adapt_sim/learned_models/meta_mlpt_h4_bl15/model_param.pth (torch, 4407 bytes, 4 tensors)

mlp_encoder.model.0.weight f4 [32, 15]
1.48666195e-05 2.3443747e-05 -5.7640074e-05 3.8932725e-05 5.4349034e-06 8.160687e-05 -3.7126597e-06 -0.00018747039
-8.3086e-05 -6.945413e-06 -0.00017475002 -1.3309852e-05 0.00028722227 0.00019831212 0.00011509607 0.00029703832
8.544957e-05 -0.00022231102 6.309775e-05 -0.0007793379 -0.00030915576 0.0006615338 -0.00012686948 -0.00024871543
-0.00017915909 -8.287692e-06 -2.3901404e-05 -0.00014219503 -0.15331827 -9.2796545e-05 5.7480465e-05 -1.7748036e-05
0.00020464291 -0.00027768285 -3.556304e-05 -6.23073e-05 -1.3466582e-05 -6.908487e-05 -2.5743951e-05 -0.00032838315
-5.288005e-05 -0.00017066432 -3.9746705e-05 -0.00020430399 0.00022799658 7.90543e-05 0.0002798157 0.00014606633
6.8414406e-06 5.0148374e-05 1.8517972e-06 0.0001523441 -1.1103614e-05 -1.1191554e-05 -0.000109609515 -9.371843e-05
-7.2519215e-05 -6.606472e-05 -8.286965e-06 -0.00013803957 1.660737e-05 -5.044587e-05 6.561474e-05 -3.3220367e-05
-1.8694972e-07 -0.00019322398 3.3565135e-05 1.824464e-05 -5.7935096e-05 -4.084159e-05 -7.623917e-05 -1.9471219e-07
2.3171795e-05 -3.6425812e-05 -0.000106175445 -0.00029794188 -0.00018806946 8.695607e-05 -0.00013019865 -5.901834e-05
8.10931e-06 5.4073225e-05 -2.0042917e-05 9.395602e-05 -6.605525e-05 -0.00010687329 -1.3667075e-05 -0.00024881677
9.270648e-05 -0.00027078192 -7.0371854e-05 -0.0003682039 -0.00023926281 5.2508323e-05 -0.00016802279 0.00012230799
-1.4612639e-05 -0.00014036713 -9.404229e-05 -3.943623e-05 3.554646e-05 -3.209243e-05 -7.762939e-05 -6.313594e-05
5.435456e-05 -0.00031751313 0.00033157793 -0.00011019232 -7.417375e-05 -0.0001254723 4.2933483e-05 -4.2463304e-05
-0.00021293752 -0.00012168086 -7.861854e-05 -0.0002033209 -5.5921028e-05 4.8344107e-05 -9.938952e-06 8.281025e-05
-0.00011590486 5.763377e-05 -2.183381e-05 6.517492e-05 5.3892214e-05 -4.8494898e-05 -0.00016427181 1.9202007e-06
-2.3874934e-05 0.00012098632 -0.00021482848 0.00016545055 -0.00016259764 -4.7106696e-06 5.9296493e-05 -0.00013803881
-1.8179282e-05 -2.3301889e-05 -9.237046e-05 2.075922e-05 4.9882743e-05 2.7725126e-05 -0.00016189806 -2.0313772e-05
-4.8660702e-05 -3.244815e-05 -0.00021387561 4.8014786e-06 0.00013684556 0.00013763622 -0.0001215114 3.2480217e-05
2.102051e-05 -2.3836745e-05 8.299964e-05 -0.000110777604 -0.00023284907 9.1717164e-05 7.504401e-05 -0.00019305089
-8.8804416e-05 -0.00012957759 -0.00011577815 0.000124003 -0.00012653257 -0.00022314038 -3.123716e-05 5.696347e-05
-8.6445805e-05 9.6025804e-05 -0.00010669249 -5.8690075e-05 -0.00028998544 -0.00020907367 -2.7629005e-05 0.00012470128
5.1116305e-05 7.7575685e-05 0.00017957267 -3.7426507e-05 -9.2222734e-05 8.3332736e-05 0.00013935326 -0.0002083994
-0.00017694333 0.0002436854 -6.800756e-05 3.629076e-05 -0.00023906457 -9.070481e-05 -0.00026692808 -6.591019e-05
7.2859584e-06 -2.3631408e-05 -7.4947325e-06 -4.216319e-05 0.00029571878 9.8076816e-05 9.215712e-05 -7.7396e-05
-0.00025451556 -3.4323824e-05 -0.00012678969 -2.5286892e-05 3.1778034e-06 -8.898382e-05 -0.00045100367 -0.00011778523
-7.256793e-05 0.00028035635 0.0001570727 7.319913e-05 -3.3857606e-05 -6.84118e-05 -0.00019400247 -0.00014163792
-0.00010244435 -8.7399116e-05 -0.0002565138 -0.0002630613 7.437046e-05 0.00012626073 -0.00017143787 6.215191e-05
-4.4801556e-05 0.00024788245 -0.0004015001 0.00069803675 0.00017307277 6.004069e-05 0.00029593843 8.541501e-06
-0.1635173 0.00045889328 -0.00045332607 -0.070934355 0.00020917723 -0.18085676 -0.30661988 0.0002673773
0.00020804365 0.0002490267 -8.040015e-05 0.0002618487 -0.000100798745 0.00013203616 -0.00024616474 -6.718959e-05
-6.444108e-05 0.00013788894 8.770492e-05 -0.00012604009 0.00030068707 0.00020078095 -0.00014480586 0.00013193021
00000000: a56b 7937 10a9 c437 8fc2 71b8 b24b 2338
00000010: 775d b636 5b24 ab38 0227 79b6 b393 44b9
00000020: 753e aeb8 a50c e9b6 1a3d 37b9 614d 5fb7
00000030: 5296 9639 01f2 4f39 bb5f f138 cfbb 9b39
00000040: 6333 b338 291c 69b9 5953 8438 7b4c 4cba
00000050: 2f16 a2b9 c86a 2d3a 4408 05b9 0566 82b9
00000060: a7dc 3bb9 5e0b 0bb7 e07f c8b7 301a 15b9
00000070: 77ff 1cbe c49b c2b8 2e17 7138 9ee1 94b7
00000080: 6a95 5639 f695 91b9 8629 15b8 faaa 82b8
00000090: 87ee 61b7 a8e1 90b8 b7f4 d7b7 d72a acb9
000000a0: 85cb 5db8 5bf4 32b9 b3b5 26b8 6f3a 56b9
000000b0: 5e12 6f39 f4c9 a538 3ab4 9239 6229 1939
000000c0: 878f e536 6856 5238 448b f835 8fbe 1f39
000000d0: a949 3ab7 5cc3 3bb7 29de e5b8 b38a c4b8
000000e0: 7515 98b8 3a8c 8ab8 3e08 0bb7 b7be 10b9
000000f0: 0e50 8b37 d795 53b8 a59a 8938 1956 0bb8
00000100: 59bc 48b4 2b9c 4ab9 4ac8 0c38 110c 9937
00000110: 56ff 72b8 534d 2bb8 98e2 9fb8 1412 51b4
00000120: 0d61 c237 ebc7 18b8 82aa deb8 1535 9cb9
00000130: 8334 45b9 2f5c b638 ef85 08b9 768a 77b8
00000140: 390d 0837 afcc 6238 d621 a8b7 410a c538
00000150: 2487 8ab8 2921 e0b8 a44b 65b7 9f73 82b9
00000160: 6a6b c238 bcf7 8db9 9a94 93b8 7e0b c1b9
00000170: 9fe2 7ab9 623c 5c38 462f 30b9 cd3f 0039
00000180: ce28 75b7 842f 13b9 9238 c5b8 5468 25b8
00000190: b917 1538 fc9a 06b8 f6cc a2b8 da67 84b8
000001a0: c4fa 6338 e477 a6b9 a3d7 ad39 0d17 e7b8
000001b0: bb8d 9bb8 3791 03b9 7a13 3438 a01a 32b8
000001c0: fb47 5fb9 ea2e ffb8 02e0 a4b8 8a32 55b9
000001d0: bf8c 6ab8 17c5 4a38 79bf 26b7 6aaa ad38
000001e0: f311 f3b8 cabb 7138 c027 b7b7 85ae 8838
000001f0: 530a 6238 0067 4bb8 6140 2cb9 ccdc 0036
00000200: 0847 c8b7 09ba fd38 9543 61b9 cb7c 2d39
00000210: f97e 2ab9 5810 9eb6 20b5 7838 83be 10b9
00000220: b67f 98b7 6d78 c3b7 03b7 c1b8 1624 ae37
00000230: 3039 5138 4193 e837 2ec3 29b9 7e67 aab7
00000240: 0819 4cb8 f018 08b8 cc43 60b9 631c a136
00000250: 337e 0f39 7152 1039 f0d3 feb8 5e3b 0838
00000260: 3455 b037 05f5 c7b7 1810 ae38 4651 e8b8
00000270: f228 74b9 4758 c038 f260 9d38 b46d 4ab9
00000280: 823c bab8 38df 07b9 eccd f2b8 cd06 0239
00000290: d4ad 04b9 cafa 69b9 a504 03b8 0fec 6e38
000002a0: 3d4a b5b8 7661 c938 18c0 dfb8 fd29 76b8
000002b0: 3009 98b9 c93a 5bb9 d6c4 e7b7 3fc2 0239
000002c0: b765 5638 21b0 a238 ac4b 3c39 68fa 1cb8
000002d0: b467 c1b8 ecc2 ae38 5b1f 1239 ca85 5ab9
000002e0: dd89 39b9 cd85 7f39 489f 8eb8 e836 1838
000002f0: 68ad 7ab9 c638 beb8 7bf2 8bb9 4439 8ab8
00000300: e879 f436 103c c6b7 437b fbb6 61d8 30b8
00000310: b40a 9b39 97ae cd38 7a44 c138 a94f a2b8
00000320: 8070 85b9 edf6 0fb8 d9f2 04b9 301f d4b7
00000330: 3f42 5536 d39c bab8 b074 ecb9 7703 f7b8
00000340: 9c2f 98b8 cbfc 9239 e2b3 2439 7c82 9938
00000350: 5402 0eb8 4e78 8fb8 246d 4bb9 a484 14b9
00000360: 64d7 d6b8 0b4a b7b8 b37c 86b9 7deb 89b9
00000370: 56f7 9b38 db64 0439 01c4 33b9 8d57 8238
00000380: 4ee9 3bb8 38f6 8139 6e80 d2b9 74fc 363a
00000390: de7a 3539 33d4 7b38 2f28 9b39 784d 0f37
000003a0: 1471 27be 9d97 f039 65ac edb9 0846 91bd
000003b0: 9656 5b39 8432 39be 48fd 9cbe c62e 8c39
000003c0: 4b26 5a39 cc8f 8239 809c a8b8 bd48 8939
000003d0: ea63 d3b8 3073 0a39 ac0f 81b9 23e8 8cb8
000003e0: 8b24 87b8 4896 1039 38ee b738 a129 04b9
000003f0: 89a5 9d39 ba88 5239 07d7 17b9 bf56 0a39

mlp_encoder.model.0.bias f4 [32]
-0.0002647551 0.0001331027 0.00016900536 -4.6887748e-05 -0.000116572235 -4.5667035e-05 -0.00022197231 0.00047862148
-2.9333794e-05 0.00021517636 -0.00011904308 0.00014204202 -0.00017956422 -5.644889e-05 -0.00021840783 0.02165801
0.00011882464 0.00020629444 -5.0158073e-05 -0.00015239067 -0.00025036425 0.0007807765 -8.930318e-05 9.482799e-05
0.000110758294 0.00015256296 -0.00010295233 0.44592127 0.00013810532 0.00011326513 -0.0001492808 0.00012643432
00000000: d4ce 8ab9 7c91 0b39 0837 3139 56a9 44b8
00000010: 3e78 f4b8 9b8a 3fb8 3dc1 68b9 7def fa39
00000020: d811 f6b7 f7a0 6139 c4a6 f9b8 1df1 1439
00000030: 6749 3cb9 89c3 6cb8 6804 65b9 246c b13c
00000040: 7e31 f938 be50 5839 d260 52b8 0fcb 1fb9
00000050: 5243 83b9 06ad 4c3a 4848 bbb8 64de c638
00000060: e846 e838 4ff9 1f39 1ce8 d7b8 cb4f e43e
00000070: 5dd0 1039 c188 ed38 4288 1cb9 7493 0439

mlp_encoder.model.3.weight f4 [3, 32]
-1.7001498e-06 -0.00013096324 -0.00013563415 -4.9255406e-05 -9.21895e-05 -4.7626883e-05 7.0527865e-05 0.00012646303
5.714053e-05 -9.044637e-05 5.9764625e-05 4.403146e-05 -1.599434e-05 -0.0001974778 -1.9955442e-05 1.2152077
-6.059739e-06 0.000113336 -0.00014524204 3.733845e-05 -3.6629226e-05 0.18766724 -1.3129212e-06 8.322687e-05
-0.000104318475 -0.00013318748 0.1557992 -0.00040316436 2.961973e-06 -0.00017935365 0.00017147604 0.00022676199
0.00016243289 -0.00010898842 -0.00019364234 0.00019646662 -7.86035e-05 0.00021864509 -0.00014780664 -0.00010932777
0.00017955442 -3.7071757e-06 0.0002864992 -0.00016014725 -5.9520793e-05 0.00016662685 -2.4547558e-05 4.0425854e-05
-9.172249e-05 -0.00021380663 -0.000104800994 -0.00022975628 0.00027822392 0.0003746064 -2.6767902e-05 -5.5769484e-05
0.00010991386 -0.0001380341 0.000116628515 -0.64594173 0.00031470592 0.00012664137 -1.4215188e-05 -0.00010126959
-7.0426846e-05 0.2794494 -7.7666286e-05 4.2568507e-05 -0.00024394799 -7.3092146e-05 0.00013902946 -0.00012397867
-3.2822536e-05 -0.00018679979 -0.00016865654 -8.916627e-05 4.1774234e-05 1.711072e-05 0.00012295948 -2.5841684e-05
-4.6215987e-06 -1.1713353e-05 4.1773915e-06 -1.3745494e-05 -0.00023525533 -0.9105096 1.7027885e-05 8.0822676e-05
1.3068235e-05 0.00015997938 0.7440415 -0.00025429798 0.0001730828 0.00011694506 2.7152377e-05 0.00028311374
00000000: b430 e4b5 2d53 09b9 0439 0eb9 9797 4eb8
00000010: dc55 c1b8 fac2 47b8 5ce8 9338 299b 0439
00000020: 2daa 6f38 06ae bdb8 c7ab 7a38 6cae 3838
00000030: 952b 86b7 0b12 4fb9 fc65 a7b7 ed8b 9b3f
00000040: c354 cbb6 cdae ed38 1d4c 18b9 db9b 1c38
00000050: 55a2 19b8 d72b 403e a137 b0b5 168a ae38
00000060: 8ec5 dab8 3ea8 0bb9 d389 1f3e ce5f d3b9
00000070: 4fc6 4636 e110 3cb9 40ce 3339 f5c6 6d39
00000080: bf52 2a39 b690 e4b8 780c 4bb9 9b02 4e39
00000090: efd7 a4b8 1844 6539 8bfc 1ab9 e646 e5b8
000000a0: c646 3c39 cbc8 78b6 4635 9639 33ed 27b9
000000b0: f7a5 79b8 8eb8 2e39 7beb cdb7 ee8e 2938
000000c0: 235b c0b8 4831 60b9 9bc8 dbb8 bbea 70b9
000000d0: 95de 9139 d266 c439 a28b e0b7 07ea 69b8
000000e0: 8e81 e638 3fbd 10b9 7596 f438 705c 25bf
000000f0: 1dff a439 09cb 0439 c47d 6eb7 b260 d4b8
00000100: 20b2 93b8 fe13 8f3e c5e0 a2b8 968b 3238
00000110: 4acc 7fb9 0c49 99b8 70c8 1139 4500 02b9
00000120: eeaa 09b8 b0df 43b9 65d9 30b9 c7fe bab8
00000130: be36 2f38 fe88 8f37 afee 0039 98c6 d8b7
00000140: 3b13 9bb6 7884 44b7 852b 8c36 729c 66b7
00000150: dfae 76b9 2817 69bf 1bd7 8e37 587f a938
00000160: a43f 5b37 23c0 2739 8179 3e3f 4c53 85b9
00000170: 8f7d 3539 6740 f538 49c5 e337 e26e 9439

mlp_encoder.model.3.bias f4 [3]
1.6919752e-05 -0.55069596 0.03039396
00000000: e4ee 8d37 69fa 0cbf c1fc f83c
