online_adapt_sim/learned_models/meta_mlpt_h1_bl5/model_param.pth (torch, 3255 bytes, 4 tensors)

mlp_encoder.model.0.weight f4 [32, 6]
0.00014938382 -0.00011681544 4.6031848e-05 -0.00013455575 -0.00011361789 -5.6471235e-05 -0.0002861456 -0.00012580141
9.6131764e-05 0.00020805061 -1.0656056e-05 -0.0001394758 4.007329e-05 -7.5783504e-07 3.650083e-05 7.951815e-05
-3.8788803e-05 -4.2062202e-05 0.00014333756 -8.450621e-05 -0.00027058725 -2.8843977e-05 -5.8494228e-05 -2.1313328e-05
-7.979152e-06 9.595272e-06 8.72193e-05 4.7093376e-06 8.8337165e-06 0.00022063314 -0.00032532468 -0.00013898558
4.6258763e-05 0.00014100193 -1.172475e-05 -8.619538e-05 -0.000119966695 0.0003526682 0.00010539487 0.00046440406
9.931284e-07 0.00014964004 3.4377474e-05 -0.00012740368 -1.0678556e-05 -1.8733796e-05 4.198133e-07 5.1013107e-05
-9.183423e-05 -0.00017984657 8.243779e-05 -0.00018068105 -5.552474e-05 -0.00027882634 -6.840609e-05 3.64199e-05
2.77988e-05 0.00012518349 0.00014839399 -5.1260895e-06 -6.386296e-05 2.0232123e-05 -2.1805596e-05 -1.3889178e-05
0.0001163642 6.8012734e-05 -0.000371547 -2.1882045e-06 0.00018204542 7.888052e-05 4.1605308e-05 -0.0002492832
-2.2622515e-05 -9.551999e-06 3.2607368e-05 0.0001311155 -5.525333e-05 4.168186e-05 -0.00031923284 3.1167445e-05
-1.4725027e-05 -1.942665e-05 -0.00014070339 1.6205009e-06 -6.896614e-05 0.00018198536 2.388647e-05 0.00023085113
3.4000434e-05 -6.0162205e-05 -5.6901412e-05 0.00012521198 0.00013859088 -0.00011215777 9.4548646e-05 0.00016367102
1.7295826e-05 -0.00013170422 3.3136956e-05 -0.00026297578 0.00013189213 0.0001968465 1.7995697e-05 0.00017660996
6.298452e-05 0.00010741774 0.00012644527 0.0003272413 -0.00012881312 -8.089298e-05 8.902854e-05 -0.00015452683
9.038014e-05 0.0002964928 -0.00014743251 0.00012843077 5.05145e-05 -1.379039e-05 -3.3152326e-05 7.866589e-06
0.00011929462 5.6748657e-05 -7.842628e-05 -9.129557e-05 -0.00018496018 -0.00028123602 5.8476344e-05 0.0001647141
-0.00025093838 -9.1218775e-05 0.00028679002 -3.7407703e-05 5.88871e-05 7.254839e-05 -0.00018558923 0.00013825997
-5.951573e-05 0.00025785845 -8.177852e-05 0.00039437748 0.00027873958 0.000115196686 0.00030977945 6.44013e-05
0.00021788153 2.2862081e-05 2.9813516e-05 0.00011153571 7.054801e-05 -5.972523e-05 7.004137e-05 -4.13579e-05
3.4001246e-06 -5.771626e-05 5.131514e-05 -4.937171e-05 -0.00014873457 6.455941e-05 0.00011630384 0.00017073378
-3.3294717e-05 0.00010086164 2.2608529e-06 -6.481492e-05 6.094497e-06 7.3857314e-05 -0.00015913305 6.1872506e-06
3.501089e-05 0.00027595097 -0.00018201793 3.0425004e-05 0.00014162078 1.0874152e-05 0.0001310822 -0.00040742042
-0.00011057128 -6.338552e-05 2.8547262e-05 -0.00016398438 -0.00021122406 0.00017824867 -8.94279e-05 -0.0001277159
4.0700263e-05 -3.43701e-05 -9.571075e-05 3.686385e-05 4.353084e-05 -0.00015568035 -9.2709975e-05 0.00025384632
00000000: eaa3 1c39 d0fa f4b8 5212 4138 8917 0db9
00000010: 2446 eeb8 87db 6cb8 d005 96b9 8fe9 03b9
00000020: 599a c938 2928 5a39 69c7 32b7 4040 12b9
00000030: 5e14 2838 076e 4bb5 7818 1938 fbc2 a638
00000040: 29b1 22b8 f26b 30b8 e24c 1639 ed38 b1b8
00000050: 9bdd 8db9 f8f5 f1b7 b357 75b8 06ca b2b7
00000060: 32de 05b7 61fb 2037 81e9 b638 e704 9e36
00000070: 8634 1437 c259 6739 5790 aab9 a8bc 11b9
00000080: f805 4238 ebd9 1339 6bb5 44b7 cbc3 b4b8
00000090: a196 fbb8 53e6 b839 7107 dd38 427b f339
000000a0: a24b 8535 b1e8 1c39 8830 1038 aa97 05b9
000000b0: 0c28 33b7 8526 9db7 b362 e134 e8f6 5538
000000c0: 2097 c0b8 3295 3cb9 74e2 ac38 3375 3db9
000000d0: 3ce3 68b8 702f 92b9 3d75 8fb8 92c1 1838
000000e0: 7831 e937 b043 0339 359a 1b39 c600 acb6
000000f0: 2aee 85b8 27b8 a937 29eb b6b7 9105 69b7
00000100: 8e08 f438 0fa2 8e38 32cc c2b9 11d9 12b6
00000110: 72e3 3e39 a86c a538 5c81 2e38 3ab2 82b9
00000120: 7bc5 bdb7 8641 20b7 e5c3 0838 0d7c 0939
00000130: d0bf 67b8 8ed3 2e38 b55e a7b9 cab9 0238
00000140: 820b 77b7 6af6 a2b7 c789 13b9 fd7f d935
00000150: eaa1 90b8 53d3 3e39 ce5f c837 a110 7239
00000160: b09b 0e38 ad56 7cb8 6da9 6eb8 564b 0339
00000170: b552 1139 3f36 ebb8 6b48 c638 1b9f 2b39
00000180: 8116 9137 151a 0ab9 89fc 0a38 03e0 89b9
00000190: 864c 0a39 9468 4e39 77f5 9637 6030 3939
000001a0: 8f16 8438 7645 e138 6596 0439 9591 ab39
000001b0: 0212 07b9 17a5 a9b8 d5b4 ba38 7b08 22b9
000001c0: 788a bd38 9772 9b39 1d98 1ab9 5fab 0639
000001d0: 88df 5338 465d 67b7 0a0d 0bb8 befa 0337
000001e0: d02d fa38 6805 6e38 ca78 a4b8 f075 bfb8
000001f0: dff1 41b9 dc72 93b9 7f44 7538 1bb7 2c39
00000200: 6190 83b9 b54c bfb8 4e5c 9639 37e6 1cb8
00000210: 8bfd 7638 1f25 9838 bb9a 42b9 e1f9 1039
00000220: 87a0 79b8 2d31 8739 8280 abb8 73c4 ce39
00000230: cb23 9239 c095 f138 e569 a239 2f0f 8738
00000240: 2177 6439 f2c7 bf37 0a18 fa37 47e8 e938
00000250: 2df3 9338 7a81 7ab8 2de3 9238 b577 2db8
00000260: b22d 6436 5d14 72b8 363b 5738 7814 4fb8
00000270: a2f5 1bb9 1264 8738 26e8 f338 0007 3339
00000280: eea5 0bb8 ae85 d338 28b9 1736 3fed 87b8
00000290: 557f cc36 d8e3 9a38 f4dc 26b9 149c cf36
000002a0: a8d8 1238 83ad 9039 11dc 3eb9 3339 ff37
000002b0: 0a80 1439 2170 3637 1c73 0939 0b9b d5b9
000002c0: 81e2 e7b8 d8ed 84b8 c778 ef37 39f3 2bb9
000002d0: 077c 5db9 43e8 3a39 3d8b bbb8 7aeb 05b9
000002e0: 93b5 2a38 9d28 10b8 51b8 c8b8 429e 1a38
000002f0: e294 3638 203e 23b9 4a6d c2b8 ad16 8539

mlp_encoder.model.0.bias f4 [32]
0.00015030701 -2.35791e-05 -8.754822e-05 -0.00012269302 -3.6695445e-05 9.499298e-05 -0.0002929208 0.00015966476
-6.612716e-05 0.00013884647 -9.8987744e-05 4.764772e-05 -1.3655876e-05 3.5538316e-05 -7.6221724e-05 6.3399525e-06
0.00013747977 -3.321032e-05 0.0001332397 0.00024706966 -0.00013852646 0.00022195991 -0.00014156745 -0.00037316873
0.00011604862 6.919774e-05 -4.3818854e-05 7.910743e-06 0.00012841908 -0.00011354122 4.6284338e-05 -0.00013428698
00000000: bb9b 1d39 bbcb c5b7 189a b7b8 28a7 00b9
00000010: 6fe9 19b8 f836 c738 2a93 99b9 af6b 2739
00000020: c0ad 8ab8 5197 1139 a497 cfb8 5ad9 4738
00000030: 8a1b 65b7 fa0e 1538 3ad9 9fb8 c7bb d436
00000040: 7228 1039 4f4b 0bb8 42b6 0b39 2189 8139
00000050: 6a41 11b9 e9bd 6839 b971 14b9 dca5 c3b9
00000060: 215f f338 411e 9138 23ca 37b8 62b8 0437
00000070: 3ca8 0639 fa1c eeb8 6e21 4238 63cf 0cb9

mlp_encoder.model.3.weight f4 [3, 32]
0.00029822122 -0.00020859206 0.0002558751 -7.58746e-05 -5.2438107e-05 -4.2634016e-05 7.0213624e-05 -0.00022518136
7.507414e-05 -0.00019726114 9.872828e-07 0.00023531819 -0.0002565114 -0.00019107662 5.264403e-05 -1.9999316e-06
-7.4113486e-05 0.00016604037 -8.684705e-05 -0.00021642889 -8.319909e-05 0.00023451638 0.0002624131 -5.9796967e-05
0.00023279552 -0.00028077347 2.8755308e-05 0.00017985706 -0.00010050847 0.00012366586 0.00022405776 8.640852e-05
-4.9741222e-05 -0.00014723428 3.6043577e-05 -3.7807615e-05 0.00016485968 -0.00018714379 -0.000177303 5.1844843e-05
4.2634474e-05 -7.512615e-05 8.107075e-06 8.2055536e-05 -5.990691e-05 -0.0001043412 -9.873585e-05 -0.00019832187
-0.00024685287 -1.4051553e-05 0.00011435776 0.00013004149 0.00012415844 -0.000175704 -9.0929525e-06 4.465741e-05
-0.00019582525 -0.00018756861 -4.9176597e-05 -0.00017037749 -0.00018936514 1.9423418e-05 4.1148192e-05 -0.00022673926
-0.00022289802 -0.00012388626 6.711552e-05 0.0002811432 7.81372e-05 -6.1478604e-05 2.9245859e-05 -0.0003124318
7.6894554e-05 4.1953164e-05 1.5786567e-05 -0.00020725465 0.000275514 7.463312e-05 -0.0002465494 0.000107894106
-6.59743e-05 4.109049e-05 7.2504256e-05 1.7643815e-05 0.00011629146 7.4181526e-06 -0.00011401805 0.00011042464
9.297156e-05 -0.00012898986 3.1541645e-06 0.00010205459 0.00018715738 0.00015816848 0.00016500163 2.9854049e-05
00000000: 935a 9c39 81b9 5ab9 f926 8639 de1e 9fb8
00000010: fdf0 5bb8 edd1 32b8 a73f 9338 a91e 6cb9
00000020: 1f71 9d38 e2d7 4eb9 c782 8435 bfbf 7639
00000030: 617c 86b9 bd5b 48b9 19ce 5c38 9036 06b6
00000040: 606d 9bb8 1f1b 2e39 a821 b6b8 30f1 62b9
00000050: 2c7b aeb8 83e8 7539 7d94 8939 81ce 7ab8
00000060: 921a 7439 c734 93b9 8e37 f137 0398 3c39
00000070: 13c8 d2b8 4dac 0139 0cf1 6a39 3936 b538
00000080: 3ba1 50b8 e762 1ab9 7f2d 1738 9e93 1eb8
00000090: 2fde 2c39 073c 44b9 69ea 39b9 fa73 5938
000000a0: 6bd2 3238 0b8d 9db8 9f03 0837 3b15 ac38
000000b0: 8e44 7bb8 c1d1 dab8 6810 cfb8 9ff4 4fb9
000000c0: 086c 81b9 f6be 6bb7 5bd3 ef38 bf5b 0839
000000d0: 8730 0239 2f3d 38b9 ef8d 18b7 874e 3b38
000000e0: 7156 4db9 11ae 44b9 f842 4eb8 5ca7 32b9
000000f0: 5190 46b9 79ef a237 8996 2c38 dbc0 6db9
00000100: bbb9 69b9 77e7 01b9 5fc0 8c38 6766 9339
00000110: 97dd a338 13ee 80b8 0155 f537 e3cd a3b9
00000120: 7342 a138 def6 2f38 656d 8437 7f52 59b9
00000130: dd72 9039 5a84 9c38 4d43 81b9 3545 e238
00000140: af5b 8ab8 9458 2c38 6d0d 9838 ce01 9437
00000150: 81e1 f338 72e9 f836 f91c efb8 c793 e738
00000160: baf9 c238 7441 07b9 22ac 5336 2406 d638
00000170: ad3f 4439 07da 2539 4a04 2d39 156f fa37

mlp_encoder.model.3.bias f4 [3]
-0.00011032101 0.00015739667 -0.71619594
00000000: 245c e7b8 d90a 2539 9e58 37bf
