online_adapt_sim/learned_models/meta_mlpt_h4_bl20/model_param.pth (torch, 4407 bytes, 4 tensors)

mlp_encoder.model.0.weight f4 [32, 15]
6.2642393e-06 0.00015839832 -5.3404456e-05 -1.12418575e-05 -2.98555e-05 4.8093145e-05 -8.713053e-05 -5.2715568e-05
-4.0076375e-05 -8.403935e-07 0.000115765906 -0.00012836634 -7.012155e-05 8.083754e-05 0.00015265682 0.0001165275
0.00015569778 -0.00022329132 3.90008e-05 9.4206465e-05 0.000490096 0.000101424725 -5.6901343e-05 0.00035656668
-9.388319e-05 0.00028985165 -0.00017948727 3.440653e-05 -9.44763e-05 -0.0002290014 -0.0001564786 -5.378829e-05
0.00019830624 5.699772e-05 -6.430974e-05 -8.185661e-05 0.0001541369 8.449839e-05 3.0636718e-06 0.00010738254
-0.000117437776 -0.00019644923 -0.00020145006 -0.000117081356 0.00031467978 -0.00015025852 -5.402143e-05 4.4765955e-05
-1.3114003e-05 0.00019578321 -2.0002743e-05 -0.00016130893 -6.907099e-05 0.000121824574 8.2631894e-05 -1.3264028e-06
-7.312269e-05 2.7733622e-05 -3.085186e-05 5.957829e-06 8.23219e-05 0.00042114826 0.00021618025 -1.3905011e-05
0.00026633719 0.00014395962 9.392628e-05 8.27722e-05 0.000100949 0.00012600707 -0.00011597455 0.00011954964
0.000101722566 2.5271763e-06 -6.525525e-05 -8.934502e-05 0.00020618888 -2.9181696e-05 4.169599e-06 5.843787e-06
-9.56621e-05 7.931983e-06 -0.00017107488 0.00028028717 0.0003548765 0.000150466 7.232496e-08 0.000117383126
0.00011534498 1.875655e-05 -0.000120321674 0.000107216096 0.00010064235 -4.490667e-05 0.00012617375 4.7616282e-05
9.137935e-05 4.255944e-05 0.00019477175 -7.071785e-05 -0.00013909 -0.00012292546 2.5528594e-05 7.256644e-05
-7.290377e-06 -1.695855e-05 1.134743e-05 -3.688191e-05 -0.00017381264 -0.00012617081 0.00019843149 0.00015812588
-1.3993428e-05 7.540863e-05 -0.00017505376 -1.0305227e-05 0.00013833422 -1.009903e-05 0.00014757192 0.000120724886
-0.00011192895 2.7307446e-05 5.2051764e-05 -0.00012101332 6.382945e-05 -4.3177602e-05 -0.00026674947 5.8211936e-05
-5.319987e-05 4.901356e-05 0.00015425507 0.000101106925 -0.00013262308 4.4707944e-05 5.3806493e-06 -6.74258e-05
0.00140575 0.12065839 -0.00019920792 0.00043217978 0.00055387383 0.00015634172 0.00016996638 0.10256772
-0.00069939997 0.00030238891 0.16382456 -0.0008158409 0.006378123 0.23666605 8.601255e-05 4.9990962e-05
4.423588e-05 8.7701854e-05 -4.0337698e-05 0.000107511914 0.000106101346 2.8013368e-05 0.00024794575 6.44642e-05
-1.3864658e-06 -0.00034425364 -0.00011069006 5.309801e-05 4.5146535e-05 3.1006304e-05 -0.00016521929 2.590718e-05
3.218996e-05 3.2026503e-05 2.716646e-05 -0.00011274524 0.0001177347 -0.000106905216 0.00018462849 9.6840115e-05
-0.0001321227 0.00021151922 -1.477482e-05 9.983084e-05 6.901681e-05 0.0070052543 0.06874312 -0.0008439329
0.00083628827 0.03954212 -0.00026364098 0.0013683792 0.09744685 -0.008819568 0.005138439 0.1958023
-0.01846933 0.036647364 0.25993457 -2.5346986e-05 -7.909764e-05 4.1323974e-06 -1.6336293e-05 -1.8724122e-05
6.364268e-05 -6.875764e-05 -9.474583e-05 -2.8844492e-05 0.00014876096 9.6575546e-05 -0.00015007351 0.00019640103
-1.2186196e-05 -0.00021236888 2.8588362e-05 -0.00012487461 1.2171713e-05 0.00012005174 8.942035e-05 8.820431e-05
4.232812e-05 -5.2155778e-05 0.00022139437 0.0002564599 -4.3770164e-05 -4.337744e-05 0.00021372203 -0.00022691596
0.00011971603 0.00012644187 -0.00013669587 -0.00022565994 -2.7702702e-06 0.00016283552 -6.697318e-05 0.00016304891
-3.6075128e-06 6.113722e-06 6.499025e-05 0.00034914794 0.00013450984 3.054494e-05 -3.2767945e-05 5.0024905e-06
0.00014598182 3.8175902e-05 0.00011294465 0.00022605847 -0.0001002586 0.00041592566 -8.310698e-05 3.9605846e-05
0.00017505907 -0.0001467422 0.00011379875 0.00029103342 0.00013924754 -0.00018936468 0.00013992286 -0.00021304641
00000000: 6831 d236 ba17 2639 99fe 5fb8 699b 3cb7
00000010: 3372 fab7 9fb7 4938 d9b9 b6b8 e91a 5db8
00000020: ae17 28b8 6797 61b5 59c7 f238 149a 06b9
00000030: 380e 93b8 5387 a938 8112 2039 3a60 f438
00000040: ce42 2339 4f23 6ab9 ca94 2338 b690 c538
00000050: c979 003a fcb3 d438 5aa9 6eb8 92f1 ba39
00000060: 27e3 c4b8 3bf7 9739 bf34 3cb9 bb4f 1038
00000070: 9421 c6b8 1820 70b9 6814 24b9 bd9a 61b8
00000080: 6df0 4f39 d610 6f38 07de 86b8 6faa abb8
00000090: cf9f 2139 ba34 b138 7b99 4d36 9032 e138
000000a0: ed48 f6b8 f0fd 4db9 573c 53b9 9389 f5b8
000000b0: 9bfb a439 b78e 1db9 1295 62b8 14c3 3b38
000000c0: 3704 5cb7 284b 4d39 90cb a7b7 0925 29b9
000000d0: 35da 90b8 127c ff38 a94a ad38 da06 b2b5
000000e0: 7259 99b8 80a5 e837 ef66 01b8 5de9 c736
000000f0: 3ca4 ac38 90cd dc39 72ae 6239 9149 69b7
00000100: 2ca3 8b39 def3 1639 4afa c438 fd95 ad38
00000110: 95b4 d338 c420 0439 5d37 f3b8 b9b6 fa38
00000120: e353 d538 8f98 2936 a5d9 88b8 be5e bbb8
00000130: 6834 5839 37cb f4b7 95e8 8b36 c015 c436
00000140: 339e c8b8 9c13 0537 9062 33b9 82f3 9239
00000150: b80e ba39 69c6 1d39 1151 9b33 962b f638
00000160: 5de5 f138 6257 9d37 3555 fcb8 34d9 e038
00000170: f30f d338 2b5a 3cb8 824d 0439 98b7 4738
00000180: eaa2 bf38 da81 3238 a53b 4c39 5b4e 94b8
00000190: b0d8 11b9 8de5 00b9 3d26 d637 d02e 9838
000001a0: dd9f f4b6 3542 8eb7 d760 3e37 a6b1 1ab8
000001b0: 7a41 36b9 b84c 04b9 0c12 5039 98ce 2539
000001c0: 51c5 6ab7 b324 9e38 a38e 37b9 9de4 2cb7
000001d0: cf0d 1139 016f 29b7 89bd 1a39 ae2d fd38
000001e0: 66bb eab8 4b12 e537 2852 5a38 88c8 fdb8
000001f0: 2ddc 8538 9919 35b8 82da 8bb9 9728 7438
00000200: ed22 5fb8 e993 4d38 88bf 2139 5e09 d438
00000210: bd10 0bb9 ca84 3b38 6d8b b436 f366 8db8
00000220: 2541 b83a bf1b f73d 78e2 50b9 3096 e239
00000230: d831 113a a9ef 2339 0139 3239 060f d23d
00000240: f057 37ba f489 9e39 a0c1 273e 28de 55ba
00000250: 93ff d03b 9658 723e a361 b438 63ad 5138
00000260: ea89 3938 93ec b738 4630 29b8 0578 e138
00000270: ba82 de38 40fe ea37 b7fe 8139 f430 8738
00000280: 9a16 bab5 f17c b4b9 4622 e8b8 8eb5 5e38
00000290: b95b 3d38 c40c 0238 b73e 2db9 3f53 d937
000002a0: b503 0738 3254 0638 87e3 e337 a471 ecb8
000002b0: 56e8 f638 4d32 e0b8 d598 4139 a416 cb38
000002c0: 6b8a 0ab9 42cb 5d39 5ee1 77b7 465c d138
000002d0: 1ebd 9038 558c e53b 31c9 8c3d 613b 5dba
000002e0: 5b3a 5b3a ebf6 213d 4b39 8ab9 305b b33a
000002f0: 3792 c73d f37f 10bc 5a60 a83b 6680 483e
00000300: fe4c 97bc 8c1b 163d 2516 853e 3da0 d4b7
00000310: 39e1 a5b8 06a9 8a36 ec09 89b7 bf11 9db7
00000320: e777 8538 fa31 90b8 48b2 c6b8 13f7 f1b7
00000330: b7fc 1b39 9a88 ca38 0d5d 1db9 00f1 4d39
00000340: 5073 4cb7 56af 5eb9 0ad1 ef37 c6f0 02b9
00000350: 1c35 4c37 4ac4 fb38 2f87 bb38 54fa b838
00000360: 7989 3138 d7c1 5ab8 1926 6839 7775 8639
00000370: db95 37b8 2cf0 35b8 921a 6039 4af0 6db9
00000380: 0e10 fb38 7b95 0439 0556 0fb9 219f 6cb9
00000390: e1e8 39b6 d4be 2a39 f473 8cb8 1cf8 2a39
000003a0: 9918 72b6 7924 cd36 604b 8838 d80d b739
000003b0: 360b 0d39 611d 0038 5070 09b8 11db a736
000003c0: b212 1939 101f 2038 b2dc ec38 1c0a 6d39
000003d0: ed41 d2b8 9910 da39 b849 aeb8 741e 2638
000003e0: 1090 3739 cfde 19b9 3da7 ee38 d895 9839
000003f0: fa02 1239 3290 46b9 42b8 1239 3665 5fb9

mlp_encoder.model.0.bias f4 [32]
-4.4684944e-06 -8.92397e-05 0.00026324907 0.00010850031 0.1439232 -0.0002983069 -8.264436e-05 -4.6431414e-05
-0.000110153 5.224452e-05 2.9568539e-05 -1.1212257e-05 3.7565307e-05 -2.4301857e-05 5.228975e-05 5.9432718e-05
-6.408663e-05 8.5192674e-05 -4.5278516e-06 -2.7142412e-05 7.542327e-05 -9.558893e-05 4.0995455e-05 -8.248144e-05
-3.8557453e-05 -2.2463631e-05 0.29523352 -0.17426474 -0.0001244514 -5.8101126e-05 -0.24821377 0.00011224558
00000000: 13f0 95b6 3326 bbb8 b104 8a39 a98a e338
00000010: 9a60 133e 1366 9cb9 5a51 adb8 5abf 42b8
00000020: f101 e7b8 2021 5b38 f409 f837 471c 3cb7
00000030: 718f 1d38 d7db cbb7 b151 5b38 6547 7938
00000040: 3f66 86b8 78a9 b238 f3ed 97b6 e3af e3b7
00000050: 8f2c 9e38 eb76 c8b8 89f2 2b38 e3f9 acb8
00000060: c0b8 21b8 4870 bcb7 d928 973e 7572 32be
00000070: 2b7f 02b9 9cb1 73b8 c02b 7ebe 6365 eb38

mlp_encoder.model.3.weight f4 [3, 32]
4.4807533e-05 -0.00012963092 -2.9630713e-05 -4.91277e-05 5.7690304e-05 1.9319858e-05 7.57466e-05 1.5377154e-05
5.1024854e-05 -0.0001471117 0.00013531101 -8.507271e-07 9.916891e-05 0.0001140103 9.829673e-05 -1.4866767e-05
8.4846644e-05 0.00013286193 0.13039936 -0.00016782894 -4.6742032e-05 4.6550653e-05 -9.197391e-05 0.00019510175
1.429905e-05 -0.37643802 2.0001931e-05 -8.3967725e-06 -1.3332379e-05 -6.2596424e-05 0.8627315 -4.160964e-05
5.908759e-06 0.10292211 1.9922556e-05 5.738972e-06 -8.6741275e-05 5.760561e-05 1.0261227e-06 0.00015879472
-1.7136013e-05 -0.76866806 -0.000119821554 -0.000119659046 -0.85186 2.691987e-05 0.000107617096 2.0101777e-05
3.0271067e-05 4.935887e-05 -3.3864264e-05 2.8233319e-05 -6.6277236e-05 7.5244876e-05 0.00013505283 5.1784496e-05
4.9584414e-05 0.16801776 -6.320829e-05 -0.030893015 3.5944103e-07 -6.0310153e-06 -6.391964e-06 6.50984e-05
2.0476964e-05 9.474235e-05 8.999095e-05 -4.176886e-05 -0.09847099 -0.00010444518 -0.00044393883 1.2983194e-05
0.00015385007 -7.1988004e-05 0.03203069 -1.1487109e-05 0.00014205949 -4.257164e-05 -1.7628674e-06 -1.3612148e-05
4.3598982e-05 -0.0241399 0.0001124821 0.00012167924 4.9195507e-05 9.500975e-05 -4.213491e-06 -0.0002820178
1.82823e-06 0.5597454 -0.598955 0.19224572 -1.1154781e-05 -4.3514778e-05 -0.00022186978 -0.00010658713
00000000: b9ef 3b38 89ed 07b9 798f f8b7 770e 4eb8
00000010: 7ef8 7138 1411 a237 25da 9e38 30fe 8037
00000020: 8503 5638 ff41 1ab9 46e2 0d39 855d 64b5
00000030: e7f8 cf38 d018 ef38 a824 ce38 476c 79b7
00000040: b2ef b138 da50 0b39 6987 053e 3dfb 2fb9
00000050: e00c 44b8 623f 4338 1ee2 c0b8 3a94 4c39
00000060: f4e5 6f37 7cbc c0be d2c9 a737 dddf 0cb7
00000070: 22ae 5fb7 3346 83b8 f9db 5c3f 0386 2eb8
00000080: da43 c636 d4c8 d23d 5d1f a737 6591 c036
00000090: dee8 b5b8 8e9d 7138 4fb9 8935 2282 2639
000000a0: 4fbf 8fb7 6ec7 44bf b548 fbb8 76f1 fab8
000000b0: 7f13 5abf fbd1 e137 7db0 e138 3da0 a837
000000c0: 9fee fd37 af06 4f38 7a09 0eb8 97d6 ec37
000000d0: 52fe 8ab8 c9cc 9d38 f89c 0d39 2e33 5938
000000e0: dcf8 4f38 d90c 2c3e b18e 84b8 5913 fdbc
000000f0: 33f9 c034 075e cab6 8d7a d6b6 7085 8838
00000100: f2c5 ab37 69b0 c638 86b9 bc38 f930 2fb8
00000110: 29ab c9bd 9409 dbb8 76c0 e8b9 65d2 5937
00000120: d052 2139 44f8 96b8 9d32 033d c2b8 40b7
00000130: cef5 1439 f38e 32b8 aa9b ecb5 bb5f 64b7
00000140: 0dde 3638 0ac1 c5bc 5ee4 eb38 0b2e ff38
00000150: 4657 4e38 f93f c738 9d61 8db6 cadb 93b9
00000160: 8161 f535 794b 0f3f 1d55 19bf 10dc 443e
00000170: 6b25 3bb7 a383 36b8 b7a5 68b9 8887 dfb8

mlp_encoder.model.3.bias f4 [3]
-0.21359232 -3.2343865e-05 -0.30238995
00000000: f2b7 5abe f6a8 07b8 dbd2 9abe
