online_adapt_sim/learned_models/meta_mlpt_h2_bl15/model_param.pth (torch, 3639 bytes, 4 tensors)

mlp_encoder.model.0.weight f4 [32, 9]
0	0x3867798e	5.51879e-05
1	0x382d97f2	4.1387924e-05
2	0xb9474ef1	-0.00019007527
3	0x376aa262	1.3985295e-05
4	0xb9497335	-0.00019211772
5	0x37c42fbb	2.3387247e-05
6	0x38865ed8	6.407284e-05
7	0x38a739ab	7.973922e-05
8	0x3945acbb	0.00018851731
9	0x3901575c	0.00012334943
10	0xb926ae23	-0.00015895865
11	0xb8634211	-5.4182547e-05
12	0x38f95aa9	0.00011890132
13	0xb8d24299	-0.00010025985
14	0x38f9d4f7	0.00011912913
15	0x391c041b	0.00014878849
16	0x38cd430b	9.7876495e-05
17	0xb8653905	-5.465096e-05
18	0xb9a579c9	-0.0003156199
19	0x3885aedc	6.374504e-05
20	0x386bf829	5.6259483e-05
21	0x3915e34f	0.00014294426
22	0xb932f594	-0.00017066888
23	0x38898c1a	6.558765e-05
24	0x382d4a69	4.1315714e-05
25	0xb92a254f	-0.00016226362
26	0x38ae1fa0	8.302857e-05
27	0x38b19807	8.468335e-05
28	0xb80d69f8	-3.371571e-05
29	0x38226b33	3.8723647e-05
30	0xb9621c5f	-0.00021563609
31	0x39067cfc	0.00012825796
32	0x388caebc	6.708267e-05
33	0x37cd3c28	2.4465917e-05
34	0x379a64ec	1.8405226e-05
35	0x39297188	0.0001615939
36	0xb530f21a	-6.5917413e-07
37	0xb9493e10	-0.00019191974
38	0xb6e5262d	-6.829176e-06
39	0xb889e5c5	-6.575467e-05
40	0xb913c81c	-0.00014093559
41	0x39335f00	0.0001710616
42	0xb876620c	-5.8742284e-05
43	0x3714b084	8.862586e-06
44	0xb93eb658	-0.0001818774
45	0xb923fd23	-0.00015639192
46	0xb8b36a13	-8.555143e-05
47	0x398fecb0	0.0002745143
48	0x3909401c	0.00013089221
49	0x39414f9f	0.00018435575
50	0x391aff97	0.00014781799
51	0xb846f46f	-4.7434525e-05
52	0xb8feb049	-0.000121444995
53	0xb981c20b	-0.0002474937
54	0xb9a54e4f	-0.00031529597
55	0xb9b17fb7	-0.00033855226
56	0xb956332b	-0.00020427692
57	0xb780026a	-1.5259913e-05
58	0xb7925013	-1.7441844e-05
59	0x395f86ff	0.00021317227
60	0xb7e40c51	-2.7185453e-05
61	0x378abbde	1.6538364e-05
62	0xb8e49e0c	-0.00010901326
63	0xb87fb852	-6.09684e-05
64	0xb9118fd3	-0.00013881856
65	0xb8800860	-6.1050756e-05
66	0x37e1edce	2.6932827e-05
67	0xb94dfa58	-0.00019643584
68	0xb94c8050	-0.00019502756
69	0xb8e0a923	-0.000107126565
70	0x38f70c8d	0.000117802156
71	0x389de7a1	7.5294876e-05
72	0x380a0e08	3.291483e-05
73	0x38e1e359	0.00010771183
74	0x383bb310	4.475104e-05
75	0x394abaaf	0.00019333766
76	0xb9de733a	-0.0004242899
77	0xb873294b	-5.797417e-05
78	0xb8944f2e	-7.071938e-05
79	0xb929600d	-0.00016152878
80	0xb89715c2	-7.204294e-05
81	0xb7a46da1	-1.9601373e-05
82	0xb90bd19d	-0.0001333416
83	0xb902ffd2	-0.00012493067
84	0xb89be92c	-7.4344076e-05
85	0x390e1fa3	0.00013553961
86	0xb8e9e6cf	-0.00011153297
87	0xb90b67fd	-0.00013294812
88	0xb88fbf84	-6.854444e-05
89	0xb78ae669	-1.6558175e-05
90	0x377d3deb	1.50943915e-05
91	0xb92a69c1	-0.0001625186
92	0xb9682d67	-0.00022142158
93	0xb75a238d	-1.300209e-05
94	0xb99a2779	-0.00029402578
95	0x36f8d9fe	7.4163536e-06
96	0xb861f3ed	-5.3871354e-05
97	0xb92945e2	-0.0001614313
98	0xb98a9d66	-0.00026438682
99	0xb89f7537	-7.603544e-05
100	0xb8cd10ea	-9.778312e-05
101	0x38928151	6.9859096e-05
102	0xb8742da5	-5.8216643e-05
103	0xb9044c21	-0.00012616861
104	0x3944c0a9	0.00018763788
105	0x39861c28	0.0002557945
106	0x387c8ed6	6.021451e-05
107	0xb5021e00	-4.847243e-07
108	0xb8c9d31f	-9.623751e-05
109	0xb938f651	-0.00017639367
110	0x39593ab3	0.000207166
111	0xb8e6fe71	-0.00011014648
112	0xb4d2c899	-3.9261502e-07
113	0xb8d870f1	-0.000103207196
114	0x394b2ccd	0.00019376278
115	0x361b05fc	2.3100283e-06
116	0xb980dead	-0.0002457997
117	0xb9c28d37	-0.00037107777
118	0x3e19751f	0.14986084
119	0x393b9f57	0.00017893068
120	0x3a821bc8	0.0009926492
121	0x3dfb2913	0.12263694
122	0x3a2ed02a	0.0006668592
123	0xb886d77a	-6.4297536e-05
124	0x3de83abd	0.113393284
125	0x39b18404	0.0003385843
126	0x3835b37b	4.3320917e-05
127	0x38e22527	0.0001078344
128	0x38a1f670	7.722981e-05
129	0x388819f9	6.489823e-05
130	0xb816a7d4	-3.591909e-05
131	0xb9de9896	-0.00042456825
132	0xb88c80be	-6.6997e-05
133	0x370003a8	7.630246e-06
134	0xb87119b2	-5.748281e-05
135	0x388c9207	6.70292e-05
136	0x373f2264	1.1392494e-05
137	0x381675d2	3.5872516e-05
138	0x3968dd52	0.00022207692
139	0x375720b7	1.2822616e-05
140	0x38e38d83	0.00010850562
141	0xb8474af2	-4.7515096e-05
142	0x3900520a	0.00012237593
143	0xb906836a	-0.00012828191
144	0xb8802c2a	-6.111742e-05
145	0xb803c11c	-3.141268e-05
146	0x35ec1c0c	1.7591533e-06
147	0xb9c724f0	-0.00037983758
148	0xb8dd53bd	-0.00010553699
149	0x3980c485	0.0002456048
150	0x396fdfd1	0.00022876194
151	0xb866047e	-5.4840457e-05
152	0x38308813	4.20884e-05
153	0x3892e800	7.005036e-05
154	0xb81b34c9	-3.700404e-05
155	0xb8b99960	-8.850056e-05
156	0x38a1d662	7.71701e-05
157	0x3936da9c	0.00017438311
158	0x39053464	0.00012703385
159	0x37694dd8	1.3906007e-05
160	0x368d8202	4.2172624e-06
161	0xb70846f6	-8.122754e-06
162	0x3dc39189	0.09549243
163	0x3ac721b7	0.0015192543
164	0x39c9a28e	0.0003845882
165	0x3e2b423d	0.16724487
166	0x397e82b4	0.00024272018
167	0x3e661391	0.22468401
168	0x3ed932d5	0.42421594
169	0x3a7efe72	0.00097272464
170	0x3e874e4e	0.2642693
171	0xb6e29a14	-6.753262e-06
172	0xb7aa547d	-2.0304922e-05
173	0x39089a40	0.00013027433
174	0xb80d498b	-3.3685512e-05
175	0xb878eb90	-5.9347192e-05
176	0xb940fe13	-0.00018405197
177	0x38593be2	5.1792602e-05
178	0xb658d4b7	-3.2310325e-06
179	0x3992d2d7	0.00028004378
180	0xb9051249	-0.0001269068
181	0xb728424a	-1.0029014e-05
182	0xb928a287	-0.00016082275
183	0xb80ed794	-3.405621e-05
184	0x370bcc40	8.332601e-06
185	0xb9a1a5c2	-0.00030831812
186	0x3904fe5c	0.00012683257
187	0x36d51564	6.350385e-06
188	0xb89b69ca	-7.410681e-05
189	0x38c79b00	9.5179304e-05
190	0xb874f66b	-5.8403628e-05
191	0xb7a8c581	-2.011913e-05
192	0x392003ed	0.00015260252
193	0x362e0b23	2.5934503e-06
194	0xb8797c3a	-5.948192e-05
195	0x39089545	0.00013025578
196	0x39c684d1	0.0003786446
197	0x38077382	3.2294083e-05
198	0xb96de7c5	-0.00022688422
199	0x3821a059	3.8534727e-05
200	0x382249b4	3.869245e-05
201	0xb804bcdf	-3.1647152e-05
202	0x391614b0	0.00014312821
203	0xb94efd1b	-0.0001973998
204	0xb7f0b76f	-2.8695647e-05
205	0xb84e227e	-4.914635e-05
206	0x393af5a6	0.00017829853
207	0x37cc67d2	2.436704e-05
208	0xb8a06ef9	-7.650065e-05
209	0xb867d744	-5.5275174e-05
210	0x3880b601	6.1374165e-05
211	0x39098bed	0.00013117465
212	0x3695075b	4.4414023e-06
213	0x398ee917	0.00027258016
214	0xb8ae466a	-8.310082e-05
215	0xb84c2dd2	-4.8680064e-05
216	0x39746e8c	0.00023310835
217	0xb960b267	-0.00021428765
218	0xb7c1c02e	-2.3096884e-05
219	0xb721fe2f	-9.6555295e-06
220	0xb91dd972	-0.00015053691
221	0xb88e8dcb	-6.797499e-05
222	0x3903168a	0.0001250153
223	0xb9010c10	-0.00012306892
224	0x3987e7b5	0.00025921842
225	0x38547b6a	5.0659677e-05
226	0x38bdb65b	9.046189e-05
227	0x3980a9d0	0.00024540583
228	0xb7e3937e	-2.712919e-05
229	0xb83d219a	-4.5092405e-05
230	0x39694962	0.00022247949
231	0x3829e34e	4.0504434e-05
232	0x393d9233	0.00018078908
233	0x391c7623	0.00014921329
234	0x38d4c75b	0.000101460806
235	0x37bc101f	2.2418853e-05
236	0x39207ced	0.00015305328
237	0x38dae3f8	0.000104375125
238	0xb9bac6af	-0.00035624715
239	0xb90a4c6b	-0.00013189173
240	0x39193f97	0.00014614906
241	0xb8d42550	-0.00010115898
242	0x36e002e8	6.6760585e-06
243	0x38f8942d	0.000118531614
244	0xb92b43aa	-0.00016333038
245	0x3838d910	4.4071174e-05
246	0x3845cecb	4.716105e-05
247	0xb8f448e1	-0.000116484014
248	0xb9213e51	-0.00015377371
249	0x3692943a	4.368395e-06
250	0xb858bd70	-5.167484e-05
251	0xb8cc7571	-9.749353e-05
252	0x39101511	0.00013740758
253	0xb8cbc847	-9.717099e-05
254	0x39a78f99	0.0003195971
255	0xb7be0e72	-2.2656492e-05

mlp_encoder.model.0.bias f4 [32]
0	0x38e97683	0.0001113238
1	0xb8053aef	-3.1764557e-05
2	0x39084320	0.00012994977
3	0x38d48ae0	0.00010134815
4	0xb74d09b9	-1.2221216e-05
5	0x3921605e	0.00015390056
6	0x396ff4f3	0.00022884067
7	0x37c056f7	2.292868e-05
8	0x39474c8c	0.00019006635
9	0xb92a2558	-0.00016226375
10	0x391d533d	0.00015003695
11	0xb8d91756	-0.00010351713
12	0x388ecea5	6.809578e-05
13	0x3eb76f3b	0.3582705
14	0x398af77e	0.00026505807
15	0x39740220	0.00023270445
16	0x398ece5e	0.00027238106
17	0xb7d4ea43	-2.5381456e-05
18	0xb8ad4fb3	-8.264128e-05
19	0x38442421	4.676369e-05
20	0x3606de67	2.0097011e-06
21	0xb8bda0f5	-9.042203e-05
22	0x38a03002	7.638337e-05
23	0xb9d12b0b	-0.00039895656
24	0xb8a6c73b	-7.9526064e-05
25	0x3879eeea	5.9588732e-05
26	0x394226f5	0.00018515794
27	0x38acff98	8.249207e-05
28	0xb84c02f3	-4.8640137e-05
29	0xbac19683	-0.0014769587
30	0xb84ed07c	-4.9308393e-05
31	0x39215978	0.00015387486

mlp_encoder.model.3.weight f4 [3, 32]
0	0xb86336f6	-5.4172204e-05
1	0x39134e1f	0.00014048115
2	0x37cf1d82	2.4690064e-05
3	0xb70c1eb2	-8.351797e-06
4	0x38160d81	3.5775363e-05
5	0xb8a00713	-7.630712e-05
6	0xb8d10136	-9.966122e-05
7	0x38d0a06f	9.948096e-05
8	0xb7c97ef7	-2.402019e-05
9	0x390a31fd	0.00013179328
10	0x389d656e	7.505236e-05
11	0x38f3ed5a	0.00011631353
12	0x386b039f	5.603174e-05
13	0x38c2e692	9.293588e-05
14	0xb81fa7e5	-3.8064918e-05
15	0xb9adbda8	-0.00033138436
16	0xb9a5b839	-0.0003160851
17	0xb9333d88	-0.00017093692
18	0x387ebee5	6.0736103e-05
19	0xb75e66a4	-1.3256129e-05
20	0xb89bea3c	-7.4346055e-05
21	0x3995bdba	0.00028560852
22	0xb7be14ec	-2.2659508e-05
23	0x386d2f51	5.654927e-05
24	0xb7bf3510	-2.2793683e-05
25	0x38427232	4.6359557e-05
26	0x389b1192	7.394249e-05
27	0xb91a9e44	-0.00014745543
28	0x3887081c	6.438812e-05
29	0x3f6d92c4	0.9280207
30	0x38a8a064	8.040739e-05
31	0x3edf924e	0.4366631
32	0x38d5397d	0.000101673395
33	0x364ddae7	3.0674798e-06
34	0xb960c0db	-0.00021434149
35	0x37abc577	2.047674e-05
36	0x3889b401	6.5661974e-05
37	0x390bb6ab	0.00013324122
38	0xb94ec8c2	-0.00019720479
39	0xb721474c	-9.612948e-06
40	0x38bc0ace	8.966551e-05
41	0xb93fd3f8	-0.00018294144
42	0x391f77e4	0.00015208084
43	0xb96bbc56	-0.00022481507
44	0xb8ab8a65	-8.1796934e-05
45	0xbf65b82b	-0.89734143
46	0x37a341e5	1.9461799e-05
47	0x390d64e6	0.00013484395
48	0x38f9409e	0.00011885281
49	0x39044277	0.00012613261
50	0xb7cbad48	-2.4280176e-05
51	0x3619aed3	2.2900538e-06
52	0xb91585f2	-0.00014259646
53	0x3899b81f	7.329904e-05
54	0xb8175b89	-3.6086454e-05
55	0x38a94e73	8.07316e-05
56	0x3802807b	3.1114072e-05
57	0xb8c1af50	-9.235612e-05
58	0x38ffb7ff	0.000121936195
59	0xb861232a	-5.367693e-05
60	0xb8519502	-4.9968257e-05
61	0xb99df853	-0.0003013039
62	0xb92fb54d	-0.0001675684
63	0xbdbc9b7c	-0.09209344
64	0x38149dfd	3.5433088e-05
65	0x38c06995	9.1749396e-05
66	0xb8806810	-6.122899e-05
67	0xb84c789f	-4.8749727e-05
68	0xb8eb3578	-0.000112156325
69	0xb8621ec1	-5.391124e-05
70	0xb8bba97f	-8.948426e-05
71	0xb81ca400	-3.7346035e-05
72	0xb8dd921d	-0.00010565317
73	0xb7beb1e0	-2.2732595e-05
74	0xb902bf56	-0.00012469044
75	0x389644d2	7.165376e-05
76	0xb8d6eb55	-0.00010248149
77	0x38c92d03	9.592811e-05
78	0xb7775229	-1.4741477e-05
79	0x37aa4ba0	2.0300795e-05
80	0xb61e9013	-2.3627697e-06
81	0xb7e3c8ee	-2.7154074e-05
82	0xbf842878	-1.032485
83	0x38cf6406	9.88916e-05
84	0x38138766	3.517363e-05
85	0x3877f6aa	5.9119113e-05
86	0xb89415c5	-7.061245e-05
87	0x396f8c9b	0.00022845196
88	0x3857db0a	5.146399e-05
89	0x38c18cc1	9.2291746e-05
90	0xb880cc47	-6.141565e-05
91	0xb8147613	-3.5395915e-05
92	0x386da4e2	5.6658762e-05
93	0xb8b3bd07	-8.570594e-05
94	0x3b2fceb3	0.0026826083
95	0xb88c1c1e	-6.6809574e-05

mlp_encoder.model.3.bias f4 [3]
0	0xbe22b971	-0.15891053
1	0xbf111116	-0.56666696
2	0xb76177de	-1.3438954e-05
